network_application/eaif_server/models/oc/gNet.tflite (tflite, 475576 bytes, 79 tensors)

model_32/tf.linalg.matmul/MatMul i1 [6, 640] scale=0.003405341 zero_point=0
0	0xe2	-0.10216023
1	0xd1	-0.16005102
2	0xd5	-0.14642966
3	0xdb	-0.12599762
4	0xf3	-0.04426943
5	0xd4	-0.149835
6	0x00	0.0
7	0xe4	-0.09534955
8	0xdd	-0.11918693
9	0x10	0.054485455
10	0x00	0.0
11	0x00	0.0
12	0x0d	0.04426943
13	0xf2	-0.047674775
14	0xd6	-0.14302433
15	0x00	0.0
16	0x19	0.08513352
17	0xf6	-0.034053408
18	0x11	0.057890795
19	0x06	0.020432046
20	0x06	0.020432046
21	0xf6	-0.034053408
22	0x00	0.0
23	0xca	-0.1838884
24	0x00	0.0
25	0x00	0.0
26	0x32	0.17026705
27	0x00	0.0
28	0xbb	-0.23496853
29	0x03	0.010216023
30	0xc1	-0.21453647
31	0xf5	-0.03745875
32	0x0e	0.047674775
33	0x06	0.020432046
34	0xff	-0.003405341
35	0xd3	-0.15324034
36	0xef	-0.057890795
37	0x03	0.010216023
38	0xfb	-0.017026704
39	0xf8	-0.027242728
40	0x08	0.027242728
41	0xf8	-0.027242728
42	0x0d	0.04426943
43	0xcd	-0.1736724
44	0xf2	-0.047674775
45	0x0d	0.04426943
46	0xf3	-0.04426943
47	0xad	-0.2826433
48	0x00	0.0
49	0xff	-0.003405341
50	0x34	0.17707773
51	0x00	0.0
52	0xdf	-0.11237625
53	0xe8	-0.08172818
54	0x10	0.054485455
55	0xe8	-0.08172818
56	0x18	0.08172818
57	0x00	0.0
58	0x1c	0.09534955
59	0x1c	0.09534955
60	0xea	-0.0749175
61	0xf4	-0.04086409
62	0x00	0.0
63	0xb9	-0.24177921
64	0x10	0.054485455
65	0x00	0.0
66	0x0e	0.047674775
67	0xf8	-0.027242728
68	0x07	0.023837388
69	0xf4	-0.04086409
70	0xf8	-0.027242728
71	0xeb	-0.07151216
72	0xce	-0.17026705
73	0xfd	-0.010216023
74	0xe4	-0.09534955
75	0x13	0.064701475
76	0x00	0.0
77	0xf9	-0.023837388
78	0x00	0.0
79	0xd4	-0.149835
80	0x00	0.0
81	0x0c	0.04086409
82	0xee	-0.061296135
83	0xff	-0.003405341
84	0xde	-0.11578159
85	0x00	0.0
86	0x09	0.030648068
87	0x19	0.08513352
88	0xdd	-0.11918693
89	0xd0	-0.16345637
90	0x0a	0.034053408
91	0xeb	-0.07151216
92	0xf7	-0.030648068
93	0xe8	-0.08172818
94	0x00	0.0
95	0x11	0.057890795
96	0xe8	-0.08172818
97	0x04	0.013621364
98	0x00	0.0
99	0xd6	-0.14302433
100	0xe7	-0.08513352
101	0xf1	-0.051080115
102	0xde	-0.11578159
103	0x13	0.064701475
104	0xb9	-0.24177921
105	0xbf	-0.22134717
106	0x00	0.0
107	0x22	0.11578159
108	0x14	0.068106815
109	0xd5	-0.14642966
110	0xfd	-0.010216023
111	0xe0	-0.10897091
112	0x00	0.0
113	0x01	0.003405341
114	0xf3	-0.04426943
115	0xfe	-0.006810682
116	0xb7	-0.24858989
117	0xfe	-0.006810682
118	0xf9	-0.023837388
119	0xff	-0.003405341
120	0xe4	-0.09534955
121	0x0b	0.03745875
122	0x00	0.0
123	0xf7	-0.030648068
124	0xfe	-0.006810682
125	0x23	0.11918693
126	0x0e	0.047674775
127	0x12	0.061296135
128	0xfa	-0.020432046
129	0xc9	-0.18729375
130	0xe5	-0.0919442
131	0x14	0.068106815
132	0xea	-0.0749175
133	0x02	0.006810682
134	0x25	0.12599762
135	0xf1	-0.051080115
136	0x00	0.0
137	0xeb	-0.07151216
138	0x0c	0.04086409
139	0x0f	0.051080115
140	0x0b	0.03745875
141	0x1c	0.09534955
142	0xf4	-0.04086409
143	0x17	0.07832284
144	0xec	-0.068106815
145	0x15	0.07151216
146	0x00	0.0
147	0xee	-0.061296135
148	0xea	-0.0749175
149	0xe4	-0.09534955
150	0xc8	-0.1906991
151	0xc7	-0.19410443
152	0xb0	-0.27242726
153	0x15	0.07151216
154	0xf3	-0.04426943
155	0xe8	-0.08172818
156	0xfe	-0.006810682
157	0xe2	-0.10216023
158	0x12	0.061296135
159	0xb8	-0.24518454
160	0x13	0.064701475
161	0xd8	-0.13621363
162	0x07	0.023837388
163	0x21	0.11237625
164	0xdd	-0.11918693
165	0x0a	0.034053408
166	0x00	0.0
167	0xbb	-0.23496853
168	0xf2	-0.047674775
169	0x00	0.0
170	0xff	-0.003405341
171	0x05	0.017026704
172	0x00	0.0
173	0xfd	-0.010216023
174	0x00	0.0
175	0x00	0.0
176	0x00	0.0
177	0xfb	-0.017026704
178	0x0d	0.04426943
179	0x1a	0.08853886
180	0xcf	-0.16686171
181	0x13	0.064701475
182	0xdb	-0.12599762
183	0xf5	-0.03745875
184	0x00	0.0
185	0xf5	-0.03745875
186	0xe2	-0.10216023
187	0xe1	-0.10556557
188	0x12	0.061296135
189	0x21	0.11237625
190	0x00	0.0
191	0x00	0.0
192	0x00	0.0
193	0x0b	0.03745875
194	0xfe	-0.006810682
195	0xfa	-0.020432046
196	0xee	-0.061296135
197	0x04	0.013621364
198	0xf0	-0.054485455
199	0x00	0.0
200	0x1a	0.08853886
201	0xf9	-0.023837388
202	0xed	-0.064701475
203	0xe2	-0.10216023
204	0xfa	-0.020432046
205	0xfe	-0.006810682
206	0xf1	-0.051080115
207	0xfd	-0.010216023
208	0x00	0.0
209	0x0e	0.047674775
210	0x00	0.0
211	0x00	0.0
212	0xd9	-0.1328083
213	0xc6	-0.19750978
214	0x16	0.0749175
215	0x0e	0.047674775
216	0xeb	-0.07151216
217	0x00	0.0
218	0xe6	-0.08853886
219	0xc9	-0.18729375
220	0x00	0.0
221	0x00	0.0
222	0xf7	-0.030648068
223	0x07	0.023837388
224	0x00	0.0
225	0xf6	-0.034053408
226	0xff	-0.003405341
227	0x01	0.003405341
228	0xe2	-0.10216023
229	0xfd	-0.010216023
230	0x00	0.0
231	0xfd	-0.010216023
232	0xbe	-0.2247525
233	0xe9	-0.07832284
234	0xfa	-0.020432046
235	0xe5	-0.0919442
236	0xde	-0.11578159
237	0x0c	0.04086409
238	0x0a	0.034053408
239	0xf5	-0.03745875
240	0xcc	-0.17707773
241	0x20	0.10897091
242	0xdd	-0.11918693
243	0x11	0.057890795
244	0x0f	0.051080115
245	0x26	0.12940295
246	0xda	-0.12940295
247	0xf1	-0.051080115
248	0x19	0.08513352
249	0x05	0.017026704
250	0xeb	-0.07151216
251	0x00	0.0
252	0xf9	-0.023837388
253	0xce	-0.17026705
254	0x00	0.0
255	0x00	0.0

model_32/tf.nn.convolution_45/convolution i1 [640, 1, 1, 288]
0	0x1d	29
1	0xd2	-46
2	0xd9	-39
3	0xdd	-35
4	0x57	87
5	0x00	0
6	0xc2	-62
7	0xbf	-65
8	0xed	-19
9	0xdb	-37
10	0x21	33
11	0x4e	78
12	0xd6	-42
13	0xe8	-24
14	0xd9	-39
15	0xd2	-46
16	0x5c	92
17	0xd6	-42
18	0xff	-1
19	0x26	38
20	0xde	-34
21	0xd6	-42
22	0xeb	-21
23	0xc8	-56
24	0xd5	-43
25	0x5e	94
26	0xd4	-44
27	0xd6	-42
28	0x2e	46
29	0xf3	-13
30	0x3c	60
31	0xee	-18
32	0xd3	-45
33	0xce	-50
34	0xd5	-43
35	0xc9	-55
36	0xe0	-32
37	0x53	83
38	0xdb	-37
39	0xdb	-37
40	0x34	52
41	0xc9	-55
42	0x66	102
43	0xef	-17
44	0xde	-34
45	0x4a	74
46	0x68	104
47	0xf3	-13
48	0xd7	-41
49	0x58	88
50	0xc9	-55
51	0x6c	108
52	0x33	51
53	0x4a	74
54	0x3a	58
55	0xd1	-47
56	0xd2	-46
57	0xdd	-35
58	0x4d	77
59	0xe3	-29
60	0x5f	95
61	0xde	-34
62	0x6e	110
63	0x34	52
64	0xce	-50
65	0xe2	-30
66	0x4c	76
67	0x68	104
68	0xc2	-62
69	0xcb	-53
70	0x56	86
71	0x58	88
72	0xdd	-35
73	0x4e	78
74	0xec	-20
75	0x7f	127
76	0x7c	124
77	0xf2	-14
78	0xd1	-47
79	0xd1	-47
80	0xe0	-32
81	0xce	-50
82	0x5c	92
83	0x53	83
84	0xe7	-25
85	0xe3	-29
86	0x67	103
87	0xd2	-46
88	0xe4	-28
89	0xcb	-53
90	0x4e	78
91	0x75	117
92	0xdb	-37
93	0xd1	-47
94	0x1e	30
95	0xe2	-30
96	0x59	89
97	0x64	100
98	0x39	57
99	0xce	-50
100	0xda	-38
101	0x6c	108
102	0xcd	-51
103	0x58	88
104	0xfb	-5
105	0x41	65
106	0xdf	-33
107	0xe7	-25
108	0xe2	-30
109	0x35	53
110	0x06	6
111	0xe9	-23
112	0xcc	-52
113	0xd1	-47
114	0x3c	60
115	0x06	6
116	0xdc	-36
117	0xe4	-28
118	0xcd	-51
119	0x70	112
120	0xcb	-53
121	0x5f	95
122	0x0c	12
123	0xde	-34
124	0x34	52
125	0x69	105
126	0xd6	-42
127	0xe6	-26
128	0xd2	-46
129	0xcd	-51
130	0xcd	-51
131	0xcf	-49
132	0x6e	110
133	0xe4	-28
134	0xda	-38
135	0xce	-50
136	0x7a	122
137	0xe3	-29
138	0xc8	-56
139	0x65	101
140	0xe5	-27
141	0xce	-50
142	0xd8	-40
143	0xd4	-44
144	0x47	71
145	0xef	-17
146	0x5f	95
147	0xe4	-28
148	0x08	8
149	0xeb	-21
150	0x37	55
151	0xe1	-31
152	0x03	3
153	0x69	105
154	0x74	116
155	0xff	-1
156	0xd6	-42
157	0xea	-22
158	0xea	-22
159	0x27	39
160	0xde	-34
161	0xe5	-27
162	0xeb	-21
163	0xd5	-43
164	0x68	104
165	0xf6	-10
166	0xe4	-28
167	0xf6	-10
168	0xdb	-37
169	0xe1	-31
170	0x5d	93
171	0x4b	75
172	0x6a	106
173	0x72	114
174	0x29	41
175	0x64	100
176	0xf1	-15
177	0xef	-17
178	0xdb	-37
179	0xd3	-45
180	0xf8	-8
181	0xdc	-36
182	0x4d	77
183	0xd4	-44
184	0x59	89
185	0xe5	-27
186	0xca	-54
187	0x32	50
188	0xca	-54
189	0xf4	-12
190	0x35	53
191	0x38	56
192	0x36	54
193	0xc6	-58
194	0x59	89
195	0xd1	-47
196	0x77	119
197	0x72	114
198	0xd7	-41
199	0xce	-50
200	0xe0	-32
201	0xd7	-41
202	0xe9	-23
203	0xf4	-12
204	0x6d	109
205	0xd9	-39
206	0x6c	108
207	0x3c	60
208	0x58	88
209	0xd7	-41
210	0xd9	-39
211	0x0f	15
212	0x67	103
213	0xe6	-26
214	0xe4	-28
215	0xc9	-55
216	0x46	70
217	0x33	51
218	0x65	101
219	0xe8	-24
220	0xda	-38
221	0xce	-50
222	0x2f	47
223	0xca	-54
224	0xd6	-42
225	0x48	72
226	0x48	72
227	0xe4	-28
228	0x69	105
229	0xcf	-49
230	0xd0	-48
231	0x48	72
232	0xbc	-68
233	0xd1	-47
234	0xcf	-49
235	0xdc	-36
236	0x11	17
237	0x45	69
238	0x43	67
239	0x15	21
240	0x30	48
241	0xd3	-45
242	0x7c	124
243	0x76	118
244	0x4c	76
245	0x68	104
246	0xee	-18
247	0xc0	-64
248	0x47	71
249	0x3f	63
250	0x52	82
251	0x74	116
252	0xe8	-24
253	0xcd	-51
254	0xe0	-32
255	0x6f	111

model_32/tf.nn.convolution_44/convolution i1 [288, 1, 1, 48]
0	0xef	-17
1	0x50	80
2	0xf5	-11
3	0x0c	12
4	0x1f	31
5	0xf2	-14
6	0x08	8
7	0xfa	-6
8	0xdd	-35
9	0xf8	-8
10	0x16	22
11	0xf5	-11
12	0x02	2
13	0xf5	-11
14	0x03	3
15	0x09	9
16	0x15	21
17	0xd6	-42
18	0x18	24
19	0x10	16
20	0xc8	-56
21	0x09	9
22	0x0e	14
23	0x01	1
24	0xfe	-2
25	0xd7	-41
26	0x40	64
27	0xf2	-14
28	0xb5	-75
29	0xfd	-3
30	0xdb	-37
31	0xf2	-14
32	0x95	-107
33	0x00	0
34	0x10	16
35	0xfe	-2
36	0x22	34
37	0x99	-103
38	0x0e	14
39	0x35	53
40	0xf3	-13
41	0xf2	-14
42	0xf4	-12
43	0xd9	-39
44	0x7f	127
45	0x46	70
46	0x15	21
47	0x49	73
48	0x07	7
49	0xeb	-21
50	0x08	8
51	0x0d	13
52	0xe0	-32
53	0xdc	-36
54	0x3d	61
55	0xe7	-25
56	0xfa	-6
57	0x10	16
58	0x41	65
59	0x0b	11
60	0x01	1
61	0x12	18
62	0xf9	-7
63	0x13	19
64	0xf1	-15
65	0x0f	15
66	0xea	-22
67	0xe4	-28
68	0x0d	13
69	0x07	7
70	0xf0	-16
71	0xf3	-13
72	0xf9	-7
73	0x16	22
74	0xbd	-67
75	0x11	17
76	0x24	36
77	0xb8	-72
78	0xd7	-41
79	0xfd	-3
80	0xea	-22
81	0xff	-1
82	0x00	0
83	0xfd	-3
84	0xe8	-24
85	0xd9	-39
86	0xe3	-29
87	0x24	36
88	0x41	65
89	0xf0	-16
90	0x11	17
91	0x56	86
92	0xe9	-23
93	0x02	2
94	0xf1	-15
95	0x81	-127
96	0x00	0
97	0x00	0
98	0x0b	11
99	0xc9	-55
100	0x0f	15
101	0xf5	-11
102	0x0b	11
103	0x23	35
104	0x28	40
105	0xfa	-6
106	0xf4	-12
107	0xf9	-7
108	0x07	7
109	0xf8	-8
110	0x2b	43
111	0x05	5
112	0x00	0
113	0x22	34
114	0x0a	10
115	0x28	40
116	0x09	9
117	0x0f	15
118	0x22	34
119	0x0c	12
120	0x9d	-99
121	0xdb	-37
122	0x1d	29
123	0x51	81
124	0xe6	-26
125	0xd6	-42
126	0xf9	-7
127	0x18	24
128	0x7f	127
129	0x5b	91
130	0xf7	-9
131	0x12	18
132	0x6e	110
133	0x3e	62
134	0x45	69
135	0xde	-34
136	0xe8	-24
137	0x29	41
138	0x05	5
139	0xe7	-25
140	0xe1	-31
141	0xea	-22
142	0xd2	-46
143	0xed	-19
144	0xf8	-8
145	0x3b	59
146	0xfb	-5
147	0x3d	61
148	0x28	40
149	0xf6	-10
150	0x21	33
151	0x2a	42
152	0x2b	43
153	0xf2	-14
154	0xef	-17
155	0xf1	-15
156	0xf7	-9
157	0xe2	-30
158	0xeb	-21
159	0x15	21
160	0xed	-19
161	0xc2	-62
162	0xbf	-65
163	0x15	21
164	0x81	-127
165	0xee	-18
166	0x12	18
167	0xf5	-11
168	0x5f	95
169	0xdd	-35
170	0xe0	-32
171	0xb2	-78
172	0xa7	-89
173	0x28	40
174	0xb2	-78
175	0xfc	-4
176	0x1b	27
177	0x3a	58
178	0x17	23
179	0xe8	-24
180	0x14	20
181	0xe7	-25
182	0x06	6
183	0x6d	109
184	0xf4	-12
185	0xda	-38
186	0x5e	94
187	0xd0	-48
188	0x72	114
189	0x0a	10
190	0x03	3
191	0x5c	92
192	0x06	6
193	0x2b	43
194	0xfa	-6
195	0xf7	-9
196	0x0d	13
197	0x09	9
198	0xc9	-55
199	0x01	1
200	0xe2	-30
201	0x00	0
202	0x43	67
203	0xe6	-26
204	0xef	-17
205	0x20	32
206	0xf8	-8
207	0xe7	-25
208	0xfd	-3
209	0xfd	-3
210	0x5b	91
211	0xfa	-6
212	0x18	24
213	0xe9	-23
214	0xec	-20
215	0xfa	-6
216	0xd1	-47
217	0xdf	-33
218	0x38	56
219	0x16	22
220	0xec	-20
221	0x29	41
222	0x2e	46
223	0x10	16
224	0x9d	-99
225	0xba	-70
226	0x02	2
227	0xeb	-21
228	0x2d	45
229	0x88	-120
230	0xd7	-41
231	0xb5	-75
232	0xea	-22
233	0x1a	26
234	0xd0	-48
235	0x06	6
236	0x0e	14
237	0x7f	127
238	0x0f	15
239	0x0c	12
240	0xf2	-14
241	0x3e	62
242	0xfc	-4
243	0x17	23
244	0x17	23
245	0xef	-17
246	0x1d	29
247	0xff	-1
248	0xf3	-13
249	0xf0	-16
250	0xf9	-7
251	0x00	0
252	0x00	0
253	0xe5	-27
254	0x07	7
255	0x12	18

model_32/tf.compat.v1.nn.depthwise_conv2d_49/depthwise i1 [1, 3, 3, 24]
0	0x9b	-101
1	0x23	35
2	0x47	71
3	0xe5	-27
4	0xc0	-64
5	0x7f	127
6	0x05	5
7	0xf2	-14
8	0x2f	47
9	0xbd	-67
10	0xe2	-30
11	0x52	82
12	0x6a	106
13	0xc3	-61
14	0x48	72
15	0x34	52
16	0x62	98
17	0x4c	76
18	0xb3	-77
19	0xb5	-75
20	0xcc	-52
21	0xcd	-51
22	0xdf	-33
23	0x40	64
24	0xb1	-79
25	0xe1	-31
26	0x1a	26
27	0xb8	-72
28	0xb1	-79
29	0x75	117
30	0xb1	-79
31	0x14	20
32	0x59	89
33	0x0f	15
34	0xaf	-81
35	0x38	56
36	0x39	57
37	0xf9	-7
38	0x32	50
39	0x00	0
40	0x59	89
41	0x1d	29
42	0x93	-109
43	0xc6	-58
44	0x98	-104
45	0x94	-108
46	0xbd	-67
47	0xed	-19
48	0xc6	-58
49	0x03	3
50	0x4e	78
51	0x81	-127
52	0x07	7
53	0x4e	78
54	0xd6	-42
55	0xf9	-7
56	0x48	72
57	0xbc	-68
58	0x17	23
59	0x7f	127
60	0x76	118
61	0xbe	-66
62	0x56	86
63	0x34	52
64	0x7f	127
65	0x08	8
66	0xeb	-21
67	0xbd	-67
68	0x93	-109
69	0xce	-50
70	0xbd	-67
71	0x44	68
72	0x81	-127
73	0xde	-34
74	0xe1	-31
75	0xe3	-29
76	0x90	-112
77	0x74	116
78	0xa9	-87
79	0x49	73
80	0x67	103
81	0xf8	-8
82	0xbb	-69
83	0x17	23
84	0x39	57
85	0xf5	-11
86	0x59	89
87	0x09	9
88	0x0e	14
89	0x75	117
90	0x91	-111
91	0x81	-127
92	0xd0	-48
93	0x9d	-99
94	0xb0	-80
95	0xf5	-11
96	0xc1	-63
97	0x81	-127
98	0x81	-127
99	0x8a	-118
100	0x95	-107
101	0x39	57
102	0xac	-84
103	0x7f	127
104	0x7f	127
105	0x7f	127
106	0x81	-127
107	0xe9	-23
108	0xae	-82
109	0x7f	127
110	0x23	35
111	0x81	-127
112	0xf2	-14
113	0x3b	59
114	0xb4	-76
115	0xb2	-78
116	0xd2	-46
117	0xad	-83
118	0x8d	-115
119	0x81	-127
120	0xaf	-81
121	0xac	-84
122	0xe2	-30
123	0x87	-121
124	0xc4	-60
125	0x55	85
126	0x81	-127
127	0x58	88
128	0x6f	111
129	0xf1	-15
130	0xe3	-29
131	0x43	67
132	0x3f	63
133	0xf9	-7
134	0x56	86
135	0x08	8
136	0x32	50
137	0x42	66
138	0xc6	-58
139	0x94	-108
140	0x8d	-115
141	0xa2	-94
142	0x81	-127
143	0xf9	-7
144	0x93	-109
145	0x06	6
146	0x30	48
147	0x0b	11
148	0x8f	-113
149	0x70	112
150	0xe8	-24
151	0x28	40
152	0x48	72
153	0xc4	-60
154	0x11	17
155	0x3f	63
156	0x75	117
157	0xc4	-60
158	0x7f	127
159	0x3c	60
160	0xc1	-63
161	0x7f	127
162	0x9f	-97
163	0xbc	-68
164	0xd0	-48
165	0xbd	-67
166	0xd6	-42
167	0x41	65
168	0xab	-85
169	0xd0	-48
170	0x07	7
171	0xe6	-26
172	0x81	-127
173	0x7a	122
174	0x91	-111
175	0x52	82
176	0x65	101
177	0x17	23
178	0xd2	-46
179	0x20	32
180	0x54	84
181	0x01	1
182	0x64	100
183	0xff	-1
184	0xf0	-16
185	0x65	101
186	0x81	-127
187	0xdc	-36
188	0xb9	-71
189	0x81	-127
190	0xa4	-92
191	0xf2	-14
192	0xb8	-72
193	0xed	-19
194	0x3a	58
195	0xb7	-73
196	0xdb	-37
197	0x52	82
198	0xbd	-67
199	0x1e	30
200	0x49	73
201	0xbe	-66
202	0x3b	59
203	0x5a	90
204	0x7f	127
205	0xcc	-52
206	0x65	101
207	0x3f	63
208	0x14	20
209	0x5d	93
210	0xd6	-42
211	0xd1	-47
212	0x81	-127
213	0xbc	-68
214	0x97	-105
215	0x46	70

model_32/tf.nn.convolution_43/convolution i1 [24, 1, 1, 288]
0	0x19	25
1	0xfe	-2
2	0x01	1
3	0x15	21
4	0xf8	-8
5	0xf8	-8
6	0xf1	-15
7	0x1a	26
8	0x0c	12
9	0xd6	-42
10	0x01	1
11	0xec	-20
12	0x00	0
13	0xdd	-35
14	0xfe	-2
15	0x04	4
16	0x03	3
17	0xee	-18
18	0x08	8
19	0xf3	-13
20	0x13	19
21	0xda	-38
22	0x09	9
23	0x21	33
24	0xf1	-15
25	0xf5	-11
26	0xfa	-6
27	0x0b	11
28	0x08	8
29	0x03	3
30	0xf2	-14
31	0xde	-34
32	0x0a	10
33	0xfd	-3
34	0xc4	-60
35	0x08	8
36	0xef	-17
37	0x04	4
38	0xf4	-12
39	0xe1	-31
40	0xf3	-13
41	0xde	-34
42	0xf7	-9
43	0xf8	-8
44	0xee	-18
45	0xf7	-9
46	0x47	71
47	0xd8	-40
48	0xf5	-11
49	0xfb	-5
50	0x05	5
51	0x18	24
52	0xfc	-4
53	0x02	2
54	0xe6	-26
55	0x1c	28
56	0xfa	-6
57	0xd3	-45
58	0x15	21
59	0x2c	44
60	0xf2	-14
61	0xf9	-7
62	0xeb	-21
63	0x15	21
64	0xfe	-2
65	0xce	-50
66	0xf9	-7
67	0x05	5
68	0xe7	-25
69	0xf6	-10
70	0xfd	-3
71	0xfa	-6
72	0x07	7
73	0xfe	-2
74	0xfe	-2
75	0xe7	-25
76	0xe4	-28
77	0x12	18
78	0xe6	-26
79	0x11	17
80	0xef	-17
81	0xe1	-31
82	0x05	5
83	0xf8	-8
84	0x12	18
85	0xfb	-5
86	0x11	17
87	0xea	-22
88	0x04	4
89	0xfc	-4
90	0x0a	10
91	0xe9	-23
92	0x36	54
93	0xed	-19
94	0x04	4
95	0x05	5
96	0xf1	-15
97	0xfd	-3
98	0x01	1
99	0xeb	-21
100	0xff	-1
101	0xf3	-13
102	0x3c	60
103	0x06	6
104	0x40	64
105	0xf7	-9
106	0xeb	-21
107	0x02	2
108	0xef	-17
109	0x0e	14
110	0x0c	12
111	0x14	20
112	0xe3	-29
113	0xf6	-10
114	0xf9	-7
115	0xf6	-10
116	0x08	8
117	0xf9	-7
118	0x10	16
119	0xf3	-13
120	0xc7	-57
121	0x05	5
122	0xf3	-13
123	0x07	7
124	0x00	0
125	0xf5	-11
126	0x08	8
127	0xe3	-29
128	0xf9	-7
129	0x0f	15
130	0xf8	-8
131	0xff	-1
132	0x06	6
133	0xfa	-6
134	0x1e	30
135	0xfb	-5
136	0x40	64
137	0xf5	-11
138	0x00	0
139	0x00	0
140	0x0b	11
141	0x04	4
142	0xe7	-25
143	0x10	16
144	0xbd	-67
145	0x19	25
146	0xef	-17
147	0x09	9
148	0x08	8
149	0x39	57
150	0x37	55
151	0x37	55
152	0x42	66
153	0x54	84
154	0xe3	-29
155	0xef	-17
156	0x4a	74
157	0x02	2
158	0xc8	-56
159	0x0a	10
160	0xdd	-35
161	0xe4	-28
162	0x21	33
163	0xe1	-31
164	0x29	41
165	0x1e	30
166	0xe2	-30
167	0x46	70
168	0x03	3
169	0xe5	-27
170	0xf8	-8
171	0x43	67
172	0x44	68
173	0xfb	-5
174	0x2e	46
175	0xec	-20
176	0xd4	-44
177	0xdb	-37
178	0xdc	-36
179	0xc8	-56
180	0xdb	-37
181	0xc4	-60
182	0xeb	-21
183	0xdb	-37
184	0xfd	-3
185	0xb1	-79
186	0xdc	-36
187	0x02	2
188	0xb8	-72
189	0x1a	26
190	0x44	68
191	0xf1	-15
192	0xcd	-51
193	0x2a	42
194	0x03	3
195	0xec	-20
196	0x39	57
197	0xf5	-11
198	0xdb	-37
199	0xc3	-61
200	0x01	1
201	0xc4	-60
202	0xd6	-42
203	0x7f	127
204	0x11	17
205	0xed	-19
206	0xda	-38
207	0xd8	-40
208	0x4c	76
209	0xac	-84
210	0xdc	-36
211	0x26	38
212	0x32	50
213	0xcf	-49
214	0xdf	-33
215	0xed	-19
216	0xe5	-27
217	0xee	-18
218	0xc0	-64
219	0x33	51
220	0x04	4
221	0x2a	42
222	0x36	54
223	0x01	1
224	0xc1	-63
225	0x0c	12
226	0x12	18
227	0xcd	-51
228	0xbd	-67
229	0x0a	10
230	0xdc	-36
231	0xe3	-29
232	0x0a	10
233	0x2c	44
234	0xf5	-11
235	0xf3	-13
236	0x45	69
237	0xcc	-52
238	0xd0	-48
239	0x16	22
240	0xd5	-43
241	0xdc	-36
242	0xf5	-11
243	0xf2	-14
244	0x06	6
245	0xf1	-15
246	0x52	82
247	0x33	51
248	0x24	36
249	0x11	17
250	0xc5	-59
251	0xef	-17
252	0x37	55
253	0xd7	-41
254	0x32	50
255	0xc6	-58

model_32/tf.compat.v1.nn.depthwise_conv2d_48/depthwise i1 [1, 3, 3, 144]
0	0x44	68
1	0x7f	127
2	0x9f	-97
3	0x2e	46
4	0x2c	44
5	0xac	-84
6	0xd5	-43
7	0x0f	15
8	0x3a	58
9	0x5f	95
10	0x6b	107
11	0x7a	122
12	0xc0	-64
13	0x7f	127
14	0x3c	60
15	0x3e	62
16	0x5c	92
17	0xb3	-77
18	0x81	-127
19	0x10	16
20	0xbd	-67
21	0xa9	-87
22	0xa2	-94
23	0x84	-124
24	0x6c	108
25	0x78	120
26	0x7f	127
27	0x5e	94
28	0x4b	75
29	0x7f	127
30	0x4f	79
31	0xaf	-81
32	0xcb	-53
33	0x50	80
34	0x91	-111
35	0x2f	47
36	0xb5	-75
37	0xa8	-88
38	0xae	-82
39	0xe4	-28
40	0x6d	109
41	0x89	-119
42	0x34	52
43	0x77	119
44	0xa5	-91
45	0xd4	-44
46	0x99	-103
47	0x11	17
48	0x48	72
49	0x5a	90
50	0x71	113
51	0x95	-107
52	0x78	120
53	0x7e	126
54	0xb2	-78
55	0x8c	-116
56	0x71	113
57	0x8f	-113
58	0xe8	-24
59	0x81	-127
60	0x19	25
61	0x53	83
62	0x57	87
63	0xa3	-93
64	0xc8	-56
65	0x8a	-118
66	0x84	-124
67	0xb7	-73
68	0x40	64
69	0x48	72
70	0xaa	-86
71	0x6f	111
72	0x7a	122
73	0x50	80
74	0xfe	-2
75	0x93	-109
76	0xf9	-7
77	0x3c	60
78	0xdb	-37
79	0x63	99
80	0x7f	127
81	0xa3	-93
82	0x7f	127
83	0x58	88
84	0xa4	-92
85	0x53	83
86	0xc4	-60
87	0x7f	127
88	0x48	72
89	0x65	101
90	0x7f	127
91	0x31	49
92	0xa7	-89
93	0x40	64
94	0x7f	127
95	0xe2	-30
96	0x17	23
97	0x7f	127
98	0x66	102
99	0x7f	127
100	0x40	64
101	0x36	54
102	0x96	-106
103	0x49	73
104	0xae	-82
105	0x7f	127
106	0x42	66
107	0x41	65
108	0x52	82
109	0x2e	46
110	0xe7	-25
111	0x22	34
112	0x82	-126
113	0x8a	-118
114	0x95	-107
115	0x7f	127
116	0xaf	-81
117	0xcc	-52
118	0x26	38
119	0xaa	-86
120	0x81	-127
121	0x59	89
122	0xda	-38
123	0xc8	-56
124	0x91	-111
125	0x6c	108
126	0xb8	-72
127	0x6c	108
128	0xb9	-71
129	0x7f	127
130	0x47	71
131	0x3f	63
132	0xd0	-48
133	0x74	116
134	0x35	53
135	0x71	113
136	0x9f	-97
137	0x46	70
138	0x5b	91
139	0x81	-127
140	0x24	36
141	0x00	0
142	0xc7	-57
143	0xf7	-9
144	0xb2	-78
145	0x55	85
146	0x0d	13
147	0x46	70
148	0x32	50
149	0x06	6
150	0xbc	-68
151	0xf3	-13
152	0x69	105
153	0xc0	-64
154	0xd0	-48
155	0xf7	-9
156	0xa7	-89
157	0xf7	-9
158	0x26	38
159	0x43	67
160	0x05	5
161	0x1e	30
162	0xf7	-9
163	0x19	25
164	0xcf	-49
165	0xc5	-59
166	0xcc	-52
167	0x37	55
168	0xdf	-33
169	0x3b	59
170	0xe2	-30
171	0x36	54
172	0x68	104
173	0x49	73
174	0xb5	-75
175	0xe3	-29
176	0xdb	-37
177	0x1a	26
178	0xfb	-5
179	0x1c	28
180	0xd3	-45
181	0xb1	-79
182	0xc5	-59
183	0xfd	-3
184	0x29	41
185	0x02	2
186	0x0d	13
187	0x49	73
188	0xe7	-25
189	0xcb	-53
190	0x16	22
191	0x7f	127
192	0x4f	79
193	0x09	9
194	0x10	16
195	0xeb	-21
196	0xe3	-29
197	0x53	83
198	0xd9	-39
199	0x14	20
200	0xe5	-27
201	0xf0	-16
202	0xe2	-30
203	0xb2	-78
204	0x12	18
205	0x37	55
206	0x4c	76
207	0xd5	-43
208	0xb8	-72
209	0xcc	-52
210	0x9c	-100
211	0x66	102
212	0x3a	58
213	0x1c	28
214	0xbd	-67
215	0x55	85
216	0x66	102
217	0x4f	79
218	0xef	-17
219	0xaa	-86
220	0xaa	-86
221	0x51	81
222	0x73	115
223	0x37	55
224	0x55	85
225	0x7f	127
226	0x34	52
227	0x48	72
228	0xcd	-51
229	0x28	40
230	0x56	86
231	0x4a	74
232	0x2d	45
233	0x22	34
234	0x05	5
235	0x2f	47
236	0x01	1
237	0xd5	-43
238	0x3a	58
239	0xf5	-11
240	0x2a	42
241	0x64	100
242	0xb9	-71
243	0x28	40
244	0x07	7
245	0x6b	107
246	0x9d	-99
247	0x1a	26
248	0xc5	-59
249	0xd2	-46
250	0x5a	90
251	0x47	71
252	0x4f	79
253	0x6b	107
254	0xe6	-26
255	0x2e	46

model_32/tf.nn.convolution_42/convolution i1 [144, 1, 1, 48]
0	0x62	98
1	0x4c	76
2	0x97	-105
3	0xfb	-5
4	0xed	-19
5	0x1d	29
6	0x1f	31
7	0x22	34
8	0x7c	124
9	0x22	34
10	0x2f	47
11	0x30	48
12	0xe2	-30
13	0xe6	-26
14	0x87	-121
15	0x24	36
16	0xc3	-61
17	0x20	32
18	0x49	73
19	0x04	4
20	0xc0	-64
21	0x3c	60
22	0xd1	-47
23	0x08	8
24	0x7f	127
25	0xaa	-86
26	0x24	36
27	0x6f	111
28	0xe1	-31
29	0xe5	-27
30	0x33	51
31	0x15	21
32	0xdc	-36
33	0x14	20
34	0x16	22
35	0xcf	-49
36	0xef	-17
37	0xbf	-65
38	0x43	67
39	0xeb	-21
40	0xda	-38
41	0xe0	-32
42	0xc2	-62
43	0xd9	-39
44	0x27	39
45	0xf8	-8
46	0x4c	76
47	0x69	105
48	0xf1	-15
49	0x0f	15
50	0x05	5
51	0x29	41
52	0xf1	-15
53	0xf9	-7
54	0x20	32
55	0x06	6
56	0xc8	-56
57	0xe8	-24
58	0x3e	62
59	0x1e	30
60	0xef	-17
61	0xf0	-16
62	0xda	-38
63	0x01	1
64	0x02	2
65	0x17	23
66	0xff	-1
67	0x16	22
68	0xf1	-15
69	0xe3	-29
70	0x12	18
71	0x0f	15
72	0x01	1
73	0xb3	-77
74	0xe8	-24
75	0x21	33
76	0x00	0
77	0x02	2
78	0x1f	31
79	0x81	-127
80	0x35	53
81	0xf1	-15
82	0x0a	10
83	0x1b	27
84	0xda	-38
85	0xfc	-4
86	0x07	7
87	0xe1	-31
88	0x11	17
89	0x21	33
90	0xeb	-21
91	0xfd	-3
92	0x06	6
93	0x0b	11
94	0xf4	-12
95	0xdd	-35
96	0x14	20
97	0xe1	-31
98	0xe7	-25
99	0xe0	-32
100	0x3f	63
101	0x21	33
102	0xe1	-31
103	0x27	39
104	0x1e	30
105	0xd9	-39
106	0xfa	-6
107	0x14	20
108	0x21	33
109	0x23	35
110	0xdc	-36
111	0xdd	-35
112	0xad	-83
113	0xe5	-27
114	0x53	83
115	0x36	54
116	0xd0	-48
117	0x11	17
118	0x0c	12
119	0xf2	-14
120	0xe3	-29
121	0x66	102
122	0xfe	-2
123	0xee	-18
124	0x22	34
125	0x81	-127
126	0xf8	-8
127	0x98	-104
128	0xf8	-8
129	0x28	40
130	0x1c	28
131	0x17	23
132	0xf0	-16
133	0xd1	-47
134	0x3b	59
135	0x2f	47
136	0xbf	-65
137	0xf4	-12
138	0xf2	-14
139	0xf2	-14
140	0xc0	-64
141	0x17	23
142	0x15	21
143	0x10	16
144	0x2f	47
145	0x0f	15
146	0x01	1
147	0x37	55
148	0x21	33
149	0x1e	30
150	0x0a	10
151	0xff	-1
152	0x3f	63
153	0xc6	-58
154	0x1f	31
155	0xe4	-28
156	0xec	-20
157	0x0e	14
158	0x2e	46
159	0xf8	-8
160	0x17	23
161	0xf6	-10
162	0x2c	44
163	0x32	50
164	0xe5	-27
165	0x01	1
166	0x1e	30
167	0x09	9
168	0xdd	-35
169	0x21	33
170	0x81	-127
171	0x11	17
172	0x11	17
173	0xf0	-16
174	0xc7	-57
175	0xed	-19
176	0xfa	-6
177	0x63	99
178	0xf9	-7
179	0x16	22
180	0xdb	-37
181	0xf6	-10
182	0x7b	123
183	0x0f	15
184	0xdc	-36
185	0xf7	-9
186	0x03	3
187	0x33	51
188	0xa1	-95
189	0x2f	47
190	0x2d	45
191	0xc7	-57
192	0x55	85
193	0x81	-127
194	0x07	7
195	0x16	22
196	0xe0	-32
197	0xe1	-31
198	0xcc	-52
199	0xdf	-33
200	0xe7	-25
201	0xcc	-52
202	0xe9	-23
203	0xec	-20
204	0x11	17
205	0x07	7
206	0x1c	28
207	0x04	4
208	0x71	113
209	0x07	7
210	0x31	49
211	0x31	49
212	0xa7	-89
213	0x44	68
214	0xf2	-14
215	0xe1	-31
216	0x19	25
217	0xb5	-75
218	0xae	-82
219	0x36	54
220	0xca	-54
221	0xd5	-43
222	0xa4	-92
223	0x45	69
224	0x20	32
225	0xcc	-52
226	0x2b	43
227	0xc7	-57
228	0xf0	-16
229	0xfb	-5
230	0x26	38
231	0x24	36
232	0x1e	30
233	0x24	36
234	0xba	-70
235	0x07	7
236	0x00	0
237	0xdf	-33
238	0xd1	-47
239	0xf9	-7
240	0xf0	-16
241	0xcb	-53
242	0x22	34
243	0xe6	-26
244	0xe5	-27
245	0xec	-20
246	0xe0	-32
247	0xe5	-27
248	0xfd	-3
249	0xed	-19
250	0x30	48
251	0x21	33
252	0xf3	-13
253	0xf1	-15
254	0x0b	11
255	0xe9	-23

model_32/tf.compat.v1.nn.depthwise_conv2d_47/depthwise i1 [1, 3, 3, 24]
0	0x7d	125
1	0x02	2
2	0x81	-127
3	0x89	-119
4	0x7f	127
5	0x52	82
6	0x31	49
7	0xda	-38
8	0xf8	-8
9	0x81	-127
10	0xd9	-39
11	0xd5	-43
12	0xa7	-89
13	0x8b	-117
14	0x7f	127
15	0x4b	75
16	0x18	24
17	0xd6	-42
18	0xfe	-2
19	0xfe	-2
20	0xbd	-67
21	0xe4	-28
22	0x27	39
23	0xe5	-27
24	0x04	4
25	0xd7	-41
26	0xcd	-51
27	0xa5	-91
28	0x11	17
29	0x67	103
30	0x51	81
31	0xe7	-25
32	0xcd	-51
33	0xe8	-24
34	0x81	-127
35	0x19	25
36	0x0d	13
37	0xba	-70
38	0x32	50
39	0x5d	93
40	0x1b	27
41	0xb5	-75
42	0xf2	-14
43	0x2c	44
44	0xf2	-14
45	0x4a	74
46	0x2a	42
47	0x13	19
48	0x7f	127
49	0x12	18
50	0x9d	-99
51	0x81	-127
52	0x72	114
53	0x7f	127
54	0x5c	92
55	0xf4	-12
56	0xef	-17
57	0xb0	-80
58	0xb6	-74
59	0xd9	-39
60	0xab	-85
61	0x81	-127
62	0x6b	107
63	0x7f	127
64	0x41	65
65	0xdd	-35
66	0xdf	-33
67	0xde	-34
68	0xe6	-26
69	0x02	2
70	0x2f	47
71	0xfb	-5
72	0x1b	27
73	0x07	7
74	0xf1	-15
75	0x0e	14
76	0x2d	45
77	0x5f	95
78	0xd1	-47
79	0x03	3
80	0x1a	26
81	0xd4	-44
82	0xc1	-63
83	0x19	25
84	0xe8	-24
85	0xf7	-9
86	0x2d	45
87	0xf4	-12
88	0x0c	12
89	0x37	55
90	0xcb	-53
91	0x64	100
92	0x0b	11
93	0xfe	-2
94	0x67	103
95	0xcd	-51
96	0xe4	-28
97	0xd8	-40
98	0x23	35
99	0x09	9
100	0xdc	-36
101	0x2a	42
102	0x44	68
103	0xee	-18
104	0xfa	-6
105	0x38	56
106	0xc5	-59
107	0x6a	106
108	0x1a	26
109	0x31	49
110	0xf6	-10
111	0xad	-83
112	0x18	24
113	0xdc	-36
114	0x26	38
115	0x40	64
116	0x15	21
117	0x28	40
118	0x6a	106
119	0x26	38
120	0x02	2
121	0x09	9
122	0xc7	-57
123	0x23	35
124	0x28	40
125	0x2a	42
126	0xda	-38
127	0x04	4
128	0x2b	43
129	0xc9	-55
130	0xa8	-88
131	0x20	32
132	0xf8	-8
133	0xf3	-13
134	0x3f	63
135	0xf3	-13
136	0x21	33
137	0x4c	76
138	0xcc	-52
139	0x7f	127
140	0xf3	-13
141	0xf7	-9
142	0x45	69
143	0xd2	-46
144	0x4a	74
145	0x7f	127
146	0x15	21
147	0x77	119
148	0x21	33
149	0x47	71
150	0x81	-127
151	0x83	-125
152	0x7c	124
153	0xfb	-5
154	0xd4	-44
155	0x7f	127
156	0x94	-108
157	0xcb	-53
158	0x14	20
159	0xf7	-9
160	0x8f	-113
161	0x11	17
162	0xb0	-80
163	0x62	98
164	0x96	-106
165	0x81	-127
166	0xff	-1
167	0x81	-127
168	0x58	88
169	0x2e	46
170	0x1b	27
171	0x2a	42
172	0xdb	-37
173	0xee	-18
174	0xf7	-9
175	0xb8	-72
176	0x54	84
177	0x15	21
178	0x38	56
179	0x48	72
180	0x81	-127
181	0x0f	15
182	0x1e	30
183	0xfb	-5
184	0x81	-127
185	0x81	-127
186	0xc0	-64
187	0xf3	-13
188	0x81	-127
189	0x9c	-100
190	0x7f	127
191	0xc9	-55
192	0x4f	79
193	0x70	112
194	0x0b	11
195	0x75	117
196	0x00	0
197	0x40	64
198	0x91	-111
199	0x81	-127
200	0x7f	127
201	0xbf	-65
202	0xea	-22
203	0x79	121
204	0x84	-124
205	0xc0	-64
206	0x0a	10
207	0x22	34
208	0x9c	-100
209	0x0a	10
210	0x81	-127
211	0x48	72
212	0x8b	-117
213	0x90	-112
214	0x18	24
215	0x8d	-115

model_32/tf.nn.convolution_41/convolution i1 [24, 1, 1, 288]
0	0x08	8
1	0xdb	-37
2	0x19	25
3	0xeb	-21
4	0x01	1
5	0xfe	-2
6	0x02	2
7	0x1a	26
8	0xcc	-52
9	0xe4	-28
10	0x16	22
11	0xfb	-5
12	0xf8	-8
13	0xe3	-29
14	0xee	-18
15	0x34	52
16	0x19	25
17	0x19	25
18	0x0c	12
19	0x03	3
20	0xf0	-16
21	0x0c	12
22	0x12	18
23	0x10	16
24	0xf7	-9
25	0xde	-34
26	0xe0	-32
27	0x33	51
28	0x0e	14
29	0xf2	-14
30	0x0a	10
31	0xe7	-25
32	0x00	0
33	0x17	23
34	0xee	-18
35	0xfa	-6
36	0xe9	-23
37	0xef	-17
38	0x02	2
39	0x32	50
40	0x0c	12
41	0x23	35
42	0x06	6
43	0xee	-18
44	0x22	34
45	0xff	-1
46	0x10	16
47	0x23	35
48	0x09	9
49	0x01	1
50	0xe7	-25
51	0xd6	-42
52	0x23	35
53	0xfb	-5
54	0x11	17
55	0xfa	-6
56	0x05	5
57	0x25	37
58	0x0e	14
59	0xdf	-33
60	0xf5	-11
61	0xd3	-45
62	0xef	-17
63	0x20	32
64	0x01	1
65	0xf4	-12
66	0x03	3
67	0xe9	-23
68	0xee	-18
69	0x1e	30
70	0x06	6
71	0xe3	-29
72	0xda	-38
73	0xf3	-13
74	0xd0	-48
75	0x22	34
76	0xea	-22
77	0x14	20
78	0x20	32
79	0xce	-50
80	0x18	24
81	0xf3	-13
82	0xdb	-37
83	0x8f	-113
84	0xed	-19
85	0x51	81
86	0xd9	-39
87	0x2c	44
88	0x04	4
89	0x12	18
90	0xc7	-57
91	0x12	18
92	0xd7	-41
93	0x18	24
94	0xe6	-26
95	0xfe	-2
96	0x14	20
97	0x0e	14
98	0xfe	-2
99	0xf6	-10
100	0x25	37
101	0x01	1
102	0x13	19
103	0x37	55
104	0xf3	-13
105	0x16	22
106	0xed	-19
107	0x2b	43
108	0x03	3
109	0x12	18
110	0xe9	-23
111	0xe7	-25
112	0x0a	10
113	0x14	20
114	0xd1	-47
115	0x15	21
116	0x31	49
117	0x1c	28
118	0xf6	-10
119	0x0b	11
120	0x27	39
121	0xef	-17
122	0x36	54
123	0x18	24
124	0xec	-20
125	0xe8	-24
126	0x08	8
127	0x29	41
128	0x04	4
129	0x39	57
130	0x0f	15
131	0xcf	-49
132	0x19	25
133	0xdf	-33
134	0xcc	-52
135	0x13	19
136	0x3a	58
137	0x22	34
138	0xf0	-16
139	0x0c	12
140	0xdd	-35
141	0x37	55
142	0x28	40
143	0x13	19
144	0x1a	26
145	0xe3	-29
146	0xeb	-21
147	0x07	7
148	0xbc	-68
149	0xed	-19
150	0xd8	-40
151	0x4f	79
152	0x12	18
153	0xbd	-67
154	0xe6	-26
155	0x08	8
156	0xe8	-24
157	0x18	24
158	0x14	20
159	0x23	35
160	0x23	35
161	0xde	-34
162	0xe2	-30
163	0x50	80
164	0x3f	63
165	0x07	7
166	0x41	65
167	0xc4	-60
168	0xd3	-45
169	0xab	-85
170	0xc7	-57
171	0xca	-54
172	0x21	33
173	0x09	9
174	0xe0	-32
175	0xbe	-66
176	0x07	7
177	0xd7	-41
178	0x12	18
179	0xe5	-27
180	0xee	-18
181	0xd7	-41
182	0x21	33
183	0xb3	-77
184	0x16	22
185	0x51	81
186	0xd9	-39
187	0x04	4
188	0xd1	-47
189	0x20	32
190	0x1f	31
191	0xd5	-43
192	0xe3	-29
193	0x12	18
194	0x10	16
195	0xfb	-5
196	0x03	3
197	0xe7	-25
198	0xe1	-31
199	0xf2	-14
200	0x2b	43
201	0x58	88
202	0xc8	-56
203	0xd3	-45
204	0xe3	-29
205	0x92	-110
206	0x0f	15
207	0x08	8
208	0x00	0
209	0x33	51
210	0xfd	-3
211	0x10	16
212	0xc9	-55
213	0x02	2
214	0x32	50
215	0x0a	10
216	0xda	-38
217	0xf1	-15
218	0x27	39
219	0x15	21
220	0xc6	-58
221	0x07	7
222	0xe1	-31
223	0x45	69
224	0x12	18
225	0x1c	28
226	0xdc	-36
227	0xdd	-35
228	0x2f	47
229	0x29	41
230	0x27	39
231	0xf6	-10
232	0xea	-22
233	0x16	22
234	0xab	-85
235	0xda	-38
236	0xed	-19
237	0x26	38
238	0x81	-127
239	0x07	7
240	0xc9	-55
241	0x0a	10
242	0xc4	-60
243	0xe5	-27
244	0xff	-1
245	0xe6	-26
246	0x0b	11
247	0x0f	15
248	0x1b	27
249	0xf8	-8
250	0xf8	-8
251	0x20	32
252	0x34	52
253	0xba	-70
254	0xf5	-11
255	0xa5	-91

model_32/tf.compat.v1.nn.depthwise_conv2d_46/depthwise i1 [1, 3, 3, 144]
0	0x3a	58
1	0x31	49
2	0x7f	127
3	0x81	-127
4	0xce	-50
5	0x79	121
6	0x58	88
7	0x75	117
8	0x17	23
9	0xe2	-30
10	0x7f	127
11	0x59	89
12	0xbe	-66
13	0x3d	61
14	0xe7	-25
15	0x7f	127
16	0xb7	-73
17	0x3b	59
18	0xda	-38
19	0x6a	106
20	0x9a	-102
21	0x2e	46
22	0x93	-109
23	0x7f	127
24	0x67	103
25	0x76	118
26	0xc8	-56
27	0x7f	127
28	0x7f	127
29	0x17	23
30	0x28	40
31	0x26	38
32	0x14	20
33	0x45	69
34	0x83	-125
35	0x01	1
36	0x0b	11
37	0x62	98
38	0x94	-108
39	0xcd	-51
40	0x36	54
41	0x70	112
42	0x28	40
43	0x1e	30
44	0x7f	127
45	0x6a	106
46	0x7f	127
47	0x6e	110
48	0x53	83
49	0x9b	-101
50	0xc2	-62
51	0xea	-22
52	0x12	18
53	0x07	7
54	0xdc	-36
55	0x63	99
56	0x3b	59
57	0xc5	-59
58	0x45	69
59	0x74	116
60	0xed	-19
61	0x06	6
62	0x9e	-98
63	0xe0	-32
64	0x9e	-98
65	0x07	7
66	0x1b	27
67	0xe1	-31
68	0xce	-50
69	0x81	-127
70	0xe6	-26
71	0x68	104
72	0x63	99
73	0x4e	78
74	0x81	-127
75	0xb8	-72
76	0xec	-20
77	0x81	-127
78	0xb4	-76
79	0x8a	-118
80	0x63	99
81	0x38	56
82	0x0e	14
83	0x7f	127
84	0xb2	-78
85	0x7f	127
86	0x35	53
87	0x96	-106
88	0xaf	-81
89	0xad	-83
90	0xd2	-46
91	0x81	-127
92	0xd6	-42
93	0xa2	-94
94	0xfd	-3
95	0x5e	94
96	0xf4	-12
97	0x81	-127
98	0x0b	11
99	0x5d	93
100	0xe1	-31
101	0xde	-34
102	0x81	-127
103	0x4b	75
104	0x67	103
105	0x0e	14
106	0xb0	-80
107	0x1f	31
108	0x8d	-115
109	0xb3	-77
110	0x64	100
111	0x2e	46
112	0x3c	60
113	0x19	25
114	0xc1	-63
115	0x71	113
116	0x5a	90
117	0x1d	29
118	0x8b	-117
119	0x23	35
120	0x6b	107
121	0x7f	127
122	0x32	50
123	0x01	1
124	0xea	-22
125	0x9f	-97
126	0x7f	127
127	0x81	-127
128	0x7f	127
129	0xd6	-42
130	0xa7	-89
131	0x9a	-102
132	0x24	36
133	0x78	120
134	0xc8	-56
135	0xfa	-6
136	0xe8	-24
137	0xbe	-66
138	0x07	7
139	0x9f	-97
140	0xad	-83
141	0x1a	26
142	0x81	-127
143	0x2f	47
144	0x09	9
145	0x1c	28
146	0x40	64
147	0x9a	-102
148	0x1d	29
149	0xaa	-86
150	0x7f	127
151	0x7f	127
152	0x7f	127
153	0x02	2
154	0x2b	43
155	0x75	117
156	0xb1	-79
157	0x33	51
158	0xd6	-42
159	0xc1	-63
160	0x17	23
161	0x0c	12
162	0xd8	-40
163	0x58	88
164	0xab	-85
165	0xc7	-57
166	0x08	8
167	0x02	2
168	0x1d	29
169	0xce	-50
170	0xc5	-59
171	0x64	100
172	0xe7	-25
173	0x7f	127
174	0xc3	-61
175	0x7f	127
176	0x74	116
177	0x7f	127
178	0x1d	29
179	0xfd	-3
180	0x0e	14
181	0x4e	78
182	0xde	-34
183	0xde	-34
184	0x5b	91
185	0xeb	-21
186	0x0c	12
187	0xfc	-4
188	0x09	9
189	0x7f	127
190	0x5d	93
191	0x44	68
192	0xb0	-80
193	0x22	34
194	0x3e	62
195	0xec	-20
196	0x2c	44
197	0x16	22
198	0xc9	-55
199	0x28	40
200	0x7f	127
201	0x44	68
202	0x15	21
203	0x45	69
204	0x86	-122
205	0x05	5
206	0xde	-34
207	0xd8	-40
208	0x38	56
209	0xe3	-29
210	0x1f	31
211	0x09	9
212	0x19	25
213	0xa2	-94
214	0x20	32
215	0x25	37
216	0x32	50
217	0xe9	-23
218	0xe8	-24
219	0xec	-20
220	0xda	-38
221	0xd4	-44
222	0xbc	-68
223	0xc3	-61
224	0x49	73
225	0x93	-109
226	0xe9	-23
227	0x3a	58
228	0xc1	-63
229	0x1b	27
230	0x2d	45
231	0xcd	-51
232	0xdc	-36
233	0xb2	-78
234	0xb2	-78
235	0xcf	-49
236	0xeb	-21
237	0xc7	-57
238	0xf2	-14
239	0x2c	44
240	0x00	0
241	0x1b	27
242	0xfe	-2
243	0x1e	30
244	0x94	-108
245	0xc6	-58
246	0x22	34
247	0x4e	78
248	0xb7	-73
249	0x03	3
250	0x96	-106
251	0x7f	127
252	0xb4	-76
253	0x8b	-117
254	0x7f	127
255	0x7b	123

model_32/tf.nn.convolution_40/convolution i1 [144, 1, 1, 48]
0	0xfc	-4
1	0x44	68
2	0xcd	-51
3	0x7f	127
4	0x0c	12
5	0xcc	-52
6	0x48	72
7	0xd6	-42
8	0xbe	-66
9	0xf8	-8
10	0x10	16
11	0x08	8
12	0xdc	-36
13	0xdb	-37
14	0x1f	31
15	0x2f	47
16	0x03	3
17	0xf4	-12
18	0x0f	15
19	0xc5	-59
20	0x0f	15
21	0x0c	12
22	0x16	22
23	0xe2	-30
24	0x03	3
25	0xde	-34
26	0xb7	-73
27	0xea	-22
28	0x24	36
29	0xfd	-3
30	0xf5	-11
31	0xdd	-35
32	0xa4	-92
33	0xc4	-60
34	0x70	112
35	0xe2	-30
36	0x78	120
37	0xca	-54
38	0x1b	27
39	0xfa	-6
40	0xfe	-2
41	0xef	-17
42	0x09	9
43	0xeb	-21
44	0xf5	-11
45	0xe2	-30
46	0x19	25
47	0xde	-34
48	0x11	17
49	0x14	20
50	0x0a	10
51	0x4e	78
52	0x22	34
53	0xed	-19
54	0xd1	-47
55	0xe9	-23
56	0xf0	-16
57	0x1a	26
58	0x27	39
59	0xf5	-11
60	0x1a	26
61	0xe7	-25
62	0x21	33
63	0x1c	28
64	0xfe	-2
65	0x7f	127
66	0xfe	-2
67	0xed	-19
68	0xdc	-36
69	0xee	-18
70	0x06	6
71	0x01	1
72	0x27	39
73	0x08	8
74	0xdd	-35
75	0xde	-34
76	0xc8	-56
77	0x19	25
78	0x47	71
79	0x28	40
80	0x03	3
81	0xd9	-39
82	0xdf	-33
83	0xd5	-43
84	0xe6	-26
85	0x13	19
86	0xda	-38
87	0xf0	-16
88	0x23	35
89	0x29	41
90	0xe6	-26
91	0xf3	-13
92	0x17	23
93	0x30	48
94	0x23	35
95	0x35	53
96	0xe6	-26
97	0xe2	-30
98	0xe7	-25
99	0x0f	15
100	0xd0	-48
101	0xf0	-16
102	0xf0	-16
103	0xc5	-59
104	0x0e	14
105	0x1b	27
106	0x0e	14
107	0x14	20
108	0xe4	-28
109	0x29	41
110	0x0d	13
111	0xf6	-10
112	0xf5	-11
113	0x12	18
114	0xfd	-3
115	0x05	5
116	0x1f	31
117	0x9a	-102
118	0xa6	-90
119	0x04	4
120	0xdd	-35
121	0xb7	-73
122	0x24	36
123	0xe7	-25
124	0xd9	-39
125	0xd9	-39
126	0xb1	-79
127	0xf0	-16
128	0x53	83
129	0xf5	-11
130	0x33	51
131	0x3d	61
132	0xbf	-65
133	0x81	-127
134	0x2e	46
135	0x03	3
136	0x4b	75
137	0x1d	29
138	0xc9	-55
139	0x02	2
140	0x51	81
141	0xce	-50
142	0x10	16
143	0x23	35
144	0xfc	-4
145	0x05	5
146	0xf8	-8
147	0x2d	45
148	0xc0	-64
149	0x11	17
150	0xe7	-25
151	0x1c	28
152	0xf0	-16
153	0xdf	-33
154	0x1a	26
155	0xf3	-13
156	0xc6	-58
157	0xe3	-29
158	0x2e	46
159	0xdf	-33
160	0x03	3
161	0xc3	-61
162	0xc2	-62
163	0xd3	-45
164	0xdb	-37
165	0x1d	29
166	0xc6	-58
167	0xf2	-14
168	0x49	73
169	0xae	-82
170	0x07	7
171	0x32	50
172	0x2f	47
173	0x35	53
174	0x81	-127
175	0xcb	-53
176	0xdb	-37
177	0xf7	-9
178	0x48	72
179	0x03	3
180	0xfa	-6
181	0xef	-17
182	0x28	40
183	0xe3	-29
184	0xe6	-26
185	0xc4	-60
186	0xeb	-21
187	0x19	25
188	0xc7	-57
189	0x33	51
190	0x1d	29
191	0xcb	-53
192	0xfd	-3
193	0xe9	-23
194	0xf9	-7
195	0xef	-17
196	0x02	2
197	0xc2	-62
198	0x11	17
199	0x05	5
200	0x09	9
201	0x7c	124
202	0x24	36
203	0x0a	10
204	0x44	68
205	0xe6	-26
206	0xf6	-10
207	0x1f	31
208	0x03	3
209	0x36	54
210	0x0c	12
211	0x1a	26
212	0xf2	-14
213	0xf8	-8
214	0xf4	-12
215	0x14	20
216	0x23	35
217	0x15	21
218	0x6a	106
219	0x33	51
220	0x63	99
221	0x0e	14
222	0xf0	-16
223	0xe2	-30
224	0xe1	-31
225	0xc0	-64
226	0x04	4
227	0xea	-22
228	0x1d	29
229	0xf8	-8
230	0x28	40
231	0xed	-19
232	0x36	54
233	0xec	-20
234	0x22	34
235	0xcb	-53
236	0x22	34
237	0xae	-82
238	0x81	-127
239	0xc7	-57
240	0xa3	-93
241	0xd5	-43
242	0x27	39
243	0x5d	93
244	0x8b	-117
245	0x31	49
246	0x81	-127
247	0x0f	15
248	0x15	21
249	0x43	67
250	0x0a	10
251	0xa2	-94
252	0x4d	77
253	0x28	40
254	0x27	39
255	0xe0	-32

model_32/tf.compat.v1.nn.depthwise_conv2d_45/depthwise i1 [1, 3, 3, 24]
0	0x43	67
1	0x8e	-114
2	0x2a	42
3	0xac	-84
4	0x20	32
5	0x07	7
6	0xde	-34
7	0x42	66
8	0x7f	127
9	0xbe	-66
10	0xe9	-23
11	0x4c	76
12	0x84	-124
13	0xe3	-29
14	0x4c	76
15	0x5d	93
16	0x0b	11
17	0x1e	30
18	0xd0	-48
19	0x55	85
20	0x3c	60
21	0xb4	-76
22	0x18	24
23	0x81	-127
24	0x34	52
25	0x81	-127
26	0xfe	-2
27	0x2d	45
28	0x23	35
29	0x37	55
30	0xf3	-13
31	0x7f	127
32	0x6f	111
33	0x81	-127
34	0x8b	-117
35	0x97	-105
36	0x9b	-101
37	0x00	0
38	0x4c	76
39	0x7f	127
40	0x5f	95
41	0x7f	127
42	0x0f	15
43	0x45	69
44	0x68	104
45	0x81	-127
46	0xfa	-6
47	0x0a	10
48	0x4d	77
49	0x9e	-98
50	0x1d	29
51	0xb0	-80
52	0x1d	29
53	0x46	70
54	0xdf	-33
55	0x64	100
56	0x5d	93
57	0xc8	-56
58	0xd4	-44
59	0x16	22
60	0x81	-127
61	0x31	49
62	0x62	98
63	0x52	82
64	0x6a	106
65	0x13	19
66	0xc6	-58
67	0x4c	76
68	0x3f	63
69	0xc8	-56
70	0x1b	27
71	0xa2	-94
72	0xeb	-21
73	0xdf	-33
74	0xcf	-49
75	0xe9	-23
76	0xf5	-11
77	0x93	-109
78	0xd4	-44
79	0x33	51
80	0x2b	43
81	0x17	23
82	0x2e	46
83	0xcb	-53
84	0xd9	-39
85	0xe0	-32
86	0x10	16
87	0x06	6
88	0xec	-20
89	0xd9	-39
90	0x10	16
91	0x7f	127
92	0xd2	-46
93	0xd9	-39
94	0x1c	28
95	0xc5	-59
96	0xec	-20
97	0x43	67
98	0xaa	-86
99	0xd8	-40
100	0x33	51
101	0xcc	-52
102	0xf6	-10
103	0x0a	10
104	0x18	24
105	0x1c	28
106	0xaf	-81
107	0x81	-127
108	0x4d	77
109	0xe4	-28
110	0x20	32
111	0x08	8
112	0xdc	-36
113	0x2e	46
114	0xd1	-47
115	0x53	83
116	0x49	73
117	0x05	5
118	0xd1	-47
119	0x49	73
120	0xe6	-26
121	0xe5	-27
122	0x27	39
123	0xee	-18
124	0xf6	-10
125	0xa9	-87
126	0xcc	-52
127	0x31	49
128	0x36	54
129	0x08	8
130	0x2d	45
131	0xa3	-93
132	0x07	7
133	0x49	73
134	0xfd	-3
135	0x1e	30
136	0x53	83
137	0xd8	-40
138	0x0a	10
139	0x6f	111
140	0xe2	-30
141	0xcf	-49
142	0x16	22
143	0xcb	-53
144	0xdc	-36
145	0x06	6
146	0xf1	-15
147	0xbf	-65
148	0xad	-83
149	0x8e	-114
150	0x83	-125
151	0xc5	-59
152	0x1f	31
153	0x12	18
154	0x7f	127
155	0xf7	-9
156	0xe0	-32
157	0x1c	28
158	0x7f	127
159	0xfb	-5
160	0xde	-34
161	0x0d	13
162	0xb0	-80
163	0x3c	60
164	0x3c	60
165	0xcb	-53
166	0x6e	110
167	0xde	-34
168	0x81	-127
169	0x2a	42
170	0x81	-127
171	0x81	-127
172	0x81	-127
173	0x8d	-115
174	0x49	73
175	0xcd	-51
176	0xb8	-72
177	0x39	57
178	0x73	115
179	0xf7	-9
180	0x21	33
181	0x0a	10
182	0x78	120
183	0xf0	-16
184	0xbd	-67
185	0xe0	-32
186	0x81	-127
187	0xfe	-2
188	0x7f	127
189	0x21	33
190	0x3f	63
191	0x46	70
192	0xd1	-47
193	0xf0	-16
194	0x19	25
195	0xba	-70
196	0xbf	-65
197	0x81	-127
198	0x81	-127
199	0xd1	-47
200	0xda	-38
201	0x05	5
202	0x7f	127
203	0xa5	-91
204	0xc7	-57
205	0x7f	127
206	0x7b	123
207	0xf8	-8
208	0x7f	127
209	0x16	22
210	0x8f	-113
211	0x3d	61
212	0x32	50
213	0xcc	-52
214	0x7f	127
215	0x05	5

model_32/tf.nn.convolution_39/convolution i1 [24, 1, 1, 288]
0	0xfc	-4
1	0xe3	-29
2	0xcd	-51
3	0xf9	-7
4	0xfa	-6
5	0x0a	10
6	0x0c	12
7	0x36	54
8	0x20	32
9	0x0a	10
10	0x07	7
11	0x29	41
12	0xe8	-24
13	0xe5	-27
14	0x1c	28
15	0xfc	-4
16	0x13	19
17	0xf9	-7
18	0x0f	15
19	0xf1	-15
20	0xe7	-25
21	0x06	6
22	0xc4	-60
23	0x39	57
24	0x05	5
25	0xe6	-26
26	0xc7	-57
27	0x0e	14
28	0xf2	-14
29	0x26	38
30	0xff	-1
31	0xd9	-39
32	0xc0	-64
33	0xf6	-10
34	0xeb	-21
35	0x88	-120
36	0xdb	-37
37	0xdc	-36
38	0x1c	28
39	0xf9	-7
40	0xff	-1
41	0x11	17
42	0xf7	-9
43	0x11	17
44	0xe9	-23
45	0xec	-20
46	0x27	39
47	0xe6	-26
48	0xfc	-4
49	0xf9	-7
50	0x44	68
51	0x0a	10
52	0xb6	-74
53	0x81	-127
54	0xff	-1
55	0xe4	-28
56	0x13	19
57	0xb3	-77
58	0xd0	-48
59	0x10	16
60	0x1f	31
61	0xd2	-46
62	0xec	-20
63	0xe5	-27
64	0xa6	-90
65	0xb3	-77
66	0xf8	-8
67	0x1a	26
68	0x5f	95
69	0xe4	-28
70	0x1a	26
71	0xee	-18
72	0x0d	13
73	0xf4	-12
74	0xf6	-10
75	0xf3	-13
76	0x11	17
77	0xfe	-2
78	0x14	20
79	0x2f	47
80	0xf3	-13
81	0xa1	-95
82	0xd2	-46
83	0x2d	45
84	0xe9	-23
85	0x34	52
86	0x1d	29
87	0x33	51
88	0x15	21
89	0x29	41
90	0xec	-20
91	0x56	86
92	0xe2	-30
93	0xef	-17
94	0xe3	-29
95	0x29	41
96	0x29	41
97	0xe6	-26
98	0x37	55
99	0xde	-34
100	0xd5	-43
101	0x25	37
102	0xfc	-4
103	0x04	4
104	0x03	3
105	0xfa	-6
106	0x13	19
107	0x2d	45
108	0x2a	42
109	0x13	19
110	0xab	-85
111	0x22	34
112	0xff	-1
113	0x49	73
114	0x10	16
115	0xf1	-15
116	0x4e	78
117	0xf9	-7
118	0xfe	-2
119	0x4b	75
120	0xe2	-30
121	0xe1	-31
122	0xf9	-7
123	0x0a	10
124	0x28	40
125	0x08	8
126	0x09	9
127	0x0d	13
128	0x04	4
129	0x36	54
130	0x03	3
131	0x10	16
132	0x0d	13
133	0x00	0
134	0xf0	-16
135	0x01	1
136	0x0c	12
137	0xed	-19
138	0x27	39
139	0xef	-17
140	0x1d	29
141	0x00	0
142	0xfb	-5
143	0xdf	-33
144	0x0d	13
145	0x02	2
146	0xf3	-13
147	0xde	-34
148	0xef	-17
149	0x8f	-113
150	0xe1	-31
151	0xc9	-55
152	0x65	101
153	0x02	2
154	0xf9	-7
155	0x2f	47
156	0x1c	28
157	0xfa	-6
158	0x2e	46
159	0xff	-1
160	0x04	4
161	0x10	16
162	0xfc	-4
163	0x09	9
164	0x17	23
165	0xd9	-39
166	0xe2	-30
167	0xf6	-10
168	0x37	55
169	0x44	68
170	0xe0	-32
171	0xfa	-6
172	0xe2	-30
173	0xd2	-46
174	0x08	8
175	0x68	104
176	0xb9	-71
177	0xdb	-37
178	0x3b	59
179	0xe4	-28
180	0xfd	-3
181	0x30	48
182	0xf1	-15
183	0x0f	15
184	0xce	-50
185	0xfc	-4
186	0xac	-84
187	0x46	70
188	0x26	38
189	0x2c	44
190	0x24	36
191	0xfb	-5
192	0x6b	107
193	0xc6	-58
194	0x1f	31
195	0x14	20
196	0xd0	-48
197	0xec	-20
198	0xf5	-11
199	0xe6	-26
200	0x0f	15
201	0xb3	-77
202	0xef	-17
203	0x2d	45
204	0x42	66
205	0xda	-38
206	0xa3	-93
207	0x2d	45
208	0x28	40
209	0xb5	-75
210	0xdd	-35
211	0x17	23
212	0x5c	92
213	0xaf	-81
214	0xfb	-5
215	0x05	5
216	0xc9	-55
217	0xf4	-12
218	0x1a	26
219	0xe4	-28
220	0xfa	-6
221	0xe7	-25
222	0x1c	28
223	0x33	51
224	0xdf	-33
225	0x1f	31
226	0xc9	-55
227	0xdf	-33
228	0xea	-22
229	0x20	32
230	0xd3	-45
231	0xdf	-33
232	0x6e	110
233	0xe4	-28
234	0x2b	43
235	0x2a	42
236	0xe9	-23
237	0x3a	58
238	0xc7	-57
239	0xbc	-68
240	0xd9	-39
241	0x0f	15
242	0xe8	-24
243	0x38	56
244	0xcc	-52
245	0xfe	-2
246	0x01	1
247	0xe3	-29
248	0xc7	-57
249	0x24	36
250	0xd9	-39
251	0xd3	-45
252	0x14	20
253	0xe8	-24
254	0xd6	-42
255	0x10	16

model_32/tf.compat.v1.nn.depthwise_conv2d_44/depthwise i1 [1, 3, 3, 144]
0	0xfe	-2
1	0xd6	-42
2	0xd0	-48
3	0x75	117
4	0x3c	60
5	0xfb	-5
6	0x69	105
7	0xab	-85
8	0x3b	59
9	0x61	97
10	0x3a	58
11	0xfc	-4
12	0xdc	-36
13	0x0d	13
14	0x76	118
15	0xf0	-16
16	0xa9	-87
17	0x7f	127
18	0x6d	109
19	0xaf	-81
20	0x29	41
21	0x10	16
22	0xb2	-78
23	0x63	99
24	0xb9	-71
25	0x24	36
26	0x4d	77
27	0x18	24
28	0x6c	108
29	0x5b	91
30	0xed	-19
31	0x7f	127
32	0x70	112
33	0x72	114
34	0xba	-70
35	0xdd	-35
36	0xd3	-45
37	0xee	-18
38	0x3f	63
39	0xed	-19
40	0x29	41
41	0xb9	-71
42	0x7f	127
43	0x7f	127
44	0x1e	30
45	0xd2	-46
46	0xb8	-72
47	0xb0	-80
48	0xcf	-49
49	0xf7	-9
50	0x6d	109
51	0x7f	127
52	0xc5	-59
53	0xd4	-44
54	0x6d	109
55	0x5f	95
56	0x81	-127
57	0x66	102
58	0x62	98
59	0x6c	108
60	0xfd	-3
61	0x20	32
62	0x81	-127
63	0x1b	27
64	0x7f	127
65	0x13	19
66	0x7f	127
67	0x4f	79
68	0x78	120
69	0x1d	29
70	0x58	88
71	0xd3	-45
72	0x98	-104
73	0x09	9
74	0x81	-127
75	0xed	-19
76	0x07	7
77	0xa6	-90
78	0xab	-85
79	0xe8	-24
80	0x7f	127
81	0xfa	-6
82	0x96	-106
83	0xc6	-58
84	0xc0	-64
85	0xdf	-33
86	0x86	-122
87	0x90	-112
88	0xe8	-24
89	0xe5	-27
90	0xca	-54
91	0xb5	-75
92	0xe3	-29
93	0xea	-22
94	0xfa	-6
95	0x7f	127
96	0x65	101
97	0x7a	122
98	0x5f	95
99	0x7f	127
100	0x81	-127
101	0x75	117
102	0x00	0
103	0x54	84
104	0x22	34
105	0x1d	29
106	0x87	-121
107	0xe1	-31
108	0xbd	-67
109	0xf0	-16
110	0x81	-127
111	0x47	71
112	0x93	-109
113	0xd9	-39
114	0xe8	-24
115	0x47	71
116	0xd9	-39
117	0xf4	-12
118	0xbf	-65
119	0xe5	-27
120	0x46	70
121	0x43	67
122	0x1b	27
123	0x17	23
124	0xcd	-51
125	0xee	-18
126	0x11	17
127	0x47	71
128	0x31	49
129	0x7f	127
130	0x41	65
131	0x9e	-98
132	0x23	35
133	0x7f	127
134	0xb3	-77
135	0x32	50
136	0x6d	109
137	0xde	-34
138	0x1d	29
139	0x22	34
140	0x6a	106
141	0x12	18
142	0xcf	-49
143	0xcf	-49
144	0x7e	126
145	0x7f	127
146	0x83	-125
147	0x32	50
148	0x7f	127
149	0x1a	26
150	0x45	69
151	0x1e	30
152	0x7f	127
153	0x21	33
154	0x44	68
155	0xf7	-9
156	0x6c	108
157	0x45	69
158	0x1f	31
159	0xbb	-69
160	0xf9	-7
161	0x1a	26
162	0x72	114
163	0xdd	-35
164	0x2e	46
165	0x7f	127
166	0xf2	-14
167	0xfe	-2
168	0x9b	-101
169	0xf8	-8
170	0x7f	127
171	0x7f	127
172	0x4a	74
173	0x35	53
174	0x08	8
175	0x23	35
176	0x81	-127
177	0xd2	-46
178	0xea	-22
179	0xb2	-78
180	0xc7	-57
181	0x93	-109
182	0x7f	127
183	0xb3	-77
184	0x0b	11
185	0x1a	26
186	0x4f	79
187	0xbd	-67
188	0xe2	-30
189	0xac	-84
190	0xc7	-57
191	0xd2	-46
192	0xce	-50
193	0x7f	127
194	0x27	39
195	0x42	66
196	0xb8	-72
197	0x09	9
198	0xe8	-24
199	0x7f	127
200	0xdc	-36
201	0x7f	127
202	0x77	119
203	0x00	0
204	0xeb	-21
205	0xcd	-51
206	0xa9	-87
207	0xe4	-28
208	0xf6	-10
209	0xca	-54
210	0x51	81
211	0x9a	-102
212	0xf3	-13
213	0x31	49
214	0x78	120
215	0x91	-111
216	0xc4	-60
217	0x30	48
218	0xfd	-3
219	0x2d	45
220	0xf2	-14
221	0xc3	-61
222	0x67	103
223	0x7f	127
224	0xbd	-67
225	0xca	-54
226	0x87	-121
227	0x84	-124
228	0x83	-125
229	0xe5	-27
230	0xed	-19
231	0xab	-85
232	0xe2	-30
233	0xd7	-41
234	0xea	-22
235	0xed	-19
236	0xd0	-48
237	0x91	-111
238	0xbd	-67
239	0x5f	95
240	0x3b	59
241	0x2e	46
242	0x66	102
243	0x3c	60
244	0xef	-17
245	0x43	67
246	0xd2	-46
247	0x37	55
248	0x3c	60
249	0x7f	127
250	0xe8	-24
251	0xeb	-21
252	0x81	-127
253	0xc6	-58
254	0xb0	-80
255	0x7f	127

model_32/tf.nn.convolution_38/convolution i1 [144, 1, 1, 48]
0	0xfa	-6
1	0xfc	-4
2	0x03	3
3	0x0e	14
4	0xed	-19
5	0x2f	47
6	0xa6	-90
7	0x16	22
8	0xf2	-14
9	0x17	23
10	0xa5	-91
11	0x3f	63
12	0x2d	45
13	0xee	-18
14	0x35	53
15	0x07	7
16	0x03	3
17	0x36	54
18	0xf4	-12
19	0x0e	14
20	0x19	25
21	0x0c	12
22	0x11	17
23	0x00	0
24	0x39	57
25	0x1c	28
26	0x26	38
27	0x07	7
28	0xfe	-2
29	0xdf	-33
30	0xb4	-76
31	0xe1	-31
32	0x08	8
33	0xca	-54
34	0x81	-127
35	0xca	-54
36	0xe3	-29
37	0x1a	26
38	0xc7	-57
39	0xe8	-24
40	0x11	17
41	0x25	37
42	0x2f	47
43	0x2f	47
44	0x11	17
45	0xfa	-6
46	0xb8	-72
47	0x0e	14
48	0xe4	-28
49	0xf7	-9
50	0xc3	-61
51	0xf3	-13
52	0x27	39
53	0xb7	-73
54	0xf4	-12
55	0x22	34
56	0x06	6
57	0xc0	-64
58	0x2d	45
59	0x20	32
60	0x38	56
61	0xe7	-25
62	0x01	1
63	0x23	35
64	0x0d	13
65	0x4c	76
66	0xfe	-2
67	0xf6	-10
68	0x07	7
69	0x2f	47
70	0x15	21
71	0x0f	15
72	0x30	48
73	0x01	1
74	0xc6	-58
75	0x20	32
76	0x34	52
77	0x0d	13
78	0xee	-18
79	0x15	21
80	0x81	-127
81	0xd8	-40
82	0xf4	-12
83	0xf0	-16
84	0xf6	-10
85	0x24	36
86	0x12	18
87	0xcf	-49
88	0x1a	26
89	0xcd	-51
90	0x75	117
91	0xa7	-89
92	0xd4	-44
93	0x02	2
94	0x28	40
95	0xeb	-21
96	0x1e	30
97	0x0d	13
98	0xdc	-36
99	0xc4	-60
100	0x1e	30
101	0xfa	-6
102	0x22	34
103	0x27	39
104	0xfa	-6
105	0x99	-103
106	0xfd	-3
107	0xe8	-24
108	0x7f	127
109	0x5d	93
110	0xa3	-93
111	0x58	88
112	0x17	23
113	0xa7	-89
114	0x3c	60
115	0x69	105
116	0x13	19
117	0xfa	-6
118	0xf9	-7
119	0xf3	-13
120	0xf1	-15
121	0x37	55
122	0xe2	-30
123	0x57	87
124	0xee	-18
125	0x13	19
126	0x2e	46
127	0xec	-20
128	0x26	38
129	0x09	9
130	0xfb	-5
131	0xf7	-9
132	0xcc	-52
133	0xa7	-89
134	0xfe	-2
135	0xb5	-75
136	0x22	34
137	0xa7	-89
138	0x4a	74
139	0xe2	-30
140	0x46	70
141	0xf3	-13
142	0xf5	-11
143	0xfe	-2
144	0xda	-38
145	0x21	33
146	0x1c	28
147	0x02	2
148	0x13	19
149	0xca	-54
150	0xde	-34
151	0x24	36
152	0x2f	47
153	0xf8	-8
154	0x15	21
155	0x24	36
156	0x1f	31
157	0x58	88
158	0xed	-19
159	0xdf	-33
160	0x32	50
161	0x3e	62
162	0xed	-19
163	0x24	36
164	0xea	-22
165	0xf7	-9
166	0x27	39
167	0x2d	45
168	0x7f	127
169	0xd5	-43
170	0x3b	59
171	0xe0	-32
172	0xfd	-3
173	0xeb	-21
174	0xec	-20
175	0x59	89
176	0x26	38
177	0x34	52
178	0x38	56
179	0x41	65
180	0xe5	-27
181	0x25	37
182	0xec	-20
183	0x07	7
184	0x2c	44
185	0xf6	-10
186	0x0e	14
187	0x5b	91
188	0x02	2
189	0x1a	26
190	0xf6	-10
191	0x1c	28
192	0xe5	-27
193	0xe0	-32
194	0xbf	-65
195	0x1d	29
196	0xeb	-21
197	0x14	20
198	0x01	1
199	0x03	3
200	0xc4	-60
201	0xe8	-24
202	0xe2	-30
203	0x30	48
204	0x0c	12
205	0xda	-38
206	0x0d	13
207	0xfe	-2
208	0xe6	-26
209	0x49	73
210	0x5b	91
211	0x2d	45
212	0xec	-20
213	0x7f	127
214	0xd0	-48
215	0x0a	10
216	0x39	57
217	0x19	25
218	0x21	33
219	0xf8	-8
220	0xe8	-24
221	0x0e	14
222	0x3e	62
223	0x17	23
224	0x1a	26
225	0xca	-54
226	0xd1	-47
227	0x30	48
228	0x0f	15
229	0x10	16
230	0x12	18
231	0xd1	-47
232	0xcc	-52
233	0x01	1
234	0x29	41
235	0x0b	11
236	0xf3	-13
237	0xe6	-26
238	0xdd	-35
239	0x11	17
240	0xf7	-9
241	0x01	1
242	0x50	80
243	0xf5	-11
244	0xf4	-12
245	0xe8	-24
246	0x4e	78
247	0x1c	28
248	0x21	33
249	0x2f	47
250	0x30	48
251	0x1e	30
252	0x3e	62
253	0xb7	-73
254	0xec	-20
255	0xe9	-23

model_32/tf.compat.v1.nn.depthwise_conv2d_43/depthwise i1 [1, 3, 3, 24]
0	0x8a	-118
1	0xcf	-49
2	0x1b	27
3	0x85	-123
4	0x0e	14
5	0xbc	-68
6	0xd7	-41
7	0xb2	-78
8	0xa7	-89
9	0xe4	-28
10	0x74	116
11	0x81	-127
12	0xe0	-32
13	0x19	25
14	0x03	3
15	0x2b	43
16	0x17	23
17	0xd4	-44
18	0x7f	127
19	0xbd	-67
20	0x36	54
21	0x30	48
22	0xce	-50
23	0x59	89
24	0xb9	-71
25	0x81	-127
26	0x7f	127
27	0xe8	-24
28	0x83	-125
29	0xc4	-60
30	0xc1	-63
31	0x08	8
32	0x81	-127
33	0x81	-127
34	0x7f	127
35	0x8a	-118
36	0x22	34
37	0x6a	106
38	0xd9	-39
39	0x7f	127
40	0x7f	127
41	0x81	-127
42	0xe5	-27
43	0x81	-127
44	0x7f	127
45	0x30	48
46	0xaa	-86
47	0x7f	127
48	0x81	-127
49	0x86	-122
50	0x1f	31
51	0x81	-127
52	0x04	4
53	0xce	-50
54	0xdd	-35
55	0xc8	-56
56	0xb7	-73
57	0xd4	-44
58	0x69	105
59	0xdc	-36
60	0xb3	-77
61	0x0e	14
62	0x05	5
63	0x22	34
64	0x12	18
65	0xd5	-43
66	0xb1	-79
67	0xbe	-66
68	0x37	55
69	0x43	67
70	0x81	-127
71	0x2d	45
72	0x20	32
73	0x10	16
74	0xfb	-5
75	0xf4	-12
76	0x2b	43
77	0x07	7
78	0xff	-1
79	0xa4	-92
80	0xfb	-5
81	0xf9	-7
82	0x13	19
83	0x01	1
84	0xf4	-12
85	0xf8	-8
86	0xf5	-11
87	0xf9	-7
88	0xd6	-42
89	0xe1	-31
90	0x65	101
91	0xfd	-3
92	0xdd	-35
93	0x3f	63
94	0x03	3
95	0xf1	-15
96	0x19	25
97	0xf6	-10
98	0x23	35
99	0x48	72
100	0x0e	14
101	0x08	8
102	0x07	7
103	0x81	-127
104	0xdd	-35
105	0xd5	-43
106	0xfd	-3
107	0xbc	-68
108	0x35	53
109	0x4e	78
110	0x19	25
111	0x02	2
112	0x52	82
113	0xa6	-90
114	0xe2	-30
115	0x06	6
116	0x05	5
117	0xef	-17
118	0xbe	-66
119	0xfb	-5
120	0x17	23
121	0x67	103
122	0xfe	-2
123	0xb9	-71
124	0x1c	28
125	0x0a	10
126	0x30	48
127	0x8e	-114
128	0xe7	-25
129	0xf4	-12
130	0x0b	11
131	0x48	72
132	0xf6	-10
133	0x13	19
134	0xf5	-11
135	0xbb	-69
136	0xbd	-67
137	0xf6	-10
138	0xc0	-64
139	0xf9	-7
140	0xd5	-43
141	0x2b	43
142	0xc8	-56
143	0xf9	-7
144	0xb4	-76
145	0xb4	-76
146	0xb3	-77
147	0xb2	-78
148	0x19	25
149	0x5d	93
150	0x4e	78
151	0x4a	74
152	0x2c	44
153	0x13	19
154	0x9c	-100
155	0x3c	60
156	0x25	37
157	0x82	-126
158	0x26	38
159	0x56	86
160	0x12	18
161	0xeb	-21
162	0x5d	93
163	0x1f	31
164	0xc5	-59
165	0x7f	127
166	0xec	-20
167	0x13	19
168	0xdd	-35
169	0x8b	-117
170	0xba	-70
171	0x42	66
172	0x7f	127
173	0x7f	127
174	0x7f	127
175	0x4e	78
176	0x50	80
177	0x00	0
178	0xd7	-41
179	0x57	87
180	0x7f	127
181	0x81	-127
182	0x7f	127
183	0x56	86
184	0x74	116
185	0x02	2
186	0x13	19
187	0x29	41
188	0xbc	-68
189	0x76	118
190	0x9d	-99
191	0x9e	-98
192	0xdd	-35
193	0x8c	-116
194	0xb2	-78
195	0x9b	-101
196	0x11	17
197	0x50	80
198	0x51	81
199	0x34	52
200	0x06	6
201	0x08	8
202	0xaa	-86
203	0x72	114
204	0x31	49
205	0x8d	-115
206	0x29	41
207	0x33	51
208	0xc6	-58
209	0xec	-20
210	0xa9	-87
211	0x2d	45
212	0xb5	-75
213	0x50	80
214	0xfc	-4
215	0x25	37
