application/network_application/eaif_server/models/oc_human_only/gNet.tflite (tflite, 416120 bytes, 85 tensors)

model_32/tf.linalg.matmul/MatMul i1 [9, 980] scale=0.0015531278 zero_point=0
00000000: f9cd 0af9 f205 2c2b 0403 f4db d714 0700
00000010: 1ff4 07d8 13fe fff8 12fb fef9 07cc e8f2
00000020: 15fa 06f6 06f8 0efe 0012 1afd 04dc 00f9
00000030: 1809 f808 1dfd faff 0505 19a8 e121 fb09
00000040: 0ee2 fb06 fdec fdf5 1bf9 0f05 ed15 e912
00000050: 03e8 cffd 0729 f90f f905 f90e e9ec 1007
00000060: f802 060e 0112 100f d2fd 0ee1 fafd cc19
00000070: ffb1 ff33 faf2 fa13 1b03 cabc e81a 1411
00000080: fc03 061c f407 fe20 fee8 cf00 d926 eeff
00000090: f3c4 32fa e705 0704 d1f7 fd08 d9fd 03d1
000000a0: d503 fcec 0815 ef2c fcf0 f8ff 0304 d201
000000b0: 35ff 07ec eb11 f11b 1214 0d09 f1f1 ed0d
000000c0: 140a 1bfc 07c4 f217 1d03 0516 fe07 f3f4
000000d0: 1315 2300 220c f806 06e5 f5e2 c31e f809
000000e0: fb07 c31c 06fd daec fe02 aac2 19f5 26f3
000000f0: ebf9 d4b2 f8f9 0500 cb00 1de6 ba0f 04d9
-0.010871895 -0.079209514 0.015531277 -0.010871895 -0.02174379 0.0077656386 0.06833762 0.06678449
0.006212511 0.0046593836 -0.018637534 -0.05746573 -0.06367824 0.031062555 0.010871895 0.0
0.04814696 -0.018637534 0.010871895 -0.06212511 0.029509427 -0.0031062555 -0.0015531278 -0.012425022
0.0279563 -0.0077656386 -0.0031062555 -0.010871895 0.010871895 -0.08076265 -0.03727507 -0.02174379
0.032615684 -0.009318767 0.009318767 -0.015531277 0.009318767 -0.012425022 0.02174379 -0.0031062555
0.0 0.0279563 0.040381324 -0.0046593836 0.006212511 -0.0559126 0.0 -0.010871895
0.03727507 0.01397815 -0.012425022 0.012425022 0.045040704 -0.0046593836 -0.009318767 -0.0015531278
0.0077656386 0.0077656386 0.038828194 -0.13667524 -0.04814696 0.05125322 -0.0077656386 0.01397815
0.02174379 -0.046593834 -0.0077656386 0.009318767 -0.0046593836 -0.031062555 -0.0046593836 -0.017084405
0.04193445 -0.010871895 0.023296917 0.0077656386 -0.029509427 0.032615684 -0.03572194 0.0279563
0.0046593836 -0.03727507 -0.07610326 -0.0046593836 0.010871895 0.06367824 -0.010871895 0.023296917
-0.010871895 0.0077656386 -0.010871895 0.02174379 -0.03572194 -0.031062555 0.024850044 0.010871895
-0.012425022 0.0031062555 0.009318767 0.02174379 0.0015531278 0.0279563 0.024850044 0.023296917
-0.07144388 -0.0046593836 0.02174379 -0.04814696 -0.009318767 -0.0046593836 -0.08076265 0.038828194
-0.0015531278 -0.12269709 -0.0015531278 0.079209514 -0.009318767 -0.02174379 -0.009318767 0.029509427
0.04193445 0.0046593836 -0.0838689 -0.10561269 -0.03727507 0.040381324 0.031062555 0.026403172
-0.006212511 0.0046593836 0.009318767 0.04348758 -0.018637534 0.010871895 -0.0031062555 0.04970009
-0.0031062555 -0.03727507 -0.07610326 0.0 -0.060571983 0.059018854 -0.0279563 -0.0015531278
-0.020190662 -0.09318767 0.07765639 -0.009318767 -0.038828194 0.0077656386 0.010871895 0.006212511
-0.072997004 -0.01397815 -0.0046593836 0.012425022 -0.060571983 -0.0046593836 0.0046593836 -0.072997004
-0.06678449 0.0046593836 -0.006212511 -0.031062555 0.012425022 0.032615684 -0.026403172 0.06833762
-0.006212511 -0.024850044 -0.012425022 -0.0015531278 0.0046593836 0.006212511 -0.07144388 0.0015531278
0.08231577 -0.0015531278 0.010871895 -0.031062555 -0.032615684 0.026403172 -0.023296917 0.04193445
0.0279563 0.031062555 0.020190662 0.01397815 -0.023296917 -0.023296917 -0.029509427 0.020190662
0.031062555 0.015531277 0.04193445 -0.006212511 0.010871895 -0.09318767 -0.02174379 0.03572194
0.045040704 0.0046593836 0.0077656386 0.03416881 -0.0031062555 0.010871895 -0.020190662 -0.018637534
0.029509427 0.032615684 0.054359473 0.0 0.052806344 0.018637534 -0.012425022 0.009318767
0.009318767 -0.04193445 -0.017084405 -0.046593834 -0.09474079 0.046593834 -0.012425022 0.01397815
-0.0077656386 0.010871895 -0.09474079 0.04348758 0.009318767 -0.0046593836 -0.059018854 -0.031062555
-0.0031062555 0.0031062555 -0.13356899 -0.09629392 0.038828194 -0.017084405 0.059018854 -0.020190662
-0.032615684 -0.010871895 -0.06833762 -0.12114397 -0.012425022 -0.010871895 0.0077656386 0.0
-0.08231577 0.0 0.045040704 -0.040381324 -0.10871895 0.023296917 0.006212511 -0.060571983

model_32/tf.nn.convolution_60/convolution i1 [980, 1, 1, 192]
00000000: 97ed a7cb e649 2894 63cf 09b9 07df 5298
00000010: fffb 027b d803 5bb1 1f48 7e77 a06d ca9a
00000020: 53fa cefd 1c16 0d10 f4f3 352c a9ed b2bb
00000030: 5b44 3d73 cc05 083c 1d56 8e7f d486 879b
00000040: c701 9256 c30e da58 2a7e 7469 1973 3a85
00000050: adba d6f9 a890 3084 ecbf d7f1 cadf 15c7
00000060: 2651 60a9 cf52 5db0 56ef 6a0d 2c8c 4789
00000070: 354d 00ce 5dc6 1496 9661 e95b e879 9799
00000080: 5c24 ca88 9129 ebd5 d8e6 9720 35d3 29aa
00000090: c156 2aff 3cdc 5047 9edd 371e 528b 938a
000000a0: 2165 b6f5 95f2 d2db 9f2d e1b6 1995 bf97
000000b0: 7cb1 28bc 6588 d559 01a4 8d7f 6238 f602
000000c0: eadd af50 296e ee2e 1aba f954 43e7 413d
000000d0: 10e2 6b45 562e 2a03 2236 cf57 e15b c235
000000e0: 6a50 7b18 a545 33db 30ff 2d09 b537 22d2
000000f0: 3db7 23a5 efcf c5a6 7a65 07fb bb1c d6b7
-105 -19 -89 -53 -26 73 40 -108
99 -49 9 -71 7 -33 82 -104
-1 -5 2 123 -40 3 91 -79
31 72 126 119 -96 109 -54 -102
83 -6 -50 -3 28 22 13 16
-12 -13 53 44 -87 -19 -78 -69
91 68 61 115 -52 5 8 60
29 86 -114 127 -44 -122 -121 -101
-57 1 -110 86 -61 14 -38 88
42 126 116 105 25 115 58 -123
-83 -70 -42 -7 -88 -112 48 -124
-20 -65 -41 -15 -54 -33 21 -57
38 81 96 -87 -49 82 93 -80
86 -17 106 13 44 -116 71 -119
53 77 0 -50 93 -58 20 -106
-106 97 -23 91 -24 121 -105 -103
92 36 -54 -120 -111 41 -21 -43
-40 -26 -105 32 53 -45 41 -86
-63 86 42 -1 60 -36 80 71
-98 -35 55 30 82 -117 -109 -118
33 101 -74 -11 -107 -14 -46 -37
-97 45 -31 -74 25 -107 -65 -105
124 -79 40 -68 101 -120 -43 89
1 -92 -115 127 98 56 -10 2
-22 -35 -81 80 41 110 -18 46
26 -70 -7 84 67 -25 65 61
16 -30 107 69 86 46 42 3
34 54 -49 87 -31 91 -62 53
106 80 123 24 -91 69 51 -37
48 -1 45 9 -75 55 34 -46
61 -73 35 -91 -17 -49 -59 -90
122 101 7 -5 -69 28 -42 -73

model_32/tf.nn.convolution_59/convolution i1 [192, 1, 1, 32]
00000000: dec4 c3bc 3981 dbcc 1141 fb9d 2647 7255
00000010: bd1a 1f2e 0746 43c3 5a46 e007 dde4 6941
00000020: 9a61 f919 e70b d7cc a601 0fdd 01fc a62c
00000030: 61e9 edc8 8dfc 9805 167f aeb6 9b9b 5df7
00000040: 14fa be98 becf a685 0092 2257 8cbc 2833
00000050: 2de4 dafa bbe2 997f 6efa 91ba fbaf 343d
00000060: 3604 bab6 4b5e 4e1b 4f5e af7f 08b4 6c85
00000070: 5fa8 24ef d9f2 cc86 1024 d0e0 249d ad47
00000080: 513b ee38 97cb bf81 1da3 9364 d7a2 5c3b
00000090: 3d92 f64a 0872 b64b 1ae0 e4e6 f723 def8
000000a0: ca16 dea6 7339 d8bb 477f 9333 3958 e4f1
000000b0: 4fc8 9b27 fc3b fc42 8667 f73d af66 b1b8
000000c0: e63b f69f 7a86 abdf e118 6a5e 53aa dc93
000000d0: 4bc8 7453 cbf4 1b3c 4ff9 ee7f 35f6 b912
000000e0: 8d43 6c10 d24a 891b 5a14 a9a1 f875 ea3c
000000f0: 4449 c47e e3c0 51db 6e7f 71fb f433 f811
-34 -60 -61 -68 57 -127 -37 -52
17 65 -5 -99 38 71 114 85
-67 26 31 46 7 70 67 -61
90 70 -32 7 -35 -28 105 65
-102 97 -7 25 -25 11 -41 -52
-90 1 15 -35 1 -4 -90 44
97 -23 -19 -56 -115 -4 -104 5
22 127 -82 -74 -101 -101 93 -9
20 -6 -66 -104 -66 -49 -90 -123
0 -110 34 87 -116 -68 40 51
45 -28 -38 -6 -69 -30 -103 127
110 -6 -111 -70 -5 -81 52 61
54 4 -70 -74 75 94 78 27
79 94 -81 127 8 -76 108 -123
95 -88 36 -17 -39 -14 -52 -122
16 36 -48 -32 36 -99 -83 71
81 59 -18 56 -105 -53 -65 -127
29 -93 -109 100 -41 -94 92 59
61 -110 -10 74 8 114 -74 75
26 -32 -28 -26 -9 35 -34 -8
-54 22 -34 -90 115 57 -40 -69
71 127 -109 51 57 88 -28 -15
79 -56 -101 39 -4 59 -4 66
-122 103 -9 61 -81 102 -79 -72
-26 59 -10 -97 122 -122 -85 -33
-31 24 106 94 83 -86 -36 -109
75 -56 116 83 -53 -12 27 60
79 -7 -18 127 53 -10 -71 18
-115 67 108 16 -46 74 -119 27
90 20 -87 -95 -8 117 -22 60
68 73 -60 126 -29 -64 81 -37
110 127 113 -5 -12 51 -8 17

model_32/tf.compat.v1.nn.depthwise_conv2d_44/depthwise i1 [1, 3, 3, 16]
00000000: e42c 813b 0d92 97b2 139d b6e4 ec81 8148
00000010: d703 69d5 e6ac 8148 dc5b c241 0e99 50a2
00000020: c072 87d4 a3a9 827f 07a4 3713 7787 797f
00000030: dae8 b3bd d881 7630 043b 5d38 c26e fc3c
00000040: 67b9 280d 7f3d 0c76 648a b505 d3a4 5914
00000050: 96f8 b7ea dee4 476f 7f12 7b50 c4f8 e458
00000060: f97f 064e 1e19 cdd9 af3e 9e7f 7aca e249
00000070: 8150 a981 41b8 a89f f5a8 81ad 6e7b 9f9c
00000080: 00ca 6e29 544e e922 b781 a0ec 7fac 75f1
-28 44 -127 59 13 -110 -105 -78
19 -99 -74 -28 -20 -127 -127 72
-41 3 105 -43 -26 -84 -127 72
-36 91 -62 65 14 -103 80 -94
-64 114 -121 -44 -93 -87 -126 127
7 -92 55 19 119 -121 121 127
-38 -24 -77 -67 -40 -127 118 48
4 59 93 56 -62 110 -4 60
103 -71 40 13 127 61 12 118
100 -118 -75 5 -45 -92 89 20
-106 -8 -73 -22 -34 -28 71 111
127 18 123 80 -60 -8 -28 88
-7 127 6 78 30 25 -51 -39
-81 62 -98 127 122 -54 -30 73
-127 80 -87 -127 65 -72 -88 -97
-11 -88 -127 -83 110 123 -97 -100
0 -54 110 41 84 78 -23 34
-73 -127 -96 -20 127 -84 117 -15

model_32/tf.nn.convolution_58/convolution i1 [16, 1, 1, 192]
00000000: 5e52 5514 2774 0ce4 cb2c f525 18e6 1e23
00000010: 0e03 14e2 480d 4638 fa25 dc30 d502 c9ec
00000020: 263f 6536 e870 065c 40ff cc48 1826 53d4
00000030: fe24 fedf d9eb c2cf 3e42 0f43 0a09 fd5f
00000040: 3f29 6b4c 0328 2124 d34c 1119 5063 4f45
00000050: 0967 df10 5629 1f1c 2f1b e426 2c57 ecdc
00000060: e121 020e d7ec dcd3 011b 1a2b 0e2e 0d24
00000070: 0f39 c639 12e0 04d7 ddee 3efa d819 d5d2
00000080: ebdd 56ed 534c faee 3a04 c4ca 40d0 7f43
00000090: fa32 f918 40df 21e3 e9ce e531 fc13 134e
000000a0: 2d2f 1615 4b1d e10b f8d6 2eef 2041 e7fb
000000b0: 001f c845 f3fa eeea eef5 15c7 ed12 30f6
000000c0: d5bb f916 19bb db47 ed24 2df8 e3c6 9bbe
000000d0: 19cd 5aef d1d3 a3f5 26de c4f6 18e0 30b8
000000e0: e01f 0448 faa6 d5ec e4ed 031b 0be5 fbc2
000000f0: eed4 ed0b 1fcd 1426 c420 a4df 3cec 00ad
94 82 85 20 39 116 12 -28
-53 44 -11 37 24 -26 30 35
14 3 20 -30 72 13 70 56
-6 37 -36 48 -43 2 -55 -20
38 63 101 54 -24 112 6 92
64 -1 -52 72 24 38 83 -44
-2 36 -2 -33 -39 -21 -62 -49
62 66 15 67 10 9 -3 95
63 41 107 76 3 40 33 36
-45 76 17 25 80 99 79 69
9 103 -33 16 86 41 31 28
47 27 -28 38 44 87 -20 -36
-31 33 2 14 -41 -20 -36 -45
1 27 26 43 14 46 13 36
15 57 -58 57 18 -32 4 -41
-35 -18 62 -6 -40 25 -43 -46
-21 -35 86 -19 83 76 -6 -18
58 4 -60 -54 64 -48 127 67
-6 50 -7 24 64 -33 33 -29
-23 -50 -27 49 -4 19 19 78
45 47 22 21 75 29 -31 11
-8 -42 46 -17 32 65 -25 -5
0 31 -56 69 -13 -6 -18 -22
-18 -11 21 -57 -19 18 48 -10
-43 -69 -7 22 25 -69 -37 71
-19 36 45 -8 -29 -58 -101 -66
25 -51 90 -17 -47 -45 -93 -11
38 -34 -60 -10 24 -32 48 -72
-32 31 4 72 -6 -90 -43 -20
-28 -19 3 27 11 -27 -5 -62
-18 -44 -19 11 31 -51 20 38
-60 32 -92 -33 60 -20 0 -83

model_32/tf.compat.v1.nn.depthwise_conv2d_43/depthwise i1 [1, 3, 3, 96]
00000000: c17f dfac 65f8 f26b 6481 c15b 3c70 77dc
00000010: c5a3 a7b0 9132 c5e2 710a 85b7 7f15 ac8a
00000020: db6d c695 627f a9f3 b960 2ff4 ced9 63dd
00000030: d4e9 3181 067f c0af 8191 e34c 48e3 ab4e
00000040: 2dbe 8172 077f ec7f fb37 f57f 9ada 8a9b
00000050: 21aa f7ee 6132 457f d952 51ff 8e67 202f
00000060: adee 3e27 ceae 7572 cb27 3417 30a8 b6a5
00000070: 7f3a 2440 ece4 9f7a 662b 2d6b 5233 6c43
00000080: 2fa1 751a 6b94 2519 0881 9893 4a2f 3ede
00000090: bab2 bf03 813d 81e0 af7f 019d df4c d7a9
000000a0: 9e7f 59c8 9510 7f69 8148 6aa2 cf81 52d2
000000b0: 7f60 8137 657f eaad bda0 7c26 18ff 639d
000000c0: 5164 cfb1 703c 81c8 6179 0f12 d27f c54f
000000d0: 162c ba52 90af 269b 2a81 ae55 c3a8 a5a5
000000e0: 7ba8 0c5c 818f 2e34 7f76 ee5e 51b3 7ade
000000f0: 297b 7f05 9d9a 1445 1c88 978d 8181 8e81
-63 127 -33 -84 101 -8 -14 107
100 -127 -63 91 60 112 119 -36
-59 -93 -89 -80 -111 50 -59 -30
113 10 -123 -73 127 21 -84 -118
-37 109 -58 -107 98 127 -87 -13
-71 96 47 -12 -50 -39 99 -35
-44 -23 49 -127 6 127 -64 -81
-127 -111 -29 76 72 -29 -85 78
45 -66 -127 114 7 127 -20 127
-5 55 -11 127 -102 -38 -118 -101
33 -86 -9 -18 97 50 69 127
-39 82 81 -1 -114 103 32 47
-83 -18 62 39 -50 -82 117 114
-53 39 52 23 48 -88 -74 -91
127 58 36 64 -20 -28 -97 122
102 43 45 107 82 51 108 67
47 -95 117 26 107 -108 37 25
8 -127 -104 -109 74 47 62 -34
-70 -78 -65 3 -127 61 -127 -32
-81 127 1 -99 -33 76 -41 -87
-98 127 89 -56 -107 16 127 105
-127 72 106 -94 -49 -127 82 -46
127 96 -127 55 101 127 -22 -83
-67 -96 124 38 24 -1 99 -99
81 100 -49 -79 112 60 -127 -56
97 121 15 18 -46 127 -59 79
22 44 -70 82 -112 -81 38 -101
42 -127 -82 85 -61 -88 -91 -91
123 -88 12 92 -127 -113 46 52
127 118 -18 94 81 -77 122 -34
41 123 127 5 -99 -102 20 69
28 -120 -105 -115 -127 -127 -114 -127

model_32/tf.nn.convolution_57/convolution i1 [96, 1, 1, 32]
00000000: ddb9 f134 b8f2 0b0c 6146 d1af 40f9 ac27
00000010: 8495 68b4 81d3 b228 ca96 3306 c0b4 28d4
00000020: 1d0f def4 e10f 3ceb b7e9 d31e 530a 2c16
00000030: 16b9 8140 f11f 2cdb f656 f4c7 1cdf cdee
00000040: bfdb 2edb b6ac 1d00 4d3e cf18 f3c5 e5ea
00000050: 4dff 81f2 53be c8f5 bd14 22a9 c9de 02d2
00000060: c3f2 a7b9 1b9a 5499 ea12 3e06 28ed 1619
00000070: 281a 8169 0b64 43d6 33e1 f608 d1f6 0515
00000080: 64ba f450 c156 59e0 c2d1 92e8 303e 4bda
00000090: 3214 812b 4770 08df 6565 a89a e035 03d6
000000a0: cac7 5a16 b069 a416 1257 9c97 43e1 7fb6
000000b0: d0a5 df87 1ea9 a475 125a cff0 b72d 6ad5
000000c0: a0b7 af22 d23f 3af6 32bf bdc9 5765 d80a
000000d0: 2452 b09c ccb2 81c6 17a4 c30e 3e62 04d1
000000e0: 1efc cce2 46c2 f0af c4f3 c4a9 9fe2 f6f7
000000f0: 7f3d df43 36cb f249 2554 b216 3fb9 ec22
-35 -71 -15 52 -72 -14 11 12
97 70 -47 -81 64 -7 -84 39
-124 -107 104 -76 -127 -45 -78 40
-54 -106 51 6 -64 -76 40 -44
29 15 -34 -12 -31 15 60 -21
-73 -23 -45 30 83 10 44 22
22 -71 -127 64 -15 31 44 -37
-10 86 -12 -57 28 -33 -51 -18
-65 -37 46 -37 -74 -84 29 0
77 62 -49 24 -13 -59 -27 -22
77 -1 -127 -14 83 -66 -56 -11
-67 20 34 -87 -55 -34 2 -46
-61 -14 -89 -71 27 -102 84 -103
-22 18 62 6 40 -19 22 25
40 26 -127 105 11 100 67 -42
51 -31 -10 8 -47 -10 5 21
100 -70 -12 80 -63 86 89 -32
-62 -47 -110 -24 48 62 75 -38
50 20 -127 43 71 112 8 -33
101 101 -88 -102 -32 53 3 -42
-54 -57 90 22 -80 105 -92 22
18 87 -100 -105 67 -31 127 -74
-48 -91 -33 -121 30 -87 -92 117
18 90 -49 -16 -73 45 106 -43
-96 -73 -81 34 -46 63 58 -10
50 -65 -67 -55 87 101 -40 10
36 82 -80 -100 -52 -78 -127 -58
23 -92 -61 14 62 98 4 -47
30 -4 -52 -30 70 -62 -16 -81
-60 -13 -60 -87 -97 -30 -10 -9
127 61 -33 67 54 -53 -14 73
37 84 -78 22 63 -71 -20 34

model_32/tf.compat.v1.nn.depthwise_conv2d_42/depthwise i1 [1, 3, 3, 16]
00000000: 5d5f 7081 67d2 e3ee 3b17 81f3 497f 8181
00000010: 3753 e84c ca2e de82 f515 3955 e84e 110f
00000020: 725b aa1e 8164 2281 813c 522b 75a9 ccd7
00000030: c235 0997 51ba bae8 f507 8e96 3327 0147
00000040: 02e6 65b5 30f1 24e3 c8dd 30ec 138a 51d4
00000050: 2a77 8fc1 06b1 7f7f fdf9 ff4e 7f64 b12b
00000060: e181 2995 ab7f c6f2 a27f e8de d653 b334
00000070: 81b4 a8f6 06a2 6b86 e95d 4181 6dea b382
00000080: 45ff 8153 9540 2241 b97c d596 f018 2bd2
93 95 112 -127 103 -46 -29 -18
59 23 -127 -13 73 127 -127 -127
55 83 -24 76 -54 46 -34 -126
-11 21 57 85 -24 78 17 15
114 91 -86 30 -127 100 34 -127
-127 60 82 43 117 -87 -52 -41
-62 53 9 -105 81 -70 -70 -24
-11 7 -114 -106 51 39 1 71
2 -26 101 -75 48 -15 36 -29
-56 -35 48 -20 19 -118 81 -44
42 119 -113 -63 6 -79 127 127
-3 -7 -1 78 127 100 -79 43
-31 -127 41 -107 -85 127 -58 -14
-94 127 -24 -34 -42 83 -77 52
-127 -76 -88 -10 6 -94 107 -122
-23 93 65 -127 109 -22 -77 -126
69 -1 -127 83 -107 64 34 65
-71 124 -43 -106 -16 24 43 -46

model_32/tf.nn.convolution_56/convolution i1 [16, 1, 1, 192]
00000000: e03b 1a1f ff44 0713 e344 d3fa c2f0 ffae
00000010: 3a37 fb42 ec13 26ff ecf6 b325 e8ca 071c
00000020: d8e5 2b10 cfd8 afb0 13f1 ebea 38fc ee41
00000030: 29df c61c f9f6 062a fce1 4430 f0cb d8e1
00000040: e432 3706 e6ff b3e8 37ba 0623 1516 f1bf
00000050: f4d0 c14f 00fb 5413 e622 0243 09c6 31a2
00000060: e9e9 f8b3 26c8 22df 073e 0423 f419 abbb
00000070: c906 a7e4 0ac2 e0e6 c147 29d5 57fd de0a
00000080: 0ec9 e92f f516 7f01 5408 e542 f17f aabb
00000090: fb68 cff5 fe06 bbd6 6126 3caa c437 e1c6
000000a0: 2d37 ff39 1713 41f9 f1df 082a f9da ebf9
000000b0: c01c f8cc 0630 561d 8b26 5536 c306 b6ea
000000c0: 27fc 14b9 fcf8 3500 1be0 101e b9ca b8c8
000000d0: cd2e 47f5 b334 2b29 8f34 db29 22d1 fad3
000000e0: 24d6 b3d0 f12f 0aec e839 d64f 0efe 1b15
000000f0: aff9 e4cc 05b8 35d5 afef 15bd bdd2 1ef1
-32 59 26 31 -1 68 7 19
-29 68 -45 -6 -62 -16 -1 -82
58 55 -5 66 -20 19 38 -1
-20 -10 -77 37 -24 -54 7 28
-40 -27 43 16 -49 -40 -81 -80
19 -15 -21 -22 56 -4 -18 65
41 -33 -58 28 -7 -10 6 42
-4 -31 68 48 -16 -53 -40 -31
-28 50 55 6 -26 -1 -77 -24
55 -70 6 35 21 22 -15 -65
-12 -48 -63 79 0 -5 84 19
-26 34 2 67 9 -58 49 -94
-23 -23 -8 -77 38 -56 34 -33
7 62 4 35 -12 25 -85 -69
-55 6 -89 -28 10 -62 -32 -26
-63 71 41 -43 87 -3 -34 10
14 -55 -23 47 -11 22 127 1
84 8 -27 66 -15 127 -86 -69
-5 104 -49 -11 -2 6 -69 -42
97 38 60 -86 -60 55 -31 -58
45 55 -1 57 23 19 65 -7
-15 -33 8 42 -7 -38 -21 -7
-64 28 -8 -52 6 48 86 29
-117 38 85 54 -61 6 -74 -22
39 -4 20 -71 -4 -8 53 0
27 -32 16 30 -71 -54 -72 -56
-51 46 71 -11 -77 52 43 41
-113 52 -37 41 34 -47 -6 -45
36 -42 -77 -48 -15 47 10 -20
-24 57 -42 79 14 -2 27 21
-81 -7 -28 -52 5 -72 53 -43
-81 -17 21 -67 -67 -46 30 -15

model_32/tf.compat.v1.nn.depthwise_conv2d_41/depthwise i1 [1, 3, 3, 96]
00000000: de2f 7ffe 73b8 b8a1 762e 7fa1 7ff6 44d9
00000010: 4673 22f6 54c7 818b 818b c47f d3fd 58f2
00000020: d17f a5cb fb9a 0e31 bb95 6edd fd7f 5a84
00000030: c187 51cc ddc7 e265 5596 cedc 9d8d b287
00000040: 37f4 7f6c a7d0 81c9 5d03 8135 5abd 7072
00000050: ba27 9591 1b3b 7f66 4d9e c984 0a42 f2db
00000060: 1ad9 745f 1745 896a bd98 1069 1ae9 a261
00000070: e5be 04ec 81a3 17c2 a581 d5b0 bc9b 9186
00000080: 3cf4 a3f1 3651 3770 1289 b091 c0da 98c6
00000090: 2b52 7f30 aa05 f5d2 7f8f 81ab c8d5 73d1
000000a0: 9f7e 52a3 0eac 1f7f ee44 ac1c d09c 96ae
000000b0: 4016 7f18 4c8f c1c1 49b8 524a ad6d 6ecc
000000c0: f8d1 223f 093a 8b81 8bb7 1113 77cd 1454
000000d0: 5472 affd 9634 ecdc 396f 9c8c 0fa0 81ca
000000e0: 6e6d 474c 638b 8973 8e58 e58a 2ee2 75ec
000000f0: f281 825c ac35 5560 ea55 81df 7f7f 127f
-34 47 127 -2 115 -72 -72 -95
118 46 127 -95 127 -10 68 -39
70 115 34 -10 84 -57 -127 -117
-127 -117 -60 127 -45 -3 88 -14
-47 127 -91 -53 -5 -102 14 49
-69 -107 110 -35 -3 127 90 -124
-63 -121 81 -52 -35 -57 -30 101
85 -106 -50 -36 -99 -115 -78 -121
55 -12 127 108 -89 -48 -127 -55
93 3 -127 53 90 -67 112 114
-70 39 -107 -111 27 59 127 102
77 -98 -55 -124 10 66 -14 -37
26 -39 116 95 23 69 -119 106
-67 -104 16 105 26 -23 -94 97
-27 -66 4 -20 -127 -93 23 -62
-91 -127 -43 -80 -68 -101 -111 -122
60 -12 -93 -15 54 81 55 112
18 -119 -80 -111 -64 -38 -104 -58
43 82 127 48 -86 5 -11 -46
127 -113 -127 -85 -56 -43 115 -47
-97 126 82 -93 14 -84 31 127
-18 68 -84 28 -48 -100 -106 -82
64 22 127 24 76 -113 -63 -63
73 -72 82 74 -83 109 110 -52
-8 -47 34 63 9 58 -117 -127
-117 -73 17 19 119 -51 20 84
84 114 -81 -3 -106 52 -20 -36
57 111 -100 -116 15 -96 -127 -54
110 109 71 76 99 -117 -119 115
-114 88 -27 -118 46 -30 117 -20
-14 -127 -126 92 -84 53 85 96
-22 85 -127 -33 127 127 18 127

model_32/tf.nn.convolution_55/convolution i1 [96, 1, 1, 32]
00000000: 4d3f 2843 d400 ce16 4f5e cef5 6efd 2f07
00000010: 8a47 077f e9cd f6e5 489b 3de5 c414 169f
00000020: f750 ca19 d770 1581 883e 0045 ff88 a834
00000030: 6a5f 35cc b161 ce3b 9165 99be f24a ead7
00000040: 3eb8 a921 d202 425e de55 c42b aed6 c3ea
00000050: 091e 26cc 04f4 e0e6 c781 e43a a13d c832
00000060: 2857 1d62 e6f8 1d5e 6d81 498a 64a9 1f9f
00000070: a61a 1e42 5fd6 a03e 371f f63f c5dd 20f2
00000080: ccff 1c59 7081 8d42 22a3 0cd5 47be eee5
00000090: 73d3 147b f7a5 754f ba99 ca29 0e1c 9f38
000000a0: f949 d1dc 5208 49c2 76b8 cf39 89bd f7a7
000000b0: 4e2f 1221 953b d8ff a87f 9d4c 14d6 600c
000000c0: 1f83 513e 962c 4602 22fe 2ca6 0b2d f31b
000000d0: 28ba 811a 9e52 7c68 3991 0c60 3c69 05f8
000000e0: 6b12 8bff 1056 4a10 ee8b 8fd8 1a6e 3d6b
000000f0: 2aa8 278e ba8c 5209 7f94 43e4 73ae 29f4
77 63 40 67 -44 0 -50 22
79 94 -50 -11 110 -3 47 7
-118 71 7 127 -23 -51 -10 -27
72 -101 61 -27 -60 20 22 -97
-9 80 -54 25 -41 112 21 -127
-120 62 0 69 -1 -120 -88 52
106 95 53 -52 -79 97 -50 59
-111 101 -103 -66 -14 74 -22 -41
62 -72 -87 33 -46 2 66 94
-34 85 -60 43 -82 -42 -61 -22
9 30 38 -52 4 -12 -32 -26
-57 -127 -28 58 -95 61 -56 50
40 87 29 98 -26 -8 29 94
109 -127 73 -118 100 -87 31 -97
-90 26 30 66 95 -42 -96 62
55 31 -10 63 -59 -35 32 -14
-52 -1 28 89 112 -127 -115 66
34 -93 12 -43 71 -66 -18 -27
115 -45 20 123 -9 -91 117 79
-70 -103 -54 41 14 28 -97 56
-7 73 -47 -36 82 8 73 -62
118 -72 -49 57 -119 -67 -9 -89
78 47 18 33 -107 59 -40 -1
-88 127 -99 76 20 -42 96 12
31 -125 81 62 -106 44 70 2
34 -2 44 -90 11 45 -13 27
40 -70 -127 26 -98 82 124 104
57 -111 12 96 60 105 5 -8
107 18 -117 -1 16 86 74 16
-18 -117 -113 -40 26 110 61 107
42 -88 39 -114 -70 -116 82 9
127 -108 67 -28 115 -82 41 -12

model_32/tf.compat.v1.nn.depthwise_conv2d_40/depthwise i1 [1, 3, 3, 16]
00000000: 40d2 6e8e 81ed 9f7b 496e 9ecb 7415 581e
00000010: 3081 2099 85e7 b67a 104e bb48 9333 9b62
00000020: f508 8b24 c6e5 340e 20b6 bf92 1c21 7fd1
00000030: 9574 4681 d0bd 0902 d85b ce99 1fda b1bd
00000040: 84d0 13c1 4f61 0581 b295 7f6c 4f9e cee3
00000050: b17f 8937 a5a8 afd2 3881 227f 5a63 2461
00000060: 3662 6470 8230 7f66 3f69 59f2 95c8 9081
00000070: 147b 8161 ea42 15ba 35c4 cb59 7f1a e6ee
00000080: 816d cd90 a681 9a88 7f47 00d5 9a7f c50c
64 -46 110 -114 -127 -19 -97 123
73 110 -98 -53 116 21 88 30
48 -127 32 -103 -123 -25 -74 122
16 78 -69 72 -109 51 -101 98
-11 8 -117 36 -58 -27 52 14
32 -74 -65 -110 28 33 127 -47
-107 116 70 -127 -48 -67 9 2
-40 91 -50 -103 31 -38 -79 -67
-124 -48 19 -63 79 97 5 -127
-78 -107 127 108 79 -98 -50 -29
-79 127 -119 55 -91 -88 -81 -46
56 -127 34 127 90 99 36 97
54 98 100 112 -126 48 127 102
63 105 89 -14 -107 -56 -112 -127
20 123 -127 97 -22 66 21 -70
53 -60 -53 89 127 26 -26 -18
-127 109 -51 -112 -90 -127 -102 -120
127 71 0 -43 -102 127 -59 12

model_32/tf.nn.convolution_54/convolution i1 [16, 1, 1, 192]
00000000: 4914 b030 2b12 f2d9 b7c7 e018 2a14 d21c
00000010: 161c d6e1 e9ce f402 9eec 3ae6 dcd4 3a45
00000020: 05f7 131c ceec e70d f44e 0211 1914 0bdd
00000030: 4532 04e5 ffd5 2732 19f4 3a2a d1f2 f118
00000040: ffd8 e2ea ce13 def1 ecff c0fb ce48 9ef7
00000050: cd0e e952 30f2 4e0d 2fe3 04e7 22e3 f912
00000060: 2803 1821 15a4 ee0c 56dc bcc2 29ae 1505
00000070: 38d7 2c36 e97f 124f 081e c085 ec95 3aeb
00000080: d4f6 2c09 c7bf 13ae f7ec d0d7 c9d7 50e5
00000090: dd46 150b 9c06 d3dd 10fa fecf a660 d53d
000000a0: 0c56 1b03 2036 3a31 ffc6 2921 b04b efe3
000000b0: f541 c9bf db0c 46e1 25f1 330c e007 123b
000000c0: 0d08 192a ec26 e6fa 10f9 e8f1 0222 f423
000000d0: 1d22 e115 f2ee 25f7 09df 0d08 1f1b 01eb
000000e0: 06fb 0ee4 33e4 1f17 1516 f71f f7d7 fd0b
000000f0: 05d0 ef0a 160d 11e2 e211 d6f3 03e2 f917
73 20 -80 48 43 18 -14 -39
-73 -57 -32 24 42 20 -46 28
22 28 -42 -31 -23 -50 -12 2
-98 -20 58 -26 -36 -44 58 69
5 -9 19 28 -50 -20 -25 13
-12 78 2 17 25 20 11 -35
69 50 4 -27 -1 -43 39 50
25 -12 58 42 -47 -14 -15 24
-1 -40 -30 -22 -50 19 -34 -15
-20 -1 -64 -5 -50 72 -98 -9
-51 14 -23 82 48 -14 78 13
47 -29 4 -25 34 -29 -7 18
40 3 24 33 21 -92 -18 12
86 -36 -68 -62 41 -82 21 5
56 -41 44 54 -23 127 18 79
8 30 -64 -123 -20 -107 58 -21
-44 -10 44 9 -57 -65 19 -82
-9 -20 -48 -41 -55 -41 80 -27
-35 70 21 11 -100 6 -45 -35
16 -6 -2 -49 -90 96 -43 61
12 86 27 3 32 54 58 49
-1 -58 41 33 -80 75 -17 -29
-11 65 -55 -65 -37 12 70 -31
37 -15 51 12 -32 7 18 59
13 8 25 42 -20 38 -26 -6
16 -7 -24 -15 2 34 -12 35
29 34 -31 21 -14 -18 37 -9
9 -33 13 8 31 27 1 -21
6 -5 14 -28 51 -28 31 23
21 22 -9 31 -9 -41 -3 11
5 -48 -17 10 22 13 17 -30
-30 17 -42 -13 3 -30 -7 23

model_32/tf.compat.v1.nn.depthwise_conv2d_39/depthwise i1 [1, 3, 3, 96]
00000000: 44a0 2e32 a87f 5081 6933 8120 cd9a 39a4
00000010: 7fa5 166f 81b2 4655 8640 e22c f67f 4c13
00000020: c2c8 5932 7feb 4898 e681 cb53 0d1a 6ff6
00000030: 3765 6342 92aa 7f26 ba7f 0021 207f 3981
00000040: 816f 7f4a 182b 81ca 2e17 bac1 72a6 7f30
00000050: c4bb ed03 a281 74c7 81b8 c331 7fd9 435c
00000060: a779 51ee 7f00 7f9e 3a86 ac6f b09f ae2e
00000070: 6b8d 353a 8317 a5e8 8130 5502 6f52 8181
00000080: 6dc8 5801 fd52 0381 cd5e da7f c3f3 6164
00000090: 414f 7f40 8d81 7370 3479 f1ff 0a31 c9b6
000000a0: fd4a c466 a9b8 8703 8fc2 8181 4cb8 e87f
000000b0: c87a 304c 7f2f 3231 fc65 bff1 06f8 fc7f
000000c0: bec1 3e88 c249 470b fd2b 0cc6 f7e8 b5ba
000000d0: 5022 ff2d af0d af43 db13 f305 384c 3cf4
000000e0: 7f1f 98a5 a084 5f9e 4c8b 4f3b f087 a67f
000000f0: 5502 8a7f 50f9 3da4 b901 6519 8121 93f1
68 -96 46 50 -88 127 80 -127
105 51 -127 32 -51 -102 57 -92
127 -91 22 111 -127 -78 70 85
-122 64 -30 44 -10 127 76 19
-62 -56 89 50 127 -21 72 -104
-26 -127 -53 83 13 26 111 -10
55 101 99 66 -110 -86 127 38
-70 127 0 33 32 127 57 -127
-127 111 127 74 24 43 -127 -54
46 23 -70 -63 114 -90 127 48
-60 -69 -19 3 -94 -127 116 -57
-127 -72 -61 49 127 -39 67 92
-89 121 81 -18 127 0 127 -98
58 -122 -84 111 -80 -97 -82 46
107 -115 53 58 -125 23 -91 -24
-127 48 85 2 111 82 -127 -127
109 -56 88 1 -3 82 3 -127
-51 94 -38 127 -61 -13 97 100
65 79 127 64 -115 -127 115 112
52 121 -15 -1 10 49 -55 -74
-3 74 -60 102 -87 -72 -121 3
-113 -62 -127 -127 76 -72 -24 127
-56 122 48 76 127 47 50 49
-4 101 -65 -15 6 -8 -4 127
-66 -63 62 -120 -62 73 71 11
-3 43 12 -58 -9 -24 -75 -70
80 34 -1 45 -81 13 -81 67
-37 19 -13 5 56 76 60 -12
127 31 -104 -91 -96 -124 95 -98
76 -117 79 59 -16 -121 -90 127
85 2 -118 127 80 -7 61 -92
-71 1 101 25 -127 33 -109 -15

model_32/tf.nn.convolution_53/convolution i1 [96, 1, 1, 32]
00000000: 9dd3 3c01 de44 f82f 3e0b ebcd f3d9 4820
00000010: 1c06 bcc4 bd08 98b8 fb49 ab7f 6d30 39c3
00000020: 6c60 4dba 07cf 4fb8 e04e 01aa a4bc 3d65
00000030: d4ec 897f b863 0c14 8761 1ef3 b56e b263
00000040: 75af 1344 f204 1a5f 9b46 e32f 19cb d65b
00000050: 7f8f b3c6 3f0b 8499 a503 4ccd 18ff 4524
00000060: d6eb fd43 fbb6 4eb3 ed5b cc33 c98b bfaf
00000070: fec0 8c3b 552d e34d ff00 cf7f d0c8 7387
00000080: cbe5 3a9c 317f 46aa e7bb a99e b32a 3101
00000090: de1d fc9d 3854 e3e2 2d17 e4f7 7117 92ba
000000a0: 1235 272d a057 65ee 4d45 99b4 b46f 9f34
000000b0: 0b2c 7fb1 39f3 dad2 ac4f 8fb1 e5e0 4c53
000000c0: 5418 04ae a636 3fc3 33e6 3b33 0661 1249
000000d0: 1ebe fe4a dc73 486e eee8 8781 05b1 6ddf
000000e0: d9a0 ddcc 7f94 86fa d1cf 1d27 ec23 a6da
000000f0: 4fd1 3665 16ed 3939 49b1 b7b2 cf38 143e
-99 -45 60 1 -34 68 -8 47
62 11 -21 -51 -13 -39 72 32
28 6 -68 -60 -67 8 -104 -72
-5 73 -85 127 109 48 57 -61
108 96 77 -70 7 -49 79 -72
-32 78 1 -86 -92 -68 61 101
-44 -20 -119 127 -72 99 12 20
-121 97 30 -13 -75 110 -78 99
117 -81 19 68 -14 4 26 95
-101 70 -29 47 25 -53 -42 91
127 -113 -77 -58 63 11 -124 -103
-91 3 76 -51 24 -1 69 36
-42 -21 -3 67 -5 -74 78 -77
-19 91 -52 51 -55 -117 -65 -81
-2 -64 -116 59 85 45 -29 77
-1 0 -49 127 -48 -56 115 -121
-53 -27 58 -100 49 127 70 -86
-25 -69 -87 -98 -77 42 49 1
-34 29 -4 -99 56 84 -29 -30
45 23 -28 -9 113 23 -110 -70
18 53 39 45 -96 87 101 -18
77 69 -103 -76 -76 111 -97 52
11 44 127 -79 57 -13 -38 -46
-84 79 -113 -79 -27 -32 76 83
84 24 4 -82 -90 54 63 -61
51 -26 59 51 6 97 18 73
30 -66 -2 74 -36 115 72 110
-18 -24 -121 -127 5 -79 109 -33
-39 -96 -35 -52 127 -108 -122 -6
-47 -49 29 39 -20 35 -90 -38
79 -47 54 101 22 -19 57 57
73 -79 -73 -78 -49 56 20 62

model_32/tf.compat.v1.nn.depthwise_conv2d_38/depthwise i1 [1, 3, 3, 16]
00000000: 2d81 d142 44c5 7f02 71ff fa72 3127 caa4
00000010: 0f10 9e3c 0df0 2f10 f4d6 66ff 947f d061
00000020: eeef 817f 78cd 927f 819c cd7f 814c 8115
00000030: e69e d5db e02d e47e 0781 82a2 49c3 a3c6
00000040: 7f55 52ff 5c7f cacb b6b7 7fcb 97d2 0dfa
00000050: 4a9f f5a4 c04a bb33 c499 8b1f acfb e820
00000060: 0f78 c955 81b2 7d39 e5bc dbf1 fea8 35ba
00000070: ac78 0fc8 1b3f 00c5 8ee0 1df8 a905 74d5
00000080: 0c0a 4fab 953d 8215 d6c3 1c42 2529 757f
45 -127 -47 66 68 -59 127 2
113 -1 -6 114 49 39 -54 -92
15 16 -98 60 13 -16 47 16
-12 -42 102 -1 -108 127 -48 97
-18 -17 -127 127 120 -51 -110 127
-127 -100 -51 127 -127 76 -127 21
-26 -98 -43 -37 -32 45 -28 126
7 -127 -126 -94 73 -61 -93 -58
127 85 82 -1 92 127 -54 -53
-74 -73 127 -53 -105 -46 13 -6
74 -97 -11 -92 -64 74 -69 51
-60 -103 -117 31 -84 -5 -24 32
15 120 -55 85 -127 -78 125 57
-27 -68 -37 -15 -2 -88 53 -70
-84 120 15 -56 27 63 0 -59
-114 -32 29 -8 -87 5 116 -43
12 10 79 -85 -107 61 -126 21
-42 -61 28 66 37 41 117 127

model_32/tf.nn.convolution_52/convolution i1 [16, 1, 1, 192]
00000000: d711 0016 efea cd3b 35dd 13ef a928 faef
00000010: e6c2 3ba1 eade c0f0 1c1e f6c7 9f41 eefc
00000020: 0ed1 beaf 1022 0a0c 1f05 dcdf da1f 0501
00000030: d9ce f915 1527 34bb f616 02f6 d6b6 b6ed
00000040: ec13 0412 eaf2 30c0 d1f0 dfe8 d3c8 20fc
00000050: b2c1 fce6 c3c4 ffa9 fbe8 30d2 fb16 0b0f
00000060: de18 2e29 eae1 f414 4cf8 20f7 e1e7 212b
00000070: 1f15 e930 d7e7 23f1 45e4 d24c f3e9 ebf2
00000080: 2f09 ca0c f944 33dd 0932 fffa 044d 3313
00000090: 1219 244a cd25 e7d5 ac17 2036 e431 9910
000000a0: 3521 e501 1f2b cd0f 09a7 41f9 e027 1346
000000b0: 2859 e6bf ce81 0fdd 1d3a 23f8 0dfe 1415
000000c0: 01e1 b9df ef2e 1eea 381b e7c1 f722 11da
000000d0: f7ed 0eec 4f01 00f0 090c f3e4 cc1c 2af4
000000e0: c412 0bdd e420 e52d 1200 e437 0af6 1a2d
000000f0: 1a0a f028 fe23 f417 e013 db0f fa02 f8a4
-41 17 0 22 -17 -22 -51 59
53 -35 19 -17 -87 40 -6 -17
-26 -62 59 -95 -22 -34 -64 -16
28 30 -10 -57 -97 65 -18 -4
14 -47 -66 -81 16 34 10 12
31 5 -36 -33 -38 31 5 1
-39 -50 -7 21 21 39 52 -69
-10 22 2 -10 -42 -74 -74 -19
-20 19 4 18 -22 -14 48 -64
-47 -16 -33 -24 -45 -56 32 -4
-78 -63 -4 -26 -61 -60 -1 -87
-5 -24 48 -46 -5 22 11 15
-34 24 46 41 -22 -31 -12 20
76 -8 32 -9 -31 -25 33 43
31 21 -23 48 -41 -25 35 -15
69 -28 -46 76 -13 -23 -21 -14
47 9 -54 12 -7 68 51 -35
9 50 -1 -6 4 77 51 19
18 25 36 74 -51 37 -25 -43
-84 23 32 54 -28 49 -103 16
53 33 -27 1 31 43 -51 15
9 -89 65 -7 -32 39 19 70
40 89 -26 -65 -50 -127 15 -35
29 58 35 -8 13 -2 20 21
1 -31 -71 -33 -17 46 30 -22
56 27 -25 -63 -9 34 17 -38
-9 -19 14 -20 79 1 0 -16
9 12 -13 -28 -52 28 42 -12
-60 18 11 -35 -28 32 -27 45
18 0 -28 55 10 -10 26 45
26 10 -16 40 -2 35 -12 23
-32 19 -37 15 -6 2 -8 -92

model_32/tf.compat.v1.nn.depthwise_conv2d_37/depthwise i1 [1, 3, 3, 96]
00000000: 84c2 2681 eb7b a831 47dc df3f 6109 8f8c
00000010: 8144 46db 52c6 4deb 15fc 6dab 6d6f a0a3
00000020: 3b0c 8159 7fd9 cb39 d249 865c b1a3 cfc2
00000030: 5f7d 81ac 0097 7f96 1904 1897 4ed0 1fd6
00000040: 122b fe81 df86 6f1c 7c73 f76b 43c7 1289
00000050: 3d7f e53b 2282 c51d d64d 817f f8bc fe68
00000060: 2ec4 1084 5b4e f93f fb36 274c 7f26 20a5
00000070: f940 59eb e6c2 81bd 4b1b 2342 d356 38ec
00000080: 93fd ff2f bd81 026b dc92 485f 8181 0cf8
00000090: 8981 d3b5 9999 0b12 f2e4 c081 f6e6 9cef
000000a0: 3419 a6ec 82ac 1b7f 6a56 a30f 81ec 3736
000000b0: d056 f9f8 7fe0 e97f 7f9e d32f 8e52 8155
000000c0: af40 646c 571f 50e9 81bc 819e b0f7 1132
000000d0: 69f2 3b8d 7fe0 be99 8f9f 81ad 157f acfd
000000e0: 7fb5 de7e 4e36 7fba fcf4 062b e0c1 b463
000000f0: 811f 49df bf1c ddd0 a695 6526 13fa 8138
-124 -62 38 -127 -21 123 -88 49
71 -36 -33 63 97 9 -113 -116
-127 68 70 -37 82 -58 77 -21
21 -4 109 -85 109 111 -96 -93
59 12 -127 89 127 -39 -53 57
-46 73 -122 92 -79 -93 -49 -62
95 125 -127 -84 0 -105 127 -106
25 4 24 -105 78 -48 31 -42
18 43 -2 -127 -33 -122 111 28
124 115 -9 107 67 -57 18 -119
61 127 -27 59 34 -126 -59 29
-42 77 -127 127 -8 -68 -2 104
46 -60 16 -124 91 78 -7 63
-5 54 39 76 127 38 32 -91
-7 64 89 -21 -26 -62 -127 -67
75 27 35 66 -45 86 56 -20
-109 -3 -1 47 -67 -127 2 107
-36 -110 72 95 -127 -127 12 -8
-119 -127 -45 -75 -103 -103 11 18
-14 -28 -64 -127 -10 -26 -100 -17
52 25 -90 -20 -126 -84 27 127
106 86 -93 15 -127 -20 55 54
-48 86 -7 -8 127 -32 -23 127
127 -98 -45 47 -114 82 -127 85
-81 64 100 108 87 31 80 -23
-127 -68 -127 -98 -80 -9 17 50
105 -14 59 -115 127 -32 -66 -103
-113 -97 -127 -83 21 127 -84 -3
127 -75 -34 126 78 54 127 -70
-4 -12 6 43 -32 -63 -76 99
-127 31 73 -33 -65 28 -35 -48
-90 -107 101 38 19 -6 -127 56

model_32/tf.nn.convolution_51/convolution i1 [96, 1, 1, 32]
00000000: e4ef 83a7 b3aa bf4d 4961 00d5 ab41 9c2c
00000010: eb20 1711 20c0 5755 8149 64ef eecb 2bdd
00000020: 5a03 ba33 95b0 5a19 da72 e24f e000 f9c3
00000030: 4181 16d5 b958 faff 9b36 caa3 f2d7 767f
00000040: 3419 b3a3 d00f 3bed 4e09 fcd6 5f2e 56c7
00000050: 22ca d77f a4f2 1e24 f71d 213b 0c57 cae7
00000060: cc3b d7ad 5b0e 4fb2 d61b 0a12 4fcc ebe7
00000070: ee2b fade 6dff 7759 e5ef 2481 e9d1 21e9
00000080: ceca 01ce 2906 4081 b6c4 ac0d 0d29 35c7
00000090: c625 d4da 4007 fef3 4859 dc3a 0304 4520
000000a0: c909 5633 3af1 eb12 561a effc bba1 44d8
000000b0: acdc e081 e96f 3f54 e317 c630 cffa 4a45
000000c0: 28b2 143e 0c35 43f0 0e3a 6f27 2ae1 344c
000000d0: 3f25 cdd8 e970 52e3 e957 ed7f e99f dafd
000000e0: f6ea 81fe 36a6 adbc 20fb ddca 75a4 a0d0
000000f0: 3504 9ca6 4923 a9f2 45b9 0d1b cd01 4225
-28 -17 -125 -89 -77 -86 -65 77
73 97 0 -43 -85 65 -100 44
-21 32 23 17 32 -64 87 85
-127 73 100 -17 -18 -53 43 -35
90 3 -70 51 -107 -80 90 25
-38 114 -30 79 -32 0 -7 -61
65 -127 22 -43 -71 88 -6 -1
-101 54 -54 -93 -14 -41 118 127
52 25 -77 -93 -48 15 59 -19
78 9 -4 -42 95 46 86 -57
34 -54 -41 127 -92 -14 30 36
-9 29 33 59 12 87 -54 -25
-52 59 -41 -83 91 14 79 -78
-42 27 10 18 79 -52 -21 -25
-18 43 -6 -34 109 -1 119 89
-27 -17 36 -127 -23 -47 33 -23
-50 -54 1 -50 41 6 64 -127
-74 -60 -84 13 13 41 53 -57
-58 37 -44 -38 64 7 -2 -13
72 89 -36 58 3 4 69 32
-55 9 86 51 58 -15 -21 18
86 26 -17 -4 -69 -95 68 -40
-84 -36 -32 -127 -23 111 63 84
-29 23 -58 48 -49 -6 74 69
40 -78 20 62 12 53 67 -16
14 58 111 39 42 -31 52 76
63 37 -51 -40 -23 112 82 -29
-23 87 -19 127 -23 -97 -38 -3
-10 -22 -127 -2 54 -90 -83 -68
32 -5 -35 -54 117 -92 -96 -48
53 4 -100 -90 73 35 -87 -14
69 -71 13 27 -51 1 66 37

model_32/tf.compat.v1.nn.depthwise_conv2d_36/depthwise i1 [1, 3, 3, 16]
00000000: e781 2fa0 e1d5 f6cf 81a8 81f5 7b22 7f19
00000010: b01d 43fa dd3b 72d1 cf66 94b6 0514 39e7
00000020: b667 a2ab 667f 01e4 c373 21e1 654f 9dd2
00000030: a9a2 7f56 9dde 779f ca91 cebe cd0f 0b8d
00000040: 5439 f4f9 8195 2e49 25e5 57fd c816 3d21
00000050: f53d fcd4 5678 8121 9f7f a0a4 277f e2b8
00000060: 8c1c 697f cca3 25bc 0aa6 5c09 7f19 ab3f
00000070: b22e 4f4a 0a3a 25a9 fb7c 7f62 1cc7 a705
00000080: 815d 40a2 5285 e181 18f6 e27f 30ca 4381
-25 -127 47 -96 -31 -43 -10 -49
-127 -88 -127 -11 123 34 127 25
-80 29 67 -6 -35 59 114 -47
-49 102 -108 -74 5 20 57 -25
-74 103 -94 -85 102 127 1 -28
-61 115 33 -31 101 79 -99 -46
-87 -94 127 86 -99 -34 119 -97
-54 -111 -50 -66 -51 15 11 -115
84 57 -12 -7 -127 -107 46 73
37 -27 87 -3 -56 22 61 33
-11 61 -4 -44 86 120 -127 33
-97 127 -96 -92 39 127 -30 -72
-116 28 105 127 -52 -93 37 -68
10 -90 92 9 127 25 -85 63
-78 46 79 74 10 58 37 -87
-5 124 127 98 28 -57 -89 5
-127 93 64 -94 82 -123 -31 -127
24 -10 -30 127 48 -54 67 -127

model_32/tf.nn.convolution_50/convolution i1 [16, 1, 1, 128]
00000000: aaff d4e4 f716 0409 2b15 28f9 1900 09d5
00000010: 3df0 e3e5 5325 d4e8 06c1 d90f 062c 163f
00000020: da21 32ff 1978 1609 31cf 0823 eeef 9314
00000030: d811 23e1 0cce f506 f4c4 ddf6 3d3f 3aff
00000040: 05fc 26d9 ead1 1df4 0309 d4dc 0df2 3ed6
00000050: eebc f20a 1f3d 2700 eb0d 2033 eb21 e4ca
00000060: 2106 9c38 7f1b fe18 2106 f81d c84c 2af0
00000070: 121a 142d e6f4 04f2 f1d0 fdcb 1e28 5fe5
00000080: 1ff8 f014 bfbc 21fa d82a c4d2 f007 f9c5
00000090: 00cd 1034 35a6 04d9 0deb d0ec caff f2f2
000000a0: ef0d 6007 0239 71e0 d0fb e921 c4ce 4614
000000b0: 0f4c ff3f f740 03dd d84c 1dde d027 e302
000000c0: a9f8 3f0f ffe1 fba0 34f8 2be7 21fc 1002
000000d0: e2b7 0a0f 0e45 d4f7 0111 130d f5ff 07f3
000000e0: d516 8102 fceb 022a 27fb 11ce 48fe eb01
000000f0: 0eb9 f147 bac8 e4d3 cfac d20f fb02 2dcf
-86 -1 -44 -28 -9 22 4 9
43 21 40 -7 25 0 9 -43
61 -16 -29 -27 83 37 -44 -24
6 -63 -39 15 6 44 22 63
-38 33 50 -1 25 120 22 9
49 -49 8 35 -18 -17 -109 20
-40 17 35 -31 12 -50 -11 6
-12 -60 -35 -10 61 63 58 -1
5 -4 38 -39 -22 -47 29 -12
3 9 -44 -36 13 -14 62 -42
-18 -68 -14 10 31 61 39 0
-21 13 32 51 -21 33 -28 -54
33 6 -100 56 127 27 -2 24
33 6 -8 29 -56 76 42 -16
18 26 20 45 -26 -12 4 -14
-15 -48 -3 -53 30 40 95 -27
31 -8 -16 20 -65 -68 33 -6
-40 42 -60 -46 -16 7 -7 -59
0 -51 16 52 53 -90 4 -39
13 -21 -48 -20 -54 -1 -14 -14
-17 13 96 7 2 57 113 -32
-48 -5 -23 33 -60 -50 70 20
15 76 -1 63 -9 64 3 -35
-40 76 29 -34 -48 39 -29 2
-87 -8 63 15 -1 -31 -5 -96
52 -8 43 -25 33 -4 16 2
-30 -73 10 15 14 69 -44 -9
1 17 19 13 -11 -1 7 -13
-43 22 -127 2 -4 -21 2 42
39 -5 17 -50 72 -2 -21 1
14 -71 -15 71 -70 -56 -28 -45
-49 -84 -46 15 -5 2 45 -49

model_32/tf.compat.v1.nn.depthwise_conv2d_35/depthwise i1 [1, 3, 3, 128]
00000000: 6aae 9502 4a19 9839 ef4d 3312 81b1 2d27
00000010: 4341 04c9 9706 3f99 a681 99e5 7fa9 81b5
00000020: 2bd2 d159 eab5 f1b0 9be1 f181 adbb af33
00000030: 7fed 831c 938b a887 28ec c3fc 8636 86e6
00000040: 6589 7fb0 817f 2bfa 7fa8 436f 4581 4e4b
00000050: e255 a41a ed1f 5b97 e211 657f 33d5 2044
00000060: 7f81 814e 2e4d edcd 8caa 9de7 c38e feb3
00000070: a877 c4df 41f2 f47f 2e75 5c2c 5d59 3d56
00000080: 49f0 817f 304b df70 09ad cc4d d084 da59
00000090: 7f9e cbf0 e204 7669 ffd0 d245 3383 ed7e
000000a0: 3cef 1794 aee3 8181 816d 1a43 a095 bf7f
000000b0: 2c92 cf2e 1c90 5dce 2c9a 875e b53f 307f
000000c0: 840d d17f dc13 7fa8 f781 6ddf c6b4 cc93
000000d0: 5e87 4352 f6a9 4d8a 06eb 88e0 8156 7fd4
000000e0: fde7 7555 a9af c481 4fba 961c bc47 2a19
000000f0: 4ddb 97bd 1f31 d5dd f7cc f41a 576a 9f2d
106 -82 -107 2 74 25 -104 57
-17 77 51 18 -127 -79 45 39
67 65 4 -55 -105 6 63 -103
-90 -127 -103 -27 127 -87 -127 -75
43 -46 -47 89 -22 -75 -15 -80
-101 -31 -15 -127 -83 -69 -81 51
127 -19 -125 28 -109 -117 -88 -121
40 -20 -61 -4 -122 54 -122 -26
101 -119 127 -80 -127 127 43 -6
127 -88 67 111 69 -127 78 75
-30 85 -92 26 -19 31 91 -105
-30 17 101 127 51 -43 32 68
127 -127 -127 78 46 77 -19 -51
-116 -86 -99 -25 -61 -114 -2 -77
-88 119 -60 -33 65 -14 -12 127
46 117 92 44 93 89 61 86
73 -16 -127 127 48 75 -33 112
9 -83 -52 77 -48 -124 -38 89
127 -98 -53 -16 -30 4 118 105
-1 -48 -46 69 51 -125 -19 126
60 -17 23 -108 -82 -29 -127 -127
-127 109 26 67 -96 -107 -65 127
44 -110 -49 46 28 -112 93 -50
44 -102 -121 94 -75 63 48 127
-124 13 -47 127 -36 19 127 -88
-9 -127 109 -33 -58 -76 -52 -109
94 -121 67 82 -10 -87 77 -118
6 -21 -120 -32 -127 86 127 -44
-3 -25 117 85 -87 -81 -60 -127
79 -70 -106 28 -68 71 42 25
77 -37 -105 -67 31 49 -43 -35
-9 -52 -12 26 87 106 -97 45

model_32/tf.compat.v1.nn.depthwise_conv2d_34/depthwise i1 [1, 3, 3, 64]
00000000: b95d c91e 05b9 2915 6553 5ade a5b8 f446
00000010: 7f38 a3ae 3279 164c 6368 dea4 ce9d 8d28
00000020: 8a96 3381 bd81 a956 7e02 fd7f 6d3b 6b68
00000030: fd7b 6825 79f5 67f6 c781 47ae 7fa6 6d01
00000040: 5a53 0cfe d1f1 7ac9 627f cccf 401b 3d20
00000050: c0e9 46ed f433 07f3 81fa 078b 8496 14e7
00000060: 0753 ff14 138b c2b4 d0a8 c0ab c98e 447b
00000070: e45e cec8 46c7 c7f2 aeae ad81 1391 b41e
00000080: 8d2a 81fb 108e 097f 9669 a981 978b 62ec
00000090: f87f 7989 ed7f 6a7f 6c69 5ed7 bdee 1df3
000000a0: c8e4 c453 9d33 1ae8 b281 7fed 0319 81e6
000000b0: ca38 fa8a 7b10 e9ec c92c 0c23 64dd 65bd
000000c0: 7bde d450 c0ef 814f 4e39 cedc 6281 a27f
000000d0: 4d32 d41a 1725 7fe0 bb29 7f81 107f 5224
000000e0: ad0f 7f08 2a12 dd6b 7fba 0c3e 3f90 894c
000000f0: f633 99fb fd2a d206 2f2f 5ea0 0bc8 7f78
-71 93 -55 30 5 -71 41 21
101 83 90 -34 -91 -72 -12 70
127 56 -93 -82 50 121 22 76
99 104 -34 -92 -50 -99 -115 40
-118 -106 51 -127 -67 -127 -87 86
126 2 -3 127 109 59 107 104
-3 123 104 37 121 -11 103 -10
-57 -127 71 -82 127 -90 109 1
90 83 12 -2 -47 -15 122 -55
98 127 -52 -49 64 27 61 32
-64 -23 70 -19 -12 51 7 -13
-127 -6 7 -117 -124 -106 20 -25
7 83 -1 20 19 -117 -62 -76
-48 -88 -64 -85 -55 -114 68 123
-28 94 -50 -56 70 -57 -57 -14
-82 -82 -83 -127 19 -111 -76 30
-115 42 -127 -5 16 -114 9 127
-106 105 -87 -127 -105 -117 98 -20
-8 127 121 -119 -19 127 106 127
108 105 94 -41 -67 -18 29 -13
-56 -28 -60 83 -99 51 26 -24
-78 -127 127 -19 3 25 -127 -26
-54 56 -6 -118 123 16 -23 -20
-55 44 12 35 100 -35 101 -67
123 -34 -44 80 -64 -17 -127 79
78 57 -50 -36 98 -127 -94 127
77 50 -44 26 23 37 127 -32
-69 41 127 -127 16 127 82 36
-83 15 127 8 42 18 -35 107
127 -70 12 62 63 -112 -119 76
-10 51 -103 -5 -3 42 -46 6
47 47 94 -96 11 -56 127 120

model_32/tf.nn.convolution_48/convolution i1 [64, 1, 1, 32]
00000000: b44b f93d f0b2 3f08 0663 6830 2ee6 ccd6
00000010: 0f28 0c46 6825 d509 0c13 f063 9f81 dd6a
00000020: 7f23 44a9 afd8 1147 1a32 48af 0fdb 96b5
00000030: ad04 2717 bc24 6717 f6ec 3fe0 2c4e c0e0
00000040: 17c6 58e5 18b8 2244 5404 5cc3 2d14 f931
00000050: 65d9 1181 29b6 9563 0ccc a13a 6dc7 1146
00000060: e2f5 dc2b 3be4 69cd d021 2b39 00b5 1203
00000070: b4cc bbb0 e1ce bce6 491f ff0a ed7f 44fc
00000080: b5fc 4611 4e96 f50f 2881 2e52 baf9 c1fc
00000090: 34e2 52af 2fbb a7d0 d70c 09db 8146 a9d0
000000a0: 3834 c791 3126 e0fe 015e e932 7828 6ef5
000000b0: c481 61f9 d25a d4c7 40d9 e794 3834 6bd4
000000c0: 496e 6b11 6c04 17f4 01c7 5b7f 9570 cde3
000000d0: 4507 f573 198f 29be 2abd 07f9 a830 2d4d
000000e0: 5dfc af10 f628 1f4d 531f 307f 10a8 a835
000000f0: fb7c ab41 dc32 56d0 6131 a016 66d8 4536
-76 75 -7 61 -16 -78 63 8
6 99 104 48 46 -26 -52 -42
15 40 12 70 104 37 -43 9
12 19 -16 99 -97 -127 -35 106
127 35 68 -87 -81 -40 17 71
26 50 72 -81 15 -37 -106 -75
-83 4 39 23 -68 36 103 23
-10 -20 63 -32 44 78 -64 -32
23 -58 88 -27 24 -72 34 68
84 4 92 -61 45 20 -7 49
101 -39 17 -127 41 -74 -107 99
12 -52 -95 58 109 -57 17 70
-30 -11 -36 43 59 -28 105 -51
-48 33 43 57 0 -75 18 3
-76 -52 -69 -80 -31 -50 -68 -26
73 31 -1 10 -19 127 68 -4
-75 -4 70 17 78 -106 -11 15
40 -127 46 82 -70 -7 -63 -4
52 -30 82 -81 47 -69 -89 -48
-41 12 9 -37 -127 70 -87 -48
56 52 -57 -111 49 38 -32 -2
1 94 -23 50 120 40 110 -11
-60 -127 97 -7 -46 90 -44 -57
64 -39 -25 -108 56 52 107 -44
73 110 107 17 108 4 23 -12
1 -57 91 127 -107 112 -51 -29
69 7 -11 115 25 -113 41 -66
42 -67 7 -7 -88 48 45 77
93 -4 -81 16 -10 40 31 77
83 31 48 127 16 -88 -88 53
-5 124 -85 65 -36 50 86 -48
97 49 -96 22 102 -40 69 54

model_32/tf.nn.convolution_49/convolution i1 [32, 1, 1, 32]
00000000: a83e 23cc 035c fb5d be81 1443 a7db 0a66
00000010: a0c5 c653 ca6f 00e2 9a1a 47ae 291e 0fd2
00000020: f5e2 2728 fcbc 5910 083a f811 dcce fa1a
00000030: a4cb b3cf bab5 afe0 1945 c0b2 81f6 530c
00000040: 25d7 100c d88e bf4a b6ae e60a 1b40 180f
00000050: ee9f c6f0 a697 a17f 37fe 2e24 1800 3cb7
00000060: bdd1 4005 ccd8 81e2 330c b732 0e2d bfee
00000070: 2c03 3453 e10b 64e2 d169 b410 ba21 6b00
00000080: efc4 d0d2 094f aa17 f6bf b349 3873 bd17
00000090: 170e d9ab 6a37 c443 b8ef b7d7 3a3d 81a8
000000a0: 7f37 2a4b dbff 473a aaf1 cd8d 1e5e 4ceb
000000b0: 93bf 4997 623e 4ad7 360f 29ef 6837 50f7
000000c0: 4435 3333 68e7 0f1e 20d0 eb2c ee29 16e6
000000d0: daf4 5cd9 2c7f dd37 21c2 fee1 f2fd c8af
000000e0: 1a16 a6df 1f81 e815 00e1 0aff bdac a4ca
000000f0: d7ba 5311 ad59 e21a d1d9 3ffc d0ab 9a2b
-88 62 35 -52 3 92 -5 93
-66 -127 20 67 -89 -37 10 102
-96 -59 -58 83 -54 111 0 -30
-102 26 71 -82 41 30 15 -46
-11 -30 39 40 -4 -68 89 16
8 58 -8 17 -36 -50 -6 26
-92 -53 -77 -49 -70 -75 -81 -32
25 69 -64 -78 -127 -10 83 12
37 -41 16 12 -40 -114 -65 74
-74 -82 -26 10 27 64 24 15
-18 -97 -58 -16 -90 -105 -95 127
55 -2 46 36 24 0 60 -73
-67 -47 64 5 -52 -40 -127 -30
51 12 -73 50 14 45 -65 -18
44 3 52 83 -31 11 100 -30
-47 105 -76 16 -70 33 107 0
-17 -60 -48 -46 9 79 -86 23
-10 -65 -77 73 56 115 -67 23
23 14 -39 -85 106 55 -60 67
-72 -17 -73 -41 58 61 -127 -88
127 55 42 75 -37 -1 71 58
-86 -15 -51 -115 30 94 76 -21
-109 -65 73 -105 98 62 74 -41
54 15 41 -17 104 55 80 -9
68 53 51 51 104 -25 15 30
32 -48 -21 44 -18 41 22 -26
-38 -12 92 -39 44 127 -35 55
33 -62 -2 -31 -14 -3 -56 -81
26 22 -90 -33 31 -127 -24 21
0 -31 10 -1 -67 -84 -92 -54
-41 -70 83 17 -83 89 -30 26
-47 -39 63 -4 -48 -85 -102 43

model_32/tf.compat.v1.nn.depthwise_conv2d_33/depthwise i1 [1, 3, 3, 32]
00000000: 28de a7fd 62a4 818e 61aa 7f33 d91a 69e4
00000010: b3bd d65c 2bfb 512d 99ff 3a6d a7f5 8fb5
00000020: 4cf7 77a4 c4b0 2a81 3ca4 e4f3 c1f7 b95d
00000030: 3181 16e1 4a57 167f ee47 8137 4686 97ab
00000040: 427f 1e94 5f2e df34 c1a7 9644 8dbc 81dd
00000050: 4b4c 7fd2 d02d 3d34 ac16 0516 e2f3 40c0
00000060: e3b9 42af eeb5 fb07 0863 22d9 1fa7 c04f
00000070: 4da5 0cfa 2927 f3c3 ed37 1e7f db4e a12e
00000080: d7a8 2f81 d00c a858 f97e 073b 8139 0724
00000090: fc36 a8e4 697f efa0 c549 495d c7bf 00df
000000a0: 7f1e 261f 7f5f 9b0b 487f e2dc e7d5 e408
000000b0: 7f0f 239b 420f d9f9 47c2 8b05 0ae4 c150
000000c0: 18c1 8351 f6b0 c19b 74a5 8d7f 31cb df95
000000d0: 92d8 f14b 25d8 26a0 02e2 048e 3b7f a881
000000e0: 86bc 81d3 6081 9d35 cb7f 0d12 b981 f281
000000f0: 02eb 9a7f 2fa7 07c1 7f7f ffee c03e ac1f
40 -34 -89 -3 98 -92 -127 -114
97 -86 127 51 -39 26 105 -28
-77 -67 -42 92 43 -5 81 45
-103 -1 58 109 -89 -11 -113 -75
76 -9 119 -92 -60 -80 42 -127
60 -92 -28 -13 -63 -9 -71 93
49 -127 22 -31 74 87 22 127
-18 71 -127 55 70 -122 -105 -85
66 127 30 -108 95 46 -33 52
-63 -89 -106 68 -115 -68 -127 -35
75 76 127 -46 -48 45 61 52
-84 22 5 22 -30 -13 64 -64
-29 -71 66 -81 -18 -75 -5 7
8 99 34 -39 31 -89 -64 79
77 -91 12 -6 41 39 -13 -61
-19 55 30 127 -37 78 -95 46
-41 -88 47 -127 -48 12 -88 88
-7 126 7 59 -127 57 7 36
-4 54 -88 -28 105 127 -17 -96
-59 73 73 93 -57 -65 0 -33
127 30 38 31 127 95 -101 11
72 127 -30 -36 -25 -43 -28 8
127 15 35 -101 66 15 -39 -7
71 -62 -117 5 10 -28 -63 80
24 -63 -125 81 -10 -80 -63 -101
116 -91 -115 127 49 -53 -33 -107
-110 -40 -15 75 37 -40 38 -96
2 -30 4 -114 59 127 -88 -127
-122 -68 -127 -45 96 -127 -99 53
-53 127 13 18 -71 -127 -14 -127
2 -21 -102 127 47 -89 7 -63
127 127 -1 -18 -64 62 -84 31

model_32/tf.nn.convolution_47/convolution i1 [32, 1, 1, 64]
00000000: e100 304c 06f5 ffa9 c881 0a1d de14 db3e
00000010: d8c5 f9ef 25e1 ddf9 e301 ec3e f63f b626
00000020: b7e4 01d3 1315 ece4 10e0 f4ee ffde eaec
00000030: c6f2 39d8 26f7 4016 480a 20f5 fbf2 75c9
00000040: 23ff f90e 1de8 eef0 dbf0 fb0f 070c 1e26
00000050: 0c2e f802 fe13 e2e5 cfdf e0c3 11e2 2d4a
00000060: 1141 267f 1fb4 c913 fae2 2917 fcf7 2234
00000070: d643 3410 ec15 ddf7 320f 11d4 ceb0 fbf2
00000080: bdc7 e725 0ad0 0541 e104 010d 111b dbf2
00000090: 0813 18ee f40c 03e8 0cd7 6630 ca32 09dc
000000a0: 4f42 51ad 0d6d cde8 2ae7 49e1 28bb 3fd2
000000b0: 4757 3e07 dc53 14c9 0107 fc33 1b7f 130e
000000c0: c3d2 143e a8dc df75 d6e0 f404 161b f7ba
000000d0: b5a6 d328 d741 f34f 3257 9c81 1cee decc
000000e0: 15c2 e8f8 dd0e ef37 f906 d2af 0902 f2f2
000000f0: c4db b9d2 d3c9 16e8 e3f2 fa2c fcc8 f234
-31 0 48 76 6 -11 -1 -87
-56 -127 10 29 -34 20 -37 62
-40 -59 -7 -17 37 -31 -35 -7
-29 1 -20 62 -10 63 -74 38
-73 -28 1 -45 19 21 -20 -28
16 -32 -12 -18 -1 -34 -22 -20
-58 -14 57 -40 38 -9 64 22
72 10 32 -11 -5 -14 117 -55
35 -1 -7 14 29 -24 -18 -16
-37 -16 -5 15 7 12 30 38
12 46 -8 2 -2 19 -30 -27
-49 -33 -32 -61 17 -30 45 74
17 65 38 127 31 -76 -55 19
-6 -30 41 23 -4 -9 34 52
-42 67 52 16 -20 21 -35 -9
50 15 17 -44 -50 -80 -5 -14
-67 -57 -25 37 10 -48 5 65
-31 4 1 13 17 27 -37 -14
8 19 24 -18 -12 12 3 -24
12 -41 102 48 -54 50 9 -36
79 66 81 -83 13 109 -51 -24
42 -25 73 -31 40 -69 63 -46
71 87 62 7 -36 83 20 -55
1 7 -4 51 27 127 19 14
-61 -46 20 62 -88 -36 -33 117
-42 -32 -12 4 22 27 -9 -70
-75 -90 -45 40 -41 65 -13 79
50 87 -100 -127 28 -18 -34 -52
21 -62 -24 -8 -35 14 -17 55
-7 6 -46 -81 9 2 -14 -14
-60 -37 -71 -46 -45 -55 22 -24
-29 -14 -6 44 -4 -56 -14 52

model_32/tf.nn.convolution_46/convolution i1 [16, 1, 1, 32]
00000000: b726 efc9 1818 3c4c 1e19 81f4 55c8 4e00
00000010: bc30 5612 201e 2f69 52ea 042a 0efd 1af4
00000020: d016 d223 8cfc def4 2d52 bf32 a204 fdd3
00000030: da0a 36e2 fa22 cf0e 95d4 810b 0e1b 3b2a
00000040: da57 8a16 dcda f4d6 a564 0b11 dba7 0281
00000050: fb31 93c5 5938 c2b9 b7f1 eec1 5d3c 5cb4
00000060: 2a1c 1011 2bdb f0c0 f91d ae25 0ce5 1ed9
00000070: 1e1d 313f c881 f919 61cb f0c7 15a3 1481
00000080: de9e d2e9 0b14 0630 ad5f 14d8 3ab4 e9da
00000090: 7a02 fa12 dc36 4c81 3ff9 9e63 63d7 2b27
000000a0: 113f 1622 09d2 e7df 0cf3 07f7 d0cb f31c
000000b0: 7f04 23e4 20cf 2035 7349 b030 574a 144c
000000c0: bc18 f255 3fba a97f 00b8 e81f 29c2 f3eb
000000d0: e46e 0f85 2742 9f5f ee1b 1de1 2dc7 beb2
000000e0: c10b 2c81 7cd0 e303 1a37 b3fa f521 88ff
000000f0: 2b0c a439 21c1 03a4 19e7 1d3b 4319 30f2
-73 38 -17 -55 24 24 60 76
30 25 -127 -12 85 -56 78 0
-68 48 86 18 32 30 47 105
82 -22 4 42 14 -3 26 -12
-48 22 -46 35 -116 -4 -34 -12
45 82 -65 50 -94 4 -3 -45
-38 10 54 -30 -6 34 -49 14
-107 -44 -127 11 14 27 59 42
-38 87 -118 22 -36 -38 -12 -42
-91 100 11 17 -37 -89 2 -127
-5 49 -109 -59 89 56 -62 -71
-73 -15 -18 -63 93 60 92 -76
42 28 16 17 43 -37 -16 -64
-7 29 -82 37 12 -27 30 -39
30 29 49 63 -56 -127 -7 25
97 -53 -16 -57 21 -93 20 -127
-34 -98 -46 -23 11 20 6 48
-83 95 20 -40 58 -76 -23 -38
122 2 -6 18 -36 54 76 -127
63 -7 -98 99 99 -41 43 39
17 63 22 34 9 -46 -25 -33
12 -13 7 -9 -48 -53 -13 28
127 4 35 -28 32 -49 32 53
115 73 -80 48 87 74 20 76
-68 24 -14 85 63 -70 -87 127
0 -72 -24 31 41 -62 -13 -21
-28 110 15 -123 39 66 -97 95
-18 27 29 -31 45 -57 -66 -78
-63 11 44 -127 124 -48 -29 3
26 55 -77 -6 -11 33 -120 -1
43 12 -92 57 33 -63 3 -92
25 -25 29 59 67 25 48 -14

model_32/tf.compat.v1.nn.depthwise_conv2d_32/depthwise i1 [1, 3, 3, 16]
00000000: 1908 b2cb 812a ba23 771b 2433 7fce e773
00000010: 6935 2317 d37f 0981 727f 8736 3ac3 a97f
00000020: 7a1a 81be 27ea da8a d522 1581 0308 8145
00000030: 04a6 16ef 0b33 221f 40d7 1dc0 2f7f d6ee
00000040: 362e 0d3c 2ff6 bfb8 81e9 2be1 b9e8 43f1
00000050: 3b03 0181 f2cc aa17 18ab 1b9b 4904 c9ea
00000060: 9e7f b9f7 9423 0784 5326 5c1d 2844 2ee9
00000070: 8110 e333 c8fa f48b d291 45fb 1a44 2716
00000080: 2855 9ae0 88bd 81eb e697 7fb9 00f7 0ee1
25 8 -78 -53 -127 42 -70 35
119 27 36 51 127 -50 -25 115
105 53 35 23 -45 127 9 -127
114 127 -121 54 58 -61 -87 127
122 26 -127 -66 39 -22 -38 -118
-43 34 21 -127 3 8 -127 69
4 -90 22 -17 11 51 34 31
64 -41 29 -64 47 127 -42 -18
54 46 13 60 47 -10 -65 -72
-127 -23 43 -31 -71 -24 67 -15
59 3 1 -127 -14 -52 -86 23
24 -85 27 -101 73 4 -55 -22
-98 127 -71 -9 -108 35 7 -124
83 38 92 29 40 68 46 -23
-127 16 -29 51 -56 -6 -12 -117
-46 -111 69 -5 26 68 39 22
40 85 -102 -32 -120 -67 -127 -21
-26 -105 127 -71 0 -9 14 -31

model_32/tf.nn.convolution_45/convolution i1 [16, 1, 1, 128]
00000000: 0501 0ffa 2e1d 0ff7 1dff 532b 0c1f dc52
00000010: d1e1 cb11 df1b df19 0504 16e2 01e6 dbbd
00000020: f7f4 fcde 10fd f1ff cd1b 211d 0d14 1323
00000030: d64b 4b49 dce2 15fc 2125 0717 ecef 0f3a
00000040: 24f1 ce26 d308 02ae f93c 6038 ccf1 fbe2
00000050: 12e8 dc16 fc28 b3e0 81a3 5e1d 6285 faa7
00000060: 18fb 09f5 e527 1224 2df9 41b8 2912 b5fb
00000070: edeb 6a03 18dc fe1b 2024 1218 eb03 4814
00000080: 04fa 40f1 f8c0 df0a e91d d8f4 14f2 c9de
00000090: 0f13 a3dd facd edd7 28f9 d4fa 0a00 09f6
000000a0: f307 eb08 da0f 2809 dcf5 ead6 f5fb e6f8
000000b0: d109 0d09 e5f0 372c 3233 11f2 04fe 12f7
000000c0: 01ba 0608 121a f20b e87f ffd7 1901 0b4e
000000d0: e810 0ee7 17ed 37c1 2000 2109 4221 e6ff
000000e0: 39e1 fc24 fef7 25db 5a35 e2bf 0326 17f7
000000f0: 041d e501 05f9 f52a 1d2a cdf1 2412 d6bd
5 1 15 -6 46 29 15 -9
29 -1 83 43 12 31 -36 82
-47 -31 -53 17 -33 27 -33 25
5 4 22 -30 1 -26 -37 -67
-9 -12 -4 -34 16 -3 -15 -1
-51 27 33 29 13 20 19 35
-42 75 75 73 -36 -30 21 -4
33 37 7 23 -20 -17 15 58
36 -15 -50 38 -45 8 2 -82
-7 60 96 56 -52 -15 -5 -30
18 -24 -36 22 -4 40 -77 -32
-127 -93 94 29 98 -123 -6 -89
24 -5 9 -11 -27 39 18 36
45 -7 65 -72 41 18 -75 -5
-19 -21 106 3 24 -36 -2 27
32 36 18 24 -21 3 72 20
4 -6 64 -15 -8 -64 -33 10
-23 29 -40 -12 20 -14 -55 -34
15 19 -93 -35 -6 -51 -19 -41
40 -7 -44 -6 10 0 9 -10
-13 7 -21 8 -38 15 40 9
-36 -11 -22 -42 -11 -5 -26 -8
-47 9 13 9 -27 -16 55 44
50 51 17 -14 4 -2 18 -9
1 -70 6 8 18 26 -14 11
-24 127 -1 -41 25 1 11 78
-24 16 14 -25 23 -19 55 -63
32 0 33 9 66 33 -26 -1
57 -31 -4 36 -2 -9 37 -37
90 53 -30 -65 3 38 23 -9
4 29 -27 1 5 -7 -11 42
29 42 -51 -15 36 18 -42 -67
