application/network_application/eaif_server/models/facereco/mobilefacenet.tflite (tflite, 483776 bytes, 80 tensors)

model/356/Conv2D i1 [32, 3, 3, 3]
000000 3c a1 3a eb a3 35 45 bd 26 0d 92 76 c6 a3 7f 06
       60 -95 58 -21 -93 53 69 -67 38 13 -110 118 -58 -93 127 6
000010 92 41 1c 88 76 ce 8f 72 2d 9f 51 d2 c5 cd 4f 68
       -110 65 28 -120 118 -50 -113 114 45 -97 81 -46 -59 -51 79 104
000020 6a dd d3 ce ca bb be 6b 7f 79 cc c9 c4 f0 eb ed
       106 -35 -45 -50 -54 -69 -66 107 127 121 -52 -55 -60 -16 -21 -19
000030 0a 1b 1c 06 f9 f8 17 f2 07 d0 24 23 cc 1f 24 4a
       10 27 28 6 -7 -8 23 -14 7 -48 36 35 -52 31 36 74
000040 c6 ba 72 2c a9 46 2a e4 e3 e0 0e 1b 7f 4a e6 48
       -58 -70 114 44 -87 70 42 -28 -29 -32 14 27 127 74 -26 72
000050 41 22 3b 9f 05 17 f5 1c 3a 9e f9 6a 9f de 42 ed
       65 34 59 -97 5 23 -11 28 58 -98 -7 106 -97 -34 66 -19
000060 fa 64 a1 1e 55 8a fb 2a d9 25 48 81 15 07 f0 3e
       -6 100 -95 30 85 -118 -5 42 -39 37 72 -127 21 7 -16 62
000070 2c 17 45 20 f4 49 3e 19 7f 60 39 58 21 eb 35 44
       44 23 69 32 -12 73 62 25 127 96 57 88 33 -21 53 68
000080 2a 5f 46 27 44 01 e0 f0 ea ed 07 18 26 f6 f7 fb
       42 95 70 39 68 1 -32 -16 -22 -19 7 24 38 -10 -9 -5
000090 a0 8c 82 7f 74 77 fc 0e 04 ad a4 98 49 4f 51 fd
       -96 -116 -126 127 116 119 -4 14 4 -83 -92 -104 73 79 81 -3
0000a0 0e 0b 00 00 00 00 00 00 00 00 00 00 00 00 00 00
       14 11 0 0 0 0 0 0 0 0 0 0 0 0 0 0
0000b0 00 00 00 00 00 00 00 00 00 00 00 00 00 fa 02 06
       0 0 0 0 0 0 0 0 0 0 0 0 0 -6 2 6
0000c0 0e f7 ef f5 0d 1c da d7 d4 8f 84 81 07 fc fd 2e
       14 -9 -17 -11 13 28 -38 -41 -44 -113 -124 -127 7 -4 -3 46
0000d0 31 33 67 46 48 0e 25 20 00 00 00 00 00 00 00 00
       49 51 103 70 72 14 37 32 0 0 0 0 0 0 0 0
0000e0 00 00 00 00 00 00 00 00 00 00 00 00 00 00 00 00
       0 0 0 0 0 0 0 0 0 0 0 0 0 0 0 0
0000f0 00 00 00 0f 00 f9 0e f8 ec eb f2 ef 33 54 62 45
       0 0 0 15 0 -7 14 -8 -20 -21 -14 -17 51 84 98 69

model/360/FusedBatchNormV3;model/359/depthwise;model/365/depthwise i1 [1, 3, 3, 32]
000000 3d 03 04 15 ed f7 00 0d 00 00 f3 f0 02 fa 01 00
       61 3 4 21 -19 -9 0 13 0 0 -13 -16 2 -6 1 0
000010 00 00 02 02 fa 13 6c 00 e9 01 02 00 fb 07 fd ff
       0 0 2 2 -6 19 108 0 -23 1 2 0 -5 7 -3 -1
000020 d1 e7 20 07 f1 01 00 81 00 07 0b 00 1f 03 00 fd
       -47 -25 32 7 -15 1 0 -127 0 7 11 0 31 3 0 -3
000030 00 00 fd fa db 13 7f 00 0c 27 fc 00 06 06 07 f6
       0 0 -3 -6 -37 19 127 0 12 39 -4 0 6 6 7 -10
000040 3c 0c f4 0e f3 0e 00 11 00 fe fd 11 ff 05 01 00
       60 12 -12 14 -13 14 0 17 0 -2 -3 17 -1 5 1 0
000050 00 00 05 02 00 01 ea 00 ec f4 02 00 ff 03 fd 02
       0 0 5 2 0 1 -22 0 -20 -12 2 0 -1 3 -3 2
000060 de db ea 11 0c 48 00 f6 00 f8 7f 7f 17 75 05 7e
       -34 -37 -22 17 12 72 0 -10 0 -8 127 127 23 117 5 126
000070 00 00 09 f5 08 6e b4 00 f3 13 0a 00 58 11 ee 03
       0 0 9 -11 8 110 -76 0 -13 19 10 0 88 17 -18 3
000080 81 7f 81 81 7f 1a 00 68 00 81 83 11 81 81 7f 81
       -127 127 -127 -127 127 26 0 104 0 -127 -125 17 -127 -127 127 -127
000090 00 00 81 81 7f 66 d4 00 7f 81 fc 00 81 d0 72 8b
       0 0 -127 -127 127 102 -44 0 127 -127 -4 0 -127 -48 114 -117
0000a0 dd ea 23 1a fb 81 00 eb 00 0b fe 87 1e 0a fd ff
       -35 -22 35 26 -5 -127 0 -21 0 11 -2 -121 30 10 -3 -1
0000b0 00 00 02 04 fe f5 fc 00 ec 2c 06 00 12 0c f2 e8
       0 0 2 4 -2 -11 -4 0 -20 44 6 0 18 12 -14 -24
0000c0 18 e2 0d 2c e8 fc 00 fa 00 08 fa 05 0f f6 fa 01
       24 -30 13 44 -24 -4 0 -6 0 8 -6 5 15 -10 -6 1
0000d0 00 00 f6 02 fe 83 d4 00 e7 03 e4 00 0c 25 19 fd
       0 0 -10 2 -2 -125 -44 0 -25 3 -28 0 12 37 25 -3
0000e0 b0 51 0e bc 2c 05 00 09 00 61 ff 01 ec 0b 88 fd
       -80 81 14 -68 44 5 0 9 0 97 -1 1 -20 11 -120 -3
0000f0 00 00 7c ef 07 81 d8 00 46 13 81 00 f2 81 81 7f
       0 0 124 -17 7 -127 -40 0 70 19 -127 0 -14 -127 -127 127

model/362/Conv2D i1 [32, 1, 1, 32]
000000 04 09 e9 fe ff fa 00 01 00 2b 0c 04 fe 00 f5 04
       4 9 -23 -2 -1 -6 0 1 0 43 12 4 -2 0 -11 4
000010 00 00 fd 0d 04 c4 18 00 02 05 03 00 0d 0a fb 81
       0 0 -3 13 4 -60 24 0 2 5 3 0 13 10 -5 -127
000020 4f b9 aa 12 ff e1 00 17 00 f8 cc 8b 8a ef 0d ae
       79 -71 -86 18 -1 -31 0 23 0 -8 -52 -117 -118 -17 13 -82
000030 00 00 ed 08 ce 0d 18 00 da b2 0c 00 81 2c f3 de
       0 0 -19 8 -50 13 24 0 -38 -78 12 0 -127 44 -13 -34
000040 0a d3 35 de d2 14 00 e3 00 97 fb fb e4 ea c7 f1
       10 -45 53 -34 -46 20 0 -29 0 -105 -5 -5 -28 -22 -57 -15
000050 00 00 f4 cb ef 7f 76 00 d8 fd 14 00 d1 ec fa 4f
       0 0 -12 -53 -17 127 118 0 -40 -3 20 0 -47 -20 -6 79
000060 d1 a8 53 07 c8 29 00 20 00 ed f6 10 54 ee 12 ca
       -47 -88 83 7 -56 41 0 32 0 -19 -10 16 84 -18 18 -54
000070 00 00 ed 0d 14 ee f7 00 f9 2f 0c 00 cd 7f c0 1f
       0 0 -19 13 20 -18 -9 0 -7 47 12 0 -51 127 -64 31
000080 f9 e6 fd f7 04 2c 00 c8 00 e4 b9 f8 ff 34 99 01
       -7 -26 -3 -9 4 44 0 -56 0 -28 -71 -8 -1 52 -103 1
000090 00 00 81 de f2 1a f5 00 fd 03 e0 00 d9 ee 23 08
       0 0 -127 -34 -14 26 -11 0 -3 3 -32 0 -39 -18 35 8
0000a0 0a fd 17 00 f6 04 00 c2 00 23 02 04 fa f9 3f f9
       10 -3 23 0 -10 4 0 -62 0 35 2 4 -6 -7 63 -7
0000b0 00 00 fc 2d f3 1d 7f 00 03 18 23 00 fd d9 1e 40
       0 0 -4 45 -13 29 127 0 3 24 35 0 -3 -39 30 64
0000c0 f9 db ff f8 04 28 00 b3 00 e5 a8 03 ff 81 b1 01
       -7 -37 -1 -8 4 40 0 -77 0 -27 -88 3 -1 -127 -79 1
0000d0 00 00 26 e2 eb 13 e3 00 f7 fe e6 00 e4 ef 24 0d
       0 0 38 -30 -21 19 -29 0 -9 -2 -26 0 -28 -17 36 13
0000e0 fc fe f0 00 05 03 00 06 00 a0 05 0e fb fb 81 02
       -4 -2 -16 0 5 3 0 6 0 -96 5 14 -5 -5 -127 2
0000f0 00 00 00 c6 00 f2 41 00 ff f9 af 00 02 f6 df f1
       0 0 0 -58 0 -14 65 0 -1 -7 -81 0 2 -10 -33 -15

model/366/FusedBatchNormV3;model/365/depthwise i1 [1, 3, 3, 32]
000000 d2 30 25 32 cc 1e e3 0e 20 0e e5 15 e7 18 26 da
       -46 48 37 50 -52 30 -29 14 32 14 -27 21 -25 24 38 -38
000010 c9 20 cb e6 e1 47 e1 1a d8 e0 d4 1b d7 d6 36 c3
       -55 32 -53 -26 -31 71 -31 26 -40 -32 -44 27 -41 -42 54 -61
000020 c9 50 71 3f bb 2e bd 19 34 23 cd 20 c9 2a 33 c4
       -55 80 113 63 -69 46 -67 25 52 35 -51 32 -55 42 51 -60
000030 ba 36 ba c8 11 7c b7 32 c8 d6 c1 31 fd c3 58 81
       -70 54 -70 -56 17 124 -73 50 -56 -42 -63 49 -3 -61 88 -127
000040 c8 2e 1b 30 e1 25 cb 13 21 0e e3 17 e4 fa 26 d9
       -56 46 27 48 -31 37 -53 19 33 14 -29 23 -28 -6 38 -39
000050 cd 20 de cd 38 3b c6 1b e1 e7 d8 1a ca da 31 bb
       -51 32 -34 -51 56 59 -58 27 -31 -25 -40 26 -54 -38 49 -69
000060 ac 33 12 59 ae 5b b5 58 43 4a bf 2b a2 53 59 b8
       -84 51 18 89 -82 91 -75 88 67 74 -65 43 -94 83 89 -72
000070 b4 50 ad bd 9b 16 ba 4c a4 b8 b1 42 9a ac 56 0f
       -76 80 -83 -67 -101 22 -70 76 -92 -72 -79 66 -102 -84 86 15
000080 81 35 6f 7f 81 7f 81 7f 7f 76 81 7f 81 7f 7f 81
       -127 53 111 127 -127 127 -127 127 127 118 -127 127 -127 127 127 -127
000090 81 7f 81 81 e1 26 81 7f 81 81 81 7f 91 81 7f f7
       -127 127 -127 -127 -31 38 -127 127 -127 -127 -127 127 -111 -127 127 -9
0000a0 ad 14 17 62 b8 67 b1 5e 50 36 b7 30 a0 2d 60 b5
       -83 20 23 98 -72 103 -79 94 80 54 -73 48 -96 45 96 -75
0000b0 b1 4d b5 a8 7f 05 b1 4a ab c2 b0 49 81 ab 50 15
       -79 77 -75 -88 127 5 -79 74 -85 -62 -80 73 -127 -85 80 21
0000c0 dd d8 a5 34 d7 40 bf 45 35 49 cd 28 cc cd 39 cf
       -35 -40 -91 52 -41 64 -65 69 53 73 -51 40 -52 -51 57 -49
0000d0 d2 3c d9 cc 98 a9 cc 3a bb cf db 27 ac c1 11 54
       -46 60 -39 -52 -104 -87 -52 58 -69 -49 -37 39 -84 -63 17 84
0000e0 bd 81 81 55 af 58 ae 65 5b 7f 8d 57 99 b1 54 ae
       -67 -127 -127 85 -81 88 -82 101 91 127 -115 87 -103 -79 84 -82
0000f0 b4 5f ad a7 e3 81 b3 5f 98 9b c8 61 9f a9 1c 69
       -76 95 -83 -89 -29 -127 -77 95 -104 -101 -56 97 -97 -87 28 105

model/368/Conv2D i1 [64, 1, 1, 32]
000000 08 15 fa 20 fa eb fb fb 7f 09 fe fc f6 fb ec f9
       8 21 -6 32 -6 -21 -5 -5 127 9 -2 -4 -10 -5 -20 -7
000010 08 fe 02 05 00 07 01 64 08 ec 0b f9 b8 04 f1 09
       8 -2 2 5 0 7 1 100 8 -20 11 -7 -72 4 -15 9
000020 0d e8 ec d9 00 db 09 24 d4 fc fc 7f fa ff 08 fb
       13 -24 -20 -39 0 -37 9 36 -44 -4 -4 127 -6 -1 8 -5
000030 18 02 0a 11 fa fd fc 2f d1 f0 13 fa ff f4 f6 fc
       24 2 10 17 -6 -3 -4 47 -47 -16 19 -6 -1 -12 -10 -4
000040 2c 11 e0 f5 03 1a 09 06 e2 f7 0b 05 f5 25 48 db
       44 17 -32 -11 3 26 9 6 -30 -9 11 5 -11 37 72 -37
000050 09 e7 1b 3d 06 16 01 15 04 0c 00 81 ec eb 34 fb
       9 -25 27 61 6 22 1 21 4 12 0 -127 -20 -21 52 -5
000060 03 2e f5 ff b0 ff 7f 0a 04 07 2b 0a 09 d8 fa ee
       3 46 -11 -1 -80 -1 127 10 4 7 43 10 9 -40 -6 -18
000070 f9 ff d6 2c f8 0e 23 f9 04 ed 10 e4 f6 11 f8 d6
       -7 -1 -42 44 -8 14 35 -7 4 -19 16 -28 -10 17 -8 -42
000080 e5 17 fe 34 35 c5 39 36 fe 06 26 43 f0 e8 ee 0e
       -27 23 -2 52 53 -59 57 54 -2 6 38 67 -16 -24 -18 14
000090 b2 43 27 36 3c 52 fb fb 0f c6 e2 cd fa 08 81 23
       -78 67 39 54 60 82 -5 -5 15 -58 -30 -51 -6 8 -127 35
0000a0 09 fd 9a 42 3c e4 03 2e 08 40 d5 0a 6e d7 88 2d
       9 -3 -102 66 60 -28 3 46 8 64 -43 10 110 -41 -120 45
0000b0 e0 36 e5 18 81 04 28 a2 fb f2 c6 a9 24 38 63 8e
       -32 54 -27 24 -127 4 40 -94 -5 -14 -58 -87 36 56 99 -114
0000c0 0b fd 15 db f2 2b fa 21 ff 08 0d 24 1c ee 7f ff
       11 -3 21 -37 -14 43 -6 33 -1 8 13 36 28 -18 127 -1
0000d0 54 e0 df e2 ea b8 0a b7 ec c6 1b 14 2c 2e 06 e7
       84 -32 -33 -30 -22 -72 10 -73 -20 -58 27 20 44 46 6 -25
0000e0 0f d1 da 29 02 f2 11 e6 ff f8 5d e2 20 1a 46 dd
       15 -47 -38 41 2 -14 17 -26 -1 -8 93 -30 32 26 70 -35
0000f0 f3 20 c7 cb 06 85 b8 02 f1 14 06 7f c3 0c 20 cb
       -13 32 -57 -53 6 -123 -72 2 -15 20 6 127 -61 12 32 -53

model/371/Conv2D i1 [4, 1, 1, 64]
000000 cf 09 ec ee ff 03 0c 08 7f e8 12 04 f0 9d 05 07
       -49 9 -20 -18 -1 3 12 8 127 -24 18 4 -16 -99 5 7
000010 f8 00 f7 fc fa 0c fc 18 f4 0d fe 0c fd 07 06 04
       -8 0 -9 -4 -6 12 -4 24 -12 13 -2 12 -3 7 6 4
000020 07 01 2b 16 04 fe 43 f4 08 fb 09 03 fb 06 fe dc
       7 1 43 22 4 -2 67 -12 8 -5 9 3 -5 6 -2 -36
000030 1b 03 0b 01 03 0b d4 05 fc fe de 05 03 07 0a dd
       27 3 11 1 3 11 -44 5 -4 -2 -34 5 3 7 10 -35
000040 f2 f7 f5 fc 03 0a fd fd 06 1a 0d 0c 0b 2e fe f2
       -14 -9 -11 -4 3 10 -3 -3 6 26 13 12 11 46 -2 -14
000050 01 f8 f2 fb ff 14 08 0b fd 06 f7 ff 00 7f fd 03
       1 -8 -14 -5 -1 20 8 11 -3 6 -9 -1 0 127 -3 3
000060 08 fc 07 ff 03 00 07 fa ff 03 01 0d 02 05 fb fe
       8 -4 7 -1 3 0 7 -6 -1 3 1 13 2 5 -5 -2
000070 02 fc 0a 05 01 04 06 02 04 f3 01 f8 ff ff 09 1c
       2 -4 10 5 1 4 6 2 4 -13 1 -8 -1 -1 9 28
000080 de 00 ed ec 02 ff 14 0d c6 f9 10 eb f8 81 fd fc
       -34 0 -19 -20 2 -1 20 13 -58 -7 16 -21 -8 -127 -3 -4
000090 f2 01 f1 fe 02 dc f9 1b f9 0e 02 13 fe 56 ff 06
       -14 1 -15 -2 2 -36 -7 27 -7 14 2 19 -2 86 -1 6
0000a0 02 f9 27 18 06 ff 40 ef 0b f3 05 10 f9 08 05 2a
       2 -7 39 24 6 -1 64 -17 11 -13 5 16 -7 8 5 42
0000b0 14 04 07 03 02 fb 12 fe f2 0c d8 0d 07 fe 17 f4
       20 4 7 3 2 -5 18 -2 -14 12 -40 13 7 -2 23 -12
0000c0 00 00 00 00 00 00 00 00 00 00 00 00 00 00 00 00
       0 0 0 0 0 0 0 0 0 0 0 0 0 0 0 0
0000d0 00 00 00 00 00 00 00 00 00 00 00 00 00 00 00 00
       0 0 0 0 0 0 0 0 0 0 0 0 0 0 0 0
0000e0 00 00 00 00 00 00 00 00 00 00 00 00 00 00 00 00
       0 0 0 0 0 0 0 0 0 0 0 0 0 0 0 0
0000f0 00 00 00 00 00 00 00 00 00 00 00 00 00 00 00 00
       0 0 0 0 0 0 0 0 0 0 0 0 0 0 0 0

model/373/Conv2D i1 [64, 1, 1, 4]
000000 8a f0 7f 00 81 66 b7 00 d5 1f 81 00 ba 18 81 00
       -118 -16 127 0 -127 102 -73 0 -43 31 -127 0 -70 24 -127 0
000010 f6 1f 81 00 d8 81 b6 00 b7 31 81 00 af 16 81 00
       -10 31 -127 0 -40 -127 -74 0 -73 49 -127 0 -81 22 -127 0
000020 34 81 8a 00 ba 7f a6 00 ba 23 81 00 5b 3b 81 00
       52 -127 -118 0 -70 127 -90 0 -70 35 -127 0 91 59 -127 0
000030 04 1a 81 00 ce f7 81 00 e0 30 81 00 81 a2 c3 00
       4 26 -127 0 -50 -9 -127 0 -32 48 -127 0 -127 -94 -61 0
000040 8d ff 81 00 dc ff 81 00 f4 81 19 00 bc 0c 81 00
       -115 -1 -127 0 -36 -1 -127 0 -12 -127 25 0 -68 12 -127 0
000050 95 0c 81 00 bf 22 81 00 a1 81 44 00 7f 37 4d 00
       -107 12 -127 0 -65 34 -127 0 -95 -127 68 0 127 55 77 0
000060 af ff 7f 00 81 13 91 00 c3 22 81 00 c8 1b 81 00
       -81 -1 127 0 -127 19 -111 0 -61 34 -127 0 -56 27 -127 0
000070 a7 9a 7f 00 c7 81 84 00 22 27 81 00 d5 34 81 00
       -89 -102 127 0 -57 -127 -124 0 34 39 -127 0 -43 52 -127 0
000080 e5 1d 81 00 cd 19 81 00 b6 01 81 00 bb 1a 81 00
       -27 29 -127 0 -51 25 -127 0 -74 1 -127 0 -69 26 -127 0
000090 bc 15 81 00 7f e2 05 00 b3 0b 81 00 07 81 c5 00
       -68 21 -127 0 127 -30 5 0 -77 11 -127 0 7 -127 -59 0
0000a0 e9 32 81 00 f3 11 81 00 e9 2b 81 00 dc f8 81 00
       -23 50 -127 0 -13 17 -127 0 -23 43 -127 0 -36 -8 -127 0
0000b0 f3 22 81 00 81 0f 93 00 06 24 81 00 2f 52 81 00
       -13 34 -127 0 -127 15 -109 0 6 36 -127 0 47 82 -127 0
0000c0 81 c5 ce 00 81 d7 af 00 7f d6 08 00 26 36 81 00
       -127 -59 -50 0 -127 -41 -81 0 127 -42 8 0 38 54 -127 0
0000d0 b1 0b 81 00 a5 08 81 00 79 db 81 00 81 f1 d3 00
       -79 11 -127 0 -91 8 -127 0 121 -37 -127 0 -127 -15 -45 0
0000e0 bd 19 81 00 f1 f8 81 00 9f 01 81 00 da 23 81 00
       -67 25 -127 0 -15 -8 -127 0 -97 1 -127 0 -38 35 -127 0
0000f0 7f df 9c 00 ca 2b 81 00 b8 81 b8 00 81 26 97 00
       127 -33 -100 0 -54 43 -127 0 -72 -127 -72 0 -127 38 -105 0

model/376/Conv2D i1 [64, 1, 1, 64]
000000 81 27 10 0e ed 0b f8 f0 66 8c 26 08 33 e9 a7 fc
       -127 39 16 14 -19 11 -8 -16 102 -116 38 8 51 -23 -89 -4
000010 0d ed fe 07 21 cc 18 05 d1 02 e8 e8 05 3d 15 3c
       13 -19 -2 7 33 -52 24 5 -47 2 -24 -24 5 61 21 60
000020 00 ed f3 08 c7 4e 0e 0e e7 f6 4c 35 0c fd 3a 14
       0 -19 -13 8 -57 78 14 14 -25 -10 76 53 12 -3 58 20
000030 02 17 2e 39 f0 0e bd 08 e6 1a 05 37 02 11 0f 9d
       2 23 46 57 -16 14 -67 8 -26 26 5 55 2 17 15 -99
000040 2f fc 29 21 a0 ec 2b 08 f8 ff 14 0a 02 1a e7 17
       47 -4 41 33 -96 -20 43 8 -8 -1 20 10 2 26 -25 23
000050 06 29 08 e8 f3 f4 e8 f6 a0 10 05 76 f6 0d f4 f5
       6 41 8 -24 -13 -12 -24 -10 -96 16 5 118 -10 13 -12 -11
000060 e8 f8 e3 df 0a bf fc f6 ef 06 0d f7 81 d9 b9 fc
       -24 -8 -29 -33 10 -65 -4 -10 -17 6 13 -9 -127 -39 -71 -4
000070 d8 12 ed f3 aa c8 1a df fb fd 06 03 f5 03 02 fe
       -40 18 -19 -13 -86 -56 26 -33 -5 -3 6 3 -11 3 2 -2
000080 e6 0d 0c 60 17 d9 0a 25 28 0c bc 7f 69 b5 e1 21
       -26 13 12 96 23 -39 10 37 40 12 -68 127 105 -75 -31 33
000090 e9 17 d2 f0 d1 5d 0b 41 00 bb 45 bc 28 cb fe 17
       -23 23 -46 -16 -47 93 11 65 0 -69 69 -68 40 -53 -2 23
0000a0 cb f4 03 37 13 29 ce 11 b0 19 29 ca df e2 24 de
       -53 -12 3 55 19 41 -50 17 -80 25 41 -54 -33 -30 36 -34
0000b0 1c e5 d2 04 f0 2d e7 14 f9 f2 f8 3e dc 4a 08 75
       28 -27 -46 4 -16 45 -25 20 -7 -14 -8 62 -36 74 8 117
0000c0 1d 26 41 15 04 02 d8 a4 f6 ff 00 0d dc 02 de fa
       29 38 65 21 4 2 -40 -92 -10 -1 0 13 -36 2 -34 -6
0000d0 35 04 e1 e5 13 bd f7 12 0a ec 10 df 0f f0 d5 15
       53 4 -31 -27 19 -67 -9 18 10 -20 16 -33 15 -16 -43 21
0000e0 52 1c f0 16 21 10 ed 2e 28 b6 eb 04 fc f3 00 0a
       82 28 -16 22 33 16 -19 46 40 -74 -21 4 -4 -13 0 10
0000f0 1a 18 09 47 90 81 09 f2 f4 fb ea 19 ce 07 03 0e
       26 24 9 71 -112 -127 9 -14 -12 -5 -22 25 -50 7 3 14

model/380/FusedBatchNormV3;model/379/depthwise;model/536/Conv2D i1 [1, 3, 3, 64]
000000 05 f2 f7 14 ee d7 33 db ea 3b 0a 1e fb c0 e0 10
       5 -14 -9 20 -18 -41 51 -37 -22 59 10 30 -5 -64 -32 16
000010 c2 15 0b 0f e4 f9 0b 06 01 f8 c7 de de 02 da 04
       -62 21 11 15 -28 -7 11 6 1 -8 -57 -34 -34 2 -38 4
000020 fc 8b ef ea f8 02 22 fa f7 f2 00 fb f6 c3 f8 11
       -4 -117 -17 -22 -8 2 34 -6 -9 -14 0 -5 -10 -61 -8 17
000030 0b 0d 0e df ef 33 1f e3 00 10 ff 45 03 f2 29 18
       11 13 14 -33 -17 51 31 -29 0 16 -1 69 3 -14 41 24
000040 0c 59 19 fd 04 25 0e 8b ec 7e f8 7f fc 0b 81 12
       12 89 25 -3 4 37 14 -117 -20 126 -8 127 -4 11 -127 18
000050 15 dd fb 43 f9 16 7f e4 81 f2 1b 2a 7f 29 20 81
       21 -35 -5 67 -7 22 127 -28 -127 -14 27 42 127 41 32 -127
000060 11 f8 2f b3 fc 06 7d 14 78 15 00 dc 05 c5 37 78
       17 -8 47 -77 -4 6 125 20 120 21 0 -36 5 -59 55 120
000070 fd f6 fa 5c fe ed 7f cf 00 7f eb 7f 48 84 7d 7f
       -3 -10 -6 92 -2 -19 127 -49 0 127 -21 127 72 -124 125 127
000080 00 dc ef 12 f0 d9 d1 e6 07 3b 0a 12 fa d0 cb 1a
       0 -36 -17 18 -16 -39 -47 -26 7 59 10 18 -6 -48 -53 26
000090 c5 14 fc 01 f0 f0 0f 02 04 12 19 f6 e4 06 d9 fc
       -59 20 -4 1 -16 -16 15 2 4 18 25 -10 -28 6 -39 -4
0000a0 fd 7a 28 e2 0b 09 2d f9 f1 f5 00 f4 f3 c2 fd 28
       -3 122 40 -30 11 9 45 -7 -15 -11 0 -12 -13 -62 -3 40
0000b0 eb 06 08 f9 11 d0 21 e1 00 19 fd 3c 04 cf 28 13
       -21 6 8 -7 17 -48 33 -31 0 25 -3 60 4 -49 40 19
0000c0 b6 7f 7f 04 e0 d0 7f 81 d5 e4 fd 07 0c a0 ba 08
       -74 127 127 4 -32 -48 127 -127 -43 -28 -3 7 12 -96 -70 8
0000d0 e9 b7 7f 8c c8 e5 00 fa e4 81 81 71 1c 36 7e ff
       -23 -73 127 -116 -56 -27 0 -6 -28 -127 -127 113 28 54 126 -1
0000e0 c2 ec 11 50 e1 78 81 1e 35 01 00 fd 0a 11 8b 2b
       -62 -20 17 80 -31 120 -127 30 53 1 0 -3 10 17 -117 43
0000f0 7f 1f 13 81 eb 66 08 eb 00 4a f8 fd 4a 81 df 02
       127 31 19 -127 -21 102 8 -21 0 74 -8 -3 74 -127 -33 2

model/382/Conv2D i1 [64, 1, 1, 64]
000000 42 d2 11 04 fa 09 fb eb ee 22 e4 2a 21 60 e4 28
       66 -46 17 4 -6 9 -5 -21 -18 34 -28 42 33 96 -28 40
000010 08 e9 fa 0c be 1b 31 c6 dc 07 17 25 cc 81 19 16
       8 -23 -6 12 -66 27 49 -58 -36 7 23 37 -52 -127 25 22
000020 39 cb f8 2c 04 24 08 d8 f9 e3 00 da fb 30 1b b3
       57 -53 -8 44 4 36 8 -40 -7 -29 0 -38 -5 48 27 -77
000030 09 f8 11 d0 21 fe e2 1c 00 cf e6 0a 3b 53 05 f5
       9 -8 17 -48 33 -2 -30 28 0 -49 -26 10 59 83 5 -11
000040 fe 0e 04 f0 ca 19 03 e7 34 24 cc 2b e0 1d a2 e6
       -2 14 4 -16 -54 25 3 -25 52 36 -52 43 -32 29 -94 -26
000050 43 4d 30 06 f9 d5 02 0f 01 e6 ea e7 19 b8 f3 2e
       67 77 48 6 -7 -43 2 15 1 -26 -22 -25 25 -72 -13 46
000060 e5 e6 26 c3 1a f5 cd 2a d7 0a 00 2f ae 38 d5 de
       -27 -26 38 -61 26 -11 -51 42 -41 10 0 47 -82 56 -43 -34
000070 f3 28 81 1b ff f0 3b 10 00 e7 00 dc ad 2c cd 05
       -13 40 -127 27 -1 -16 59 16 0 -25 0 -36 -83 44 -51 5
000080 f4 0e 05 0b e9 f6 fc fe 05 18 01 14 05 02 1a 1d
       -12 14 5 11 -23 -10 -4 -2 5 24 1 20 5 2 26 29
000090 ed f6 f7 ed f4 0b 03 fc 04 19 fe f6 11 f5 fa 12
       -19 -10 -9 -19 -12 11 3 -4 4 25 -2 -10 17 -11 -6 18
0000a0 19 27 04 f6 13 7f 20 fa ee f8 00 fa 1c f5 e8 f9
       25 39 4 -10 19 127 32 -6 -18 -8 0 -6 28 -11 -24 -7
0000b0 e8 12 02 11 ef f4 e0 00 00 f9 0e 0c 0d f7 4f fa
       -24 18 2 17 -17 -12 -32 0 0 -7 14 12 13 -9 79 -6
0000c0 27 31 d0 3f 0d fb d0 ff 39 e9 0a 42 41 f4 1e e5
       39 49 -48 63 13 -5 -48 -1 57 -23 10 66 65 -12 30 -27
0000d0 fc 06 00 f6 35 17 05 46 64 04 99 eb 32 63 c4 3e
       -4 6 0 -10 53 23 5 70 100 4 -103 -21 50 99 -60 62
0000e0 1d 3f 81 fa d6 8e f6 0a ef 15 00 08 46 c5 e4 c3
       29 63 -127 -6 -42 -114 -10 10 -17 21 0 8 70 -59 -28 -61
0000f0 2d de 23 08 16 3c d2 da 00 ee b8 13 f5 57 11 1f
       45 -34 35 8 22 60 -46 -38 0 -18 -72 19 -11 87 17 31

model/385/Conv2D i1 [4, 1, 1, 64]
000000 fc 15 fe 09 04 04 ff 06 1d fb fd 47 fc f7 fe f5
       -4 21 -2 9 4 4 -1 6 29 -5 -3 71 -4 -9 -2 -11
000010 f7 04 84 f8 00 fb ff fe fc 05 09 fb 0e 03 0d f8
       -9 4 -124 -8 0 -5 -1 -2 -4 5 9 -5 14 3 13 -8
000020 01 fe f8 02 fd fe f3 05 fb fe 02 17 f7 fa 01 f1
       1 -2 -8 2 -3 -2 -13 5 -5 -2 2 23 -9 -6 1 -15
000030 7f 02 ff fb 04 01 08 05 fe 00 01 fb 09 ff 0b 17
       127 2 -1 -5 4 1 8 5 -2 0 1 -5 9 -1 11 23
000040 f6 1c fd 03 00 ff f7 05 24 18 fc 49 fe fe 00 f5
       -10 28 -3 3 0 -1 -9 5 36 24 -4 73 -2 -2 0 -11
000050 f8 03 74 f8 f9 ff fd e6 fa 0a 0a fc 81 08 11 fe
       -8 3 116 -8 -7 -1 -3 -26 -6 10 10 -4 -127 8 17 -2
000060 ff fb f3 f7 07 03 ed 0c 03 fe fe 24 02 f5 fc ea
       -1 -5 -13 -9 7 3 -19 12 3 -2 -2 36 2 -11 -4 -22
000070 5d f9 04 04 fb 08 07 ff 00 fd 03 00 0c fe 0d 21
       93 -7 4 4 -5 8 7 -1 0 -3 3 0 12 -2 13 33
000080 f8 11 00 04 02 fb fd ff 0a 4c 01 7f fe fd fa fe
       -8 17 0 4 2 -5 -3 -1 10 76 1 127 -2 -3 -6 -2
000090 f2 02 0e f6 f9 01 fd f6 fb 0b 05 fd 31 05 0e f9
       -14 2 14 -10 -7 1 -3 -10 -5 11 5 -3 49 5 14 -7
0000a0 01 00 fd fb 09 ff f2 08 01 fe 03 18 01 fd fb f1
       1 0 -3 -5 9 -1 -14 8 1 -2 3 24 1 -3 -5 -15
0000b0 cf 06 04 f5 fc 06 fa 00 fe fe 02 fd 07 f9 01 18
       -49 6 4 -11 -4 6 -6 0 -2 -2 2 -3 7 -7 1 24
0000c0 f7 18 ff 0a fa f8 fa 04 1a 03 fd 07 00 01 fd fe
       -9 24 -1 10 -6 -8 -6 4 26 3 -3 7 0 1 -3 -2
0000d0 fd 03 31 fa 00 f9 fa fa 00 0f 07 fc 7f 07 0b 00
       -3 3 49 -6 0 -7 -6 -6 0 15 7 -4 127 7 11 0
0000e0 03 02 fa ff 03 fe f2 0b 02 03 04 1a 07 f8 fa f4
       3 2 -6 -1 3 -2 -14 11 2 3 4 26 7 -8 -6 -12
0000f0 61 f5 00 fc f9 ff 09 fd fd fc 01 f7 07 fe 0b 15
       97 -11 0 -4 -7 -1 9 -3 -3 -4 1 -9 7 -2 11 21

model/387/Conv2D i1 [64, 1, 1, 4]
000000 1c e5 81 2d 50 d7 01 81 3a 81 00 2d 16 81 fa 27
       28 -27 -127 45 80 -41 1 -127 58 -127 0 45 22 -127 -6 39
000010 90 7f df a6 7f 9a 1d e8 db 7f a1 c4 91 81 11 db
       -112 127 -33 -90 127 -102 29 -24 -37 127 -95 -60 -111 -127 17 -37
000020 bc c3 7f ba 9c ac 81 9f 3d 81 e2 3a 81 82 a2 a6
       -68 -61 127 -70 -100 -84 -127 -97 61 -127 -30 58 -127 -126 -94 -90
000030 cc 96 30 7f 81 e2 ef 44 4b 81 c4 9a ca 81 48 0a
       -52 -106 48 127 -127 -30 -17 68 75 -127 -60 -102 -54 -127 72 10
000040 25 81 e4 f2 d7 86 7f 70 a2 90 9b 81 0a e5 81 08
       37 -127 -28 -14 -41 -122 127 112 -94 -112 -101 -127 10 -27 -127 8
000050 49 81 cc 0a 48 9a 81 fe 2f 81 15 57 38 81 02 21
       73 -127 -52 10 72 -102 -127 -2 47 -127 21 87 56 -127 2 33
000060 7f a9 09 b7 1e 32 81 8e 7f 99 8d f8 2d 81 d8 0a
       127 -87 9 -73 30 50 -127 -114 127 -103 -115 -8 45 -127 -40 10
000070 b6 81 bb be f8 81 ba c9 4b 81 19 1d 10 c1 81 42
       -74 -127 -69 -66 -8 -127 -70 -55 75 -127 25 29 16 -63 -127 66
000080 9d 71 00 81 2c 81 f3 16 ac 7f cb c5 07 81 d2 16
       -99 113 0 -127 44 -127 -13 22 -84 127 -53 -59 7 -127 -46 22
000090 9e 81 d3 e4 b9 81 03 3b 52 7f 83 a1 f9 81 f2 f7
       -98 -127 -45 -28 -71 -127 3 59 82 127 -125 -95 -7 -127 -14 -9
0000a0 20 7f a6 e0 81 78 d1 9b 81 ee 0c b3 59 fd 00 81
       32 127 -90 -32 -127 120 -47 -101 -127 -18 12 -77 89 -3 0 -127
0000b0 88 dd 15 81 5c 81 d5 01 81 f1 77 aa 81 e4 73 7f
       -120 -35 21 -127 92 -127 -43 1 -127 -15 119 -86 -127 -28 115 127
0000c0 a1 81 bb 93 81 83 b7 86 20 12 81 26 44 81 cd 9e
       -95 -127 -69 -109 -127 -125 -73 -122 32 18 -127 38 68 -127 -51 -98
0000d0 4e 81 11 0c 40 81 ee 25 1c 99 a4 7f 24 b8 81 ef
       78 -127 17 12 64 -127 -18 37 28 -103 -92 127 36 -72 -127 -17
0000e0 19 81 0a 55 f7 81 f9 1e 4f e5 7f 56 2a 81 aa 27
       25 -127 10 85 -9 -127 -7 30 79 -27 127 86 42 -127 -86 39
0000f0 32 81 03 e2 2f 81 f9 1a 81 a4 9f b6 86 d8 13 7f
       50 -127 3 -30 47 -127 -7 26 -127 -92 -97 -74 -122 -40 19 127

model/391/Conv2D i1 [64, 1, 1, 64]
000000 00 11 03 fd 0b ee 04 d3 f7 05 f0 07 00 ff fb fe
       0 17 3 -3 11 -18 4 -45 -9 5 -16 7 0 -1 -5 -2
000010 fc 05 fa 03 fc 03 f5 25 2b ff ec f3 f1 06 fa 08
       -4 5 -6 3 -4 3 -11 37 43 -1 -20 -13 -15 6 -6 8
000020 e6 00 01 00 81 f3 e2 e7 ff 09 12 ff 11 e8 fd 03
       -26 0 1 0 -127 -13 -30 -25 -1 9 18 -1 17 -24 -3 3
000030 fd 03 17 f5 ef 0a 12 e8 fc f3 0d 1b fd fb 09 0a
       -3 3 23 -11 -17 10 18 -24 -4 -13 13 27 -3 -5 9 10
000040 e3 fb 0e ef 07 f2 f0 f6 7f 8c fc df 1b e8 fd da
       -29 -5 14 -17 7 -14 -16 -10 127 -116 -4 -33 27 -24 -3 -38
000050 e7 0a f1 1b 08 00 f6 e5 00 03 f7 10 0c ea 05 12
       -25 10 -15 27 8 0 -10 -27 0 3 -9 16 12 -22 5 18
000060 f8 0b 0e 09 33 fe 4a 11 ff 09 05 bf ed 0b ff d9
       -8 11 14 9 51 -2 74 17 -1 9 5 -65 -19 11 -1 -39
000070 dc 1e 4e 18 ed 10 eb 17 e1 f4 21 05 0b 14 00 06
       -36 30 78 24 -19 16 -21 23 -31 -12 33 5 11 20 0 6
000080 54 13 e1 c3 e9 e6 0a f3 09 aa 02 f2 5d 3d d2 00
       84 19 -31 -61 -23 -26 10 -13 9 -86 2 -14 93 61 -46 0
000090 b6 e3 ce 53 a1 49 d2 cf a4 ef fb 04 e9 e7 e4 7f
       -74 -29 -50 83 -95 73 -46 -49 -92 -17 -5 4 -23 -25 -28 127
0000a0 2d 53 3d b4 1e b5 c7 16 36 e7 3d 05 56 63 5d d8
       45 83 61 -76 30 -75 -57 22 54 -25 61 5 86 99 93 -40
0000b0 df 40 5f 0e 29 f9 69 2e cc e0 e1 f4 2d ac ec 29
       -33 64 95 14 41 -7 105 46 -52 -32 -31 -12 45 -84 -20 41
0000c0 f9 1d ef 45 06 ec ed 10 12 bb 75 ea 36 15 f1 d6
       -7 29 -17 69 6 -20 -19 16 18 -69 117 -22 54 21 -15 -42
0000d0 d5 f3 31 b3 e9 97 df 0b 07 fb 06 ee 15 1d f8 b2
       -43 -13 49 -77 -23 -105 -33 11 7 -5 6 -18 21 29 -8 -78
0000e0 ee 5f f1 0b 31 0e 17 b8 f0 20 12 02 b3 51 81 04
       -18 95 -15 11 49 14 23 -72 -16 32 18 2 -77 81 -127 4
0000f0 e4 c5 23 2c ca 09 cc ef 16 1e db 2a f5 64 17 f3
       -28 -59 35 44 -54 9 -52 -17 22 30 -37 42 -11 100 23 -13

model/395/FusedBatchNormV3;model/394/depthwise;model/536/Conv2D i1 [1, 3, 3, 64]
000000 01 eb 1d 72 04 f3 e8 1b ec 06 43 08 43 2d 81 81
       1 -21 29 114 4 -13 -24 27 -20 6 67 8 67 45 -127 -127
000010 00 09 40 ee 7f 10 ca f2 78 fb 00 f8 d9 09 fe 39
       0 9 64 -18 127 16 -54 -14 120 -5 0 -8 -39 9 -2 57
000020 f9 38 00 12 03 24 0d 0b 04 10 f2 2b e6 00 05 e7
       -7 56 0 18 3 36 13 11 4 16 -14 43 -26 0 5 -25
000030 13 ef 17 fe 2d e6 ee ac f4 f1 11 0f fd fc fc e3
       19 -17 23 -2 45 -26 -18 -84 -12 -15 17 15 -3 -4 -4 -29
000040 e4 10 d9 6f d6 16 f9 4a cc c7 0b ff 7f d8 a6 93
       -28 16 -39 111 -42 22 -7 74 -52 -57 11 -1 127 -40 -90 -109
000050 fa e2 37 eb 18 81 30 ea 6f ee 00 8e e3 f4 f3 46
       -6 -30 55 -21 24 -127 48 -22 111 -18 0 -114 -29 -12 -13 70
000060 f6 7f 00 e9 81 cf 1b 0e 0a 50 1f 7f e5 00 f9 8a
       -10 127 0 -23 -127 -49 27 14 10 80 31 127 -27 0 -7 -118
000070 07 09 22 1e 7f 0c f7 9d c2 ff 7f 7f fa e7 0b 9b
       7 9 34 30 127 12 -9 -99 -62 -1 127 127 -6 -25 11 -101
000080 03 f9 fb 7f 06 0e ef 27 eb 05 63 e4 5b d9 ad 8b
       3 -7 -5 127 6 14 -17 39 -21 5 99 -28 91 -39 -83 -117
000090 03 07 42 ec 62 0b 50 f4 61 fa 00 f2 d6 05 fe 3b
       3 7 66 -20 98 11 80 -12 97 -6 0 -14 -42 5 -2 59
0000a0 fd 3b 00 ed f6 f2 f7 e5 f7 0a fb 26 ea 00 06 f4
       -3 59 0 -19 -10 -14 -9 -27 -9 10 -5 38 -22 0 6 -12
0000b0 f3 f1 13 1b 27 e4 ef b9 f1 f1 2f 14 00 04 f6 e5
       -13 -15 19 27 39 -28 -17 -71 -15 -15 47 20 0 4 -10 -27
0000c0 07 e3 6f df e3 f6 f8 7f fe ec 2c ba f9 7f ce 0d
       7 -29 111 -33 -29 -10 -8 127 -2 -20 44 -70 -7 127 -50 13
0000d0 ec 4a e8 eb 0e 10 ea 23 6e 08 00 f5 ee f4 17 fc
       -20 74 -24 -21 14 16 -22 35 110 8 0 -11 -18 -12 23 -4
0000e0 f4 f2 00 81 ec 7f 04 7f 7f 01 e2 f6 09 00 03 37
       -12 -14 0 -127 -20 127 4 127 127 1 -30 -10 9 0 3 55
0000f0 36 e4 0c b1 f1 34 08 a8 5a f0 f0 ec f2 03 28 f0
       54 -28 12 -79 -15 52 8 -88 90 -16 -16 -20 -14 3 40 -16

model/397/Conv2D i1 [64, 1, 1, 64]
000000 f1 e2 2c e8 bc 06 27 dd f1 f9 e4 14 e9 17 fb 33
       -15 -30 44 -24 -68 6 39 -35 -15 -7 -28 20 -23 23 -5 51
000010 7f fc de 20 02 cd e4 bd fa 06 00 24 09 f9 17 ee
       127 -4 -34 32 2 -51 -28 -67 -6 6 0 36 9 -7 23 -18
000020 bc f7 00 0e 3f db fa da 20 2a f7 e8 33 00 1c 11
       -68 -9 0 14 63 -37 -6 -38 32 42 -9 -24 51 0 28 17
000030 05 f2 fd fc ed de 62 f8 05 d8 01 eb fd 21 00 08
       5 -14 -3 -4 -19 -34 98 -8 5 -40 1 -21 -3 33 0 8
000040 f7 c7 0b fd f9 07 de 1b f9 07 ee f4 17 e8 11 f9
       -9 -57 11 -3 -7 7 -34 27 -7 7 -18 -12 23 -24 17 -7
000050 7f 09 f4 dd 00 f6 03 f1 02 e7 00 fb f8 13 27 f3
       127 9 -12 -35 0 -10 3 -15 2 -25 0 -5 -8 19 39 -13
000060 fa 07 00 11 f2 f9 f4 f8 03 f6 f7 ee f3 00 08 0b
       -6 7 0 17 -14 -7 -12 -8 3 -10 -9 -18 -13 0 8 11
000070 fc 12 05 fd f4 00 e9 fd 11 a3 03 04 e2 0c 00 11
       -4 18 5 -3 -12 0 -23 -3 17 -93 3 4 -30 12 0 17
000080 d4 a5 30 7f 0a 0d f2 eb 06 35 02 cd 27 36 f2 c1
       -44 -91 48 127 10 13 -14 -21 6 53 2 -51 39 54 -14 -63
000090 cf 2e d7 e4 a5 e7 ec d3 eb ea 00 2b 2c fe 3a b6
       -49 46 -41 -28 -91 -25 -20 -45 -21 -22 0 43 44 -2 58 -74
0000a0 e7 3d 00 1f 1f d5 27 c1 be 2a cf e6 fd 00 ba 6a
       -25 61 0 31 31 -43 39 -63 -66 42 -49 -26 -3 0 -70 106
0000b0 a9 f7 e7 1e e5 b6 fe 31 06 1c ba 48 0d 2f 00 db
       -87 -9 -25 30 -27 -74 -2 49 6 28 -70 72 13 47 0 -37
0000c0 30 3b 16 25 17 4c 50 14 02 d3 f9 7f dd 2c e9 2f
       48 59 22 37 23 76 80 20 2 -45 -7 127 -35 44 -23 47
0000d0 f3 5e 22 02 a8 da 36 3e b2 00 00 5e 9a fa 14 f9
       -13 94 34 2 -88 -38 54 62 -78 0 0 94 -102 -6 20 -7
0000e0 16 1e 00 e6 07 dd e7 0b ae 10 0f 2b 1f 00 4b 1b
       22 30 0 -26 7 -35 -25 11 -82 16 15 43 31 0 75 27
0000f0 45 eb fb cc e1 04 f7 e4 dc 07 e5 96 c4 e8 00 08
       69 -21 -5 -52 -31 4 -9 -28 -36 7 -27 -106 -60 -24 0 8

model/400/Conv2D i1 [4, 1, 1, 64]
000000 f9 e1 06 fe 0f fc a6 04 f2 01 04 f0 fe 03 fc 17
       -7 -31 6 -2 15 -4 -90 4 -14 1 4 -16 -2 3 -4 23
000010 fb 02 ff 07 03 fc 00 f2 f7 06 07 fe ed f5 09 00
       -5 2 -1 7 3 -4 0 -14 -9 6 7 -2 -19 -11 9 0
000020 fe 00 f9 f9 04 ff 09 fa fc fd fd 18 fa fb 05 0a
       -2 0 -7 -7 4 -1 9 -6 -4 -3 -3 24 -6 -5 5 10
000030 fa 01 81 fe fb ff fe 04 05 08 fa 86 05 03 01 ea
       -6 1 -127 -2 -5 -1 -2 4 5 8 -6 -122 5 3 1 -22
000040 fe ec 06 fe 02 0f f7 08 f7 0a 10 e8 06 fc 01 10
       -2 -20 6 -2 2 15 -9 8 -9 10 16 -24 6 -4 1 16
000050 fe 00 ff 0f ff fe 02 f8 fa f6 02 00 01 fe 0d 05
       -2 0 -1 15 -1 -2 2 -8 -6 -10 2 0 1 -2 13 5
000060 f5 fb fd fd 07 00 08 ff fc 03 fe 17 fd fd 07 06
       -11 -5 -3 -3 7 0 8 -1 -4 3 -2 23 -3 -3 7 6
000070 fa ff 7a f6 06 f8 03 07 02 09 fa 81 fd 07 01 ef
       -6 -1 122 -10 6 -8 3 7 2 9 -6 -127 -3 7 1 -17
000080 fa e9 03 fe 03 16 81 09 01 08 0a ea 09 fb 05 14
       -6 -23 3 -2 3 22 -127 9 1 8 10 -22 9 -5 5 20
000090 ff 03 f9 0d ff fa 00 f5 f5 f9 01 01 00 fe 0d f9
       -1 3 -7 13 -1 -6 0 -11 -11 -7 1 1 0 -2 13 -7
0000a0 f1 f9 fa fe 07 01 0e f9 fc fd ff 1b fc fa 06 06
       -15 -7 -6 -2 7 1 14 -7 -4 -3 -1 27 -4 -6 6 6
0000b0 fd 05 2d f9 02 f8 03 07 02 0e fb 1b f8 06 fc e5
       -3 5 45 -7 2 -8 3 7 2 14 -5 27 -8 6 -4 -27
0000c0 fa e0 06 00 02 04 fb 05 f5 02 08 f7 07 01 ff 0e
       -6 -32 6 0 2 4 -5 5 -11 2 8 -9 7 1 -1 14
0000d0 02 fe fc 08 03 ff fe f9 f8 fc 02 ff 81 fc 0c 02
       2 -2 -4 8 3 -1 -2 -7 -8 -4 2 -1 -127 -4 12 2
0000e0 f8 fe fc fe 02 ff 01 fe fc fb 02 15 f9 fa 08 01
       -8 -2 -4 -2 2 -1 1 -2 -4 -5 2 21 -7 -6 8 1
0000f0 fa 01 21 f9 00 ff 02 07 01 09 fa fe fc 06 00 f4
       -6 1 33 -7 0 -1 2 7 1 9 -6 -2 -4 6 0 -12

model/402/Conv2D i1 [64, 1, 1, 4]
000000 81 52 a3 db 05 04 04 81 eb b5 56 81 bd 90 81 e8
       -127 82 -93 -37 5 4 4 -127 -21 -75 86 -127 -67 -112 -127 -24
000010 e5 e6 81 f3 7f ce d9 b5 a3 bb 81 cd 08 0f 7f b3
       -27 -26 -127 -13 127 -50 -39 -75 -93 -69 -127 -51 8 15 127 -77
000020 e0 81 35 e5 22 55 81 e5 49 95 81 c0 05 81 9a ca
       -32 -127 53 -27 34 85 -127 -27 73 -107 -127 -64 5 -127 -102 -54
000030 7f 4e 54 e2 c8 4c 81 eb 81 fa 8f bf 81 72 36 fe
       127 78 84 -30 -56 76 -127 -21 -127 -6 -113 -65 -127 114 54 -2
000040 4a cd e4 81 83 78 81 ff 7f 92 ac d8 7f a7 07 21
       74 -51 -28 -127 -125 120 -127 -1 127 -110 -84 -40 127 -89 7 33
000050 21 bc 81 e6 81 85 a4 a9 24 23 c1 81 81 35 02 fc
       33 -68 -127 -26 -127 -123 -92 -87 36 35 -63 -127 -127 53 2 -4
000060 86 b3 81 bd fb 81 ce f7 81 5f 1b c6 81 c9 9d 03
       -122 -77 -127 -67 -5 -127 -50 -9 -127 95 27 -58 -127 -55 -99 3
000070 c9 aa b8 81 7f 25 a3 45 6b 7f 32 b8 23 b2 81 d8
       -55 -86 -72 -127 127 37 -93 69 107 127 50 -72 35 -78 -127 -40
000080 f6 a5 81 e7 81 98 bd a9 4d e5 81 12 cb 1b 7f 35
       -10 -91 -127 -25 -127 -104 -67 -87 77 -27 -127 18 -53 27 127 53
000090 dc 03 fe 81 7f cf 20 84 81 09 cd 18 81 b9 8b cf
       -36 3 -2 -127 127 -49 32 -124 -127 9 -51 24 -127 -71 -117 -49
0000a0 4b 7f c8 93 3e 81 82 a6 a8 e4 81 ad 56 81 98 ee
       75 127 -56 -109 62 -127 -126 -90 -88 -28 -127 -83 86 -127 -104 -18
0000b0 90 4f a1 81 2f 7f 8c 14 c1 cc 81 d7 03 9a 7f ec
       -112 79 -95 -127 47 127 -116 20 -63 -52 -127 -41 3 -102 127 -20
0000c0 d5 81 ab 2d 47 42 81 cf d2 90 81 b5 fb d0 81 de
       -43 -127 -85 45 71 66 -127 -49 -46 -112 -127 -75 -5 -48 -127 -34
0000d0 b4 bf b3 81 df a8 81 dc 81 0b da cb 7f ea ec fc
       -76 -65 -77 -127 -33 -88 -127 -36 -127 11 -38 -53 127 -22 -20 -4
0000e0 c4 56 55 81 81 1e ef e5 ca 1c 7f 09 a1 81 9e d8
       -60 86 85 -127 -127 30 -17 -27 -54 28 127 9 -95 -127 -98 -40
0000f0 25 f0 fe 81 4a 8c 90 81 7f da fd 95 81 fa cf e2
       37 -16 -2 -127 74 -116 -112 -127 127 -38 -3 -107 -127 -6 -49 -30

model/406/Conv2D i1 [64, 1, 1, 64]
000000 19 1d f4 8c 00 c2 0f e9 f4 e7 f7 27 01 d4 34 14
       25 29 -12 -116 0 -62 15 -23 -12 -25 -9 39 1 -44 52 20
000010 46 32 cf 0b 4d b3 de bf fd ef f4 81 2c f1 11 f4
       70 50 -49 11 77 -77 -34 -65 -3 -17 -12 -127 44 -15 17 -12
000020 e1 19 40 ec c1 31 0c 32 0f 39 5b 0f df ea e2 f9
       -31 25 64 -20 -63 49 12 50 15 57 91 15 -33 -22 -30 -7
000030 f1 f2 03 3b 1d f3 d1 cc c0 0e 1f 04 05 e2 d2 25
       -15 -14 3 59 29 -13 -47 -52 -64 14 31 4 5 -30 -46 37
000040 1f 51 eb 07 04 2d 03 f0 97 6f fc dd 34 f0 f3 09
       31 81 -21 7 4 45 3 -16 -105 111 -4 -35 52 -16 -13 9
000050 fb 13 e5 f3 fa 19 21 14 2b 0a d0 11 ec 0d d1 fe
       -5 19 -27 -13 -6 25 33 20 43 10 -48 17 -20 13 -47 -2
000060 d0 f9 20 0b 26 0a e2 f9 1a 1a 26 7f 19 21 fe 39
       -48 -7 32 11 38 10 -30 -7 26 26 38 127 25 33 -2 57
000070 eb d4 e1 03 fc 04 e9 fe 0c 02 49 f7 2d dd ff 95
       -21 -44 -31 3 -4 4 -23 -2 12 2 73 -9 45 -35 -1 -107
000080 17 d8 ea 18 db f6 0b 7f e4 f3 fb 0b 37 cf f6 a3
       23 -40 -22 24 -37 -10 11 127 -28 -13 -5 11 55 -49 -10 -93
000090 e4 1b 40 49 14 15 3f f9 dd 17 cc ce 1d 33 11 fc
       -28 27 64 73 20 21 63 -7 -35 23 -52 -50 29 51 17 -4
0000a0 fe 5f 4e fd 89 28 10 de ed b2 74 20 16 42 1b cc
       -2 95 78 -3 -119 40 16 -34 -19 -78 116 32 22 66 27 -52
0000b0 08 e5 ab fc f6 bf f9 03 f0 05 1d ed 1d f2 03 e4
       8 -27 -85 -4 -10 -65 -7 3 -16 5 29 -19 29 -14 3 -28
0000c0 18 e6 e9 4c 25 0a e3 ce f2 23 dd da 11 27 07 d8
       24 -26 -23 76 37 10 -29 -50 -14 35 -35 -38 17 39 7 -40
0000d0 f7 d7 46 2e e7 ff 1a e1 eb 07 0d f0 e8 46 2b af
       -9 -41 70 46 -25 -1 26 -31 -21 7 13 -16 -24 70 43 -81
0000e0 e8 08 13 d6 e7 81 f8 d8 c1 20 1a ef fe e3 3a e5
       -24 8 19 -42 -25 -127 -8 -40 -63 32 26 -17 -2 -29 58 -27
0000f0 26 ff af 0e e0 18 14 21 31 3a 40 e0 f5 d0 00 e7
       38 -1 -81 14 -32 24 20 33 49 58 64 -32 -11 -48 0 -25

model/410/FusedBatchNormV3;model/409/depthwise;model/536/Conv2D i1 [1, 3, 3, 64]
000000 c9 e6 15 10 6c fb e8 aa b9 e2 1c 25 06 05 c3 f7
       -55 -26 21 16 108 -5 -24 -86 -71 -30 28 37 6 5 -61 -9
000010 f8 23 02 27 bc f6 00 f0 0f c0 05 45 16 62 2d e4
       -8 35 2 39 -68 -10 0 -16 15 -64 5 69 22 98 45 -28
000020 fc db 07 de 92 ce 40 fc 00 12 fd f5 0f de dc d5
       -4 -37 7 -34 -110 -50 64 -4 0 18 -3 -11 15 -34 -36 -43
000030 a3 eb 75 67 13 08 07 36 04 db 01 0f 1d 06 02 13
       -93 -21 117 103 19 8 7 54 4 -37 1 15 29 6 2 19
000040 c7 fa c2 81 72 17 fb 7f f8 ec 7f 6f ed e0 f1 26
       -57 -6 -62 -127 114 23 -5 127 -8 -20 127 111 -19 -32 -15 38
000050 ff ef de 13 3f d7 0d e0 58 d7 fa 7f d5 2d e7 9e
       -1 -17 -34 19 63 -41 13 -32 88 -41 -6 127 -43 45 -25 -98
000060 23 b5 28 d0 d7 f9 5e 0a b8 0c 28 e5 2c ea fa 13
       35 -75 40 -48 -41 -7 94 10 -72 12 40 -27 44 -22 -6 19
000070 b5 e4 d5 51 f8 5e 50 19 f6 c0 fc f0 d2 09 1b 6c
       -75 -28 -43 81 -8 94 80 25 -10 -64 -4 -16 -46 9 27 108
000080 e0 25 0d 43 5e fc 0a f0 cf eb 16 14 e4 e7 44 f0
       -32 37 13 67 94 -4 10 -16 -49 -21 22 20 -28 -25 68 -16
000090 01 e2 01 d1 0e 15 02 0a b0 cc 02 4a ed 58 f0 dd
       1 -30 1 -47 14 21 2 10 -80 -52 2 74 -19 88 -16 -35
0000a0 f8 70 0c f3 91 c9 39 01 03 10 fe f8 19 de dc 19
       -8 112 12 -13 -111 -55 57 1 3 16 -2 -8 25 -34 -36 25
0000b0 a3 f2 c0 4e f4 fd 12 2e 03 e0 00 0e 29 07 09 c4
       -93 -14 -64 78 -12 -3 18 46 3 -32 0 14 41 7 9 -60
0000c0 81 a9 7f 10 d5 d8 d8 9f 09 28 ba e6 d2 bc 99 3c
       -127 -87 127 16 -43 -40 -40 -97 9 40 -70 -26 -46 -68 -103 60
0000d0 f3 7f 0e 7f 7f 7f de 05 de 65 12 31 92 61 7f 8d
       -13 127 14 127 127 127 -34 5 -34 101 18 49 -110 97 127 -115
0000e0 49 b2 7f 81 ca 08 f7 ea 49 3d e1 3b 19 a2 81 7f
       73 -78 127 -127 -54 8 -9 -22 73 61 -31 59 25 -94 -127 127
0000f0 bf f4 7f 7d 7f 11 40 fa 81 24 07 38 8e 65 a4 28
       -65 -12 127 125 127 17 64 -6 -127 36 7 56 -114 101 -92 40

model/412/Conv2D i1 [64, 1, 1, 64]
000000 fa 14 f0 12 98 e2 2b f4 e7 33 49 1c e4 e4 db 21
       -6 20 -16 18 -104 -30 43 -12 -25 51 73 28 -28 -28 -37 33
000010 55 68 f6 aa 0b f2 5e b9 f3 cb 07 a0 ce 1e 37 d5
       85 104 -10 -86 11 -14 94 -71 -13 -53 7 -96 -50 30 55 -43
000020 34 26 e2 2b 1a 19 54 d9 b9 b5 b7 d0 40 c9 9f d0
       52 38 -30 43 26 25 84 -39 -71 -75 -73 -48 64 -55 -97 -48
000030 93 4e f6 ed 3f 9c 60 f9 48 8f ab 81 13 e3 0d cd
       -109 78 -10 -19 63 -100 96 -7 72 -113 -85 -127 19 -29 13 -51
000040 0a 02 00 1c f9 0e ed dc 11 13 11 e4 10 11 f7 f5
       10 2 0 28 -7 14 -19 -36 17 19 17 -28 16 17 -9 -11
000050 09 ef 20 ff fa fe 20 10 02 e2 e6 1f f8 20 1c 02
       9 -17 32 -1 -6 -2 32 16 2 -30 -26 31 -8 32 28 2
000060 f6 1c 0c 10 00 f1 11 e8 ec 0d 17 17 1f eb 09 12
       -10 28 12 16 0 -15 17 -24 -20 13 23 23 31 -21 9 18
000070 16 12 f8 fa fc 81 01 f7 fb fb 85 dc 27 03 f0 07
       22 18 -8 -6 -4 -127 1 -9 -5 -5 -123 -36 39 3 -16 7
000080 da e9 0b 15 d5 15 e8 19 44 7f d0 0d ee 20 0a 3d
       -38 -23 11 21 -43 21 -24 25 68 127 -48 13 -18 32 10 61
000090 d6 0f fb 30 ee f8 bc fb f6 1b 23 01 f7 f5 b8 04
       -42 15 -5 48 -18 -8 -68 -5 -10 27 35 1 -9 -11 -72 4
0000a0 28 ea 13 dc f2 22 0b 0e 0f 10 1c f5 f3 e3 e6 d3
       40 -22 19 -36 -14 34 11 14 15 16 28 -11 -13 -29 -26 -45
0000b0 1b 05 2d f0 d4 ca d8 2f d7 ff 19 eb 12 03 df d3
       27 5 45 -16 -44 -54 -40 47 -41 -1 25 -21 18 3 -33 -45
0000c0 29 1a 98 cc f8 4d 3b 1f 71 f0 ca d4 9f f5 c8 02
       41 26 -104 -52 -8 77 59 31 113 -16 -54 -44 -97 -11 -56 2
0000d0 27 f5 cb 25 fd fb 3f 58 2e 02 44 23 3a ee 7f 0b
       39 -11 -53 37 -3 -5 63 88 46 2 68 35 58 -18 127 11
0000e0 b6 f8 eb 08 da c4 11 f2 47 27 d8 d2 1a d0 28 19
       -74 -8 -21 8 -38 -60 17 -14 71 39 -40 -46 26 -48 40 25
0000f0 48 fa 22 fe 37 f3 c9 18 08 04 05 e3 ff 26 3e 06
       72 -6 34 -2 55 -13 -55 24 8 4 5 -29 -1 38 62 6

model/415/Conv2D i1 [4, 1, 1, 64]
000000 04 fb fa 07 07 f5 e1 05 f7 ec ef fe 0b 06 f9 f8
       4 -5 -6 7 7 -11 -31 5 -9 -20 -17 -2 11 6 -7 -8
000010 06 0d 1a f3 03 f2 fa f6 0a f4 0b ff f7 e8 7f a0
       6 13 26 -13 3 -14 -6 -10 10 -12 11 -1 -9 -24 127 -96
000020 fe 09 0c fa 0b 0f eb 04 fb 03 18 ee f7 ff f5 f8
       -2 9 12 -6 11 15 -21 4 -5 3 24 -18 -9 -1 -11 -8
000030 ff f6 23 02 f3 f4 02 0c 02 f9 00 0a f7 f0 05 f5
       -1 -10 35 2 -13 -12 2 12 2 -7 0 10 -9 -16 5 -11
000040 ec f0 fc 16 e9 f8 78 e1 eb a7 f4 06 f9 03 03 0a
       -20 -16 -4 22 -23 -8 120 -31 -21 -89 -12 6 -7 3 3 10
000050 00 09 1e fb 00 d6 f7 0e eb e3 f8 06 c8 06 7f 6b
       0 9 30 -5 0 -42 -9 14 -21 -29 -8 6 -56 6 127 107
000060 0d 2a 1e f1 01 15 d8 f7 ee f9 07 dd 00 df ed f0
       13 42 30 -15 1 21 -40 -9 -18 -7 7 -35 0 -33 -19 -16
000070 02 dc 37 08 fd e8 03 24 f1 f2 3b f7 fb ee 0c eb
       2 -36 55 8 -3 -24 3 36 -15 -14 59 -9 -5 -18 12 -21
000080 f5 eb fd 11 f5 f7 81 f7 e9 ef f7 07 07 07 00 08
       -11 -21 -3 17 -11 -9 -127 -9 -23 -17 -9 7 7 7 0 8
000090 05 0d 19 f6 01 db fa 06 f5 ea fb 00 ea fe e2 26
       5 13 25 -10 1 -37 -6 6 -11 -22 -5 0 -22 -2 -30 38
0000a0 09 1c 18 fd 05 0f e9 fb f7 fe 07 e3 fa f0 ef f9
       9 28 24 -3 5 15 -23 -5 -9 -2 7 -29 -6 -16 -17 -7
0000b0 f9 f0 27 03 f7 f1 fe 14 eb f5 25 00 fa f1 0e ee
       -7 -16 39 3 -9 -15 -2 20 -21 -11 37 0 -6 -15 14 -18
0000c0 00 f2 f9 0d 03 f6 3f 02 fe e3 f5 fe 11 04 06 00
       0 -14 -7 13 3 -10 63 2 -2 -29 -11 -2 17 4 6 0
0000d0 07 11 1f ea fe f8 fa 02 06 f2 0d 01 fe db 81 b3
       7 17 31 -22 -2 -8 -6 2 6 -14 13 1 -2 -37 -127 -77
0000e0 01 18 1a fe 0f 18 ee 03 f6 ff 17 f1 f6 fe f7 f8
       1 24 26 -2 15 24 -18 3 -10 -1 23 -15 -10 -2 -9 -8
0000f0 f3 f5 29 0d f4 f0 04 10 f9 f7 18 01 f3 ef 09 ef
       -13 -11 41 13 -12 -16 4 16 -7 -9 24 1 -13 -17 9 -17

model/417/Conv2D i1 [64, 1, 1, 4]
000000 7f 69 92 b4 46 81 91 46 25 03 81 29 be d0 81 b8
       127 105 -110 -76 70 -127 -111 70 37 3 -127 41 -66 -48 -127 -72
000010 81 dd eb 0e 81 30 f3 e3 b3 b2 81 8b 81 f1 ee 02
       -127 -35 -21 14 -127 48 -13 -29 -77 -78 -127 -117 -127 -15 -18 2
000020 cd 10 81 2f f9 81 44 cf 81 fc c8 a5 26 34 81 fa
       -51 16 -127 47 -7 -127 68 -49 -127 -4 -56 -91 38 52 -127 -6
000030 0d 2e f0 81 43 7f d5 ff 81 0d de 29 73 0a 81 e0
       13 46 -16 -127 67 127 -43 -1 -127 13 -34 41 115 10 -127 -32
000040 81 c2 05 3b 81 15 af aa e4 70 81 01 f0 26 81 e6
       -127 -62 5 59 -127 21 -81 -86 -28 112 -127 1 -16 38 -127 -26
000050 7f ef cc f3 ec e6 f4 81 81 cc e3 51 b4 4b 81 b3
       127 -17 -52 -13 -20 -26 -12 -127 -127 -52 -29 81 -76 75 -127 -77
000060 81 e1 e3 a7 66 29 e1 7f 81 5e 54 6a 9d 30 ae 81
       -127 -31 -29 -89 102 41 -31 127 -127 94 84 106 -99 48 -82 -127
000070 81 b2 f2 78 a9 d0 81 d2 92 81 87 95 81 ca b7 91
       -127 -78 -14 120 -87 -48 -127 -46 -110 -127 -121 -107 -127 -54 -73 -111
000080 fa ca 81 97 f4 90 81 00 04 81 b5 bf 73 89 81 98
       -6 -54 -127 -105 -12 -112 -127 0 4 -127 -75 -65 115 -119 -127 -104
000090 81 a5 98 0f a5 2a d4 81 03 81 e1 3c 81 a5 17 2e
       -127 -91 -104 15 -91 42 -44 -127 3 -127 -31 60 -127 -91 23 46
0000a0 7f 06 c9 14 81 9b 1e 34 84 81 ac be 81 ad d4 21
       127 6 -55 20 -127 -101 30 52 -124 -127 -84 -66 -127 -83 -44 33
0000b0 5e eb 81 d9 7f 35 a9 d3 81 da 05 14 7f 16 c8 d0
       94 -21 -127 -39 127 53 -87 -45 -127 -38 5 20 127 22 -56 -48
0000c0 81 ce 14 6f 05 ce 7f d5 a7 0b b1 81 81 47 ca e7
       -127 -50 20 111 5 -50 127 -43 -89 11 -79 -127 -127 71 -54 -25
0000d0 e1 81 b7 e1 81 8f d6 a0 f9 44 23 81 ae cd 81 9d
       -31 -127 -73 -31 -127 -113 -42 -96 -7 68 35 -127 -82 -51 -127 -99
0000e0 81 df 09 ea 81 ee bb f9 b4 ee dd 81 2e 7f f6 91
       -127 -33 9 -22 -127 -18 -69 -7 -76 -18 -35 -127 46 127 -10 -111
0000f0 7f fd d3 89 81 12 f9 d4 7f 0c a8 ec 7c db c2 81
       127 -3 -45 -119 -127 18 -7 -44 127 12 -88 -20 124 -37 -62 -127

model/421/Conv2D i1 [64, 1, 1, 64]
000000 12 fa f0 e7 da e8 fd 19 03 10 d1 2b 03 07 16 0b
       18 -6 -16 -25 -38 -24 -3 25 3 16 -47 43 3 7 22 11
000010 0b b7 05 2d 05 f3 06 d4 30 e1 fb 21 18 1e 1e 04
       11 -73 5 45 5 -13 6 -44 48 -31 -5 33 24 30 30 4
000020 0a d6 7f bc f7 dc da cf 5e d3 12 18 eb f9 e1 f0
       10 -42 127 -68 -9 -36 -38 -49 94 -45 18 24 -21 -7 -31 -16
000030 e5 26 e8 1e 15 1d 2a 1d e3 cc 06 1a d1 e1 03 15
       -27 38 -24 30 21 29 42 29 -29 -52 6 26 -47 -31 3 21
000040 0e b0 e8 cc b3 c4 10 fb f0 f3 ca fa 37 4f e9 cc
       14 -80 -24 -52 -77 -60 16 -5 -16 -13 -54 -6 55 79 -23 -52
000050 23 13 f9 cf e7 da 11 c5 fb 00 f8 81 15 0b 1e f3
       35 19 -7 -49 -25 -38 17 -59 -5 0 -8 -127 21 11 30 -13
000060 e2 e9 05 2e e0 26 48 28 03 ed 36 da 1d 0b b8 fa
       -30 -23 5 46 -32 38 72 40 3 -19 54 -38 29 11 -72 -6
000070 fb f9 bc 23 bb ee 05 f4 fa 0b 18 e2 00 df 09 0d
       -5 -7 -68 35 -69 -18 5 -12 -6 11 24 -30 0 -33 9 13
000080 d2 bc a2 b8 f1 e0 fc 18 31 cf 7f 00 dc eb 08 21
       -46 -68 -94 -72 -15 -32 -4 24 49 -49 127 0 -36 -21 8 33
000090 ed a9 f4 32 ec ff f4 b0 10 e6 df 2c d9 05 20 19
       -19 -87 -12 50 -20 -1 -12 -80 16 -26 -33 44 -39 5 32 25
0000a0 3b f7 72 2c 17 df 57 f2 e1 13 f1 1c e8 0b d7 00
       59 -9 114 44 23 -33 87 -14 -31 19 -15 28 -24 11 -41 0
0000b0 fe ef d9 ec 15 3d db ec 16 f6 e6 04 19 2f 25 c3
       -2 -17 -39 -20 21 61 -37 -20 22 -10 -26 4 25 47 37 -61
0000c0 1c 0a 2b 3c 08 09 f2 fa f6 11 23 0d 17 17 15 fe
       28 10 43 60 8 9 -14 -6 -10 17 35 13 23 23 21 -2
0000d0 10 00 36 00 d5 eb f3 42 a8 e3 3d df 04 ea f4 07
       16 0 54 0 -43 -21 -13 66 -88 -29 61 -33 4 -22 -12 7
0000e0 36 fd c7 d4 17 07 03 f5 55 26 14 7f f9 01 a2 07
       54 -3 -57 -44 23 7 3 -11 85 38 20 127 -7 1 -94 7
0000f0 f9 e7 0d 28 f0 00 ed f7 01 e8 02 dd ef 19 d6 ba
       -7 -25 13 40 -16 0 -19 -9 1 -24 2 -35 -17 25 -42 -70

model/425/FusedBatchNormV3;model/424/depthwise;model/536/Conv2D i1 [1, 3, 3, 64]
000000 eb 05 04 ea 08 47 fa ec cd c0 d8 ec 09 f3 e0 1b
       -21 5 4 -22 8 71 -6 -20 -51 -64 -40 -20 9 -13 -32 27
000010 d7 c4 fc 47 08 ea 05 f2 05 d5 ee fe 32 db d5 e0
       -41 -60 -4 71 8 -22 5 -14 5 -43 -18 -2 50 -37 -43 -32
000020 10 f9 1a 14 cd 0a 1e f7 0b bf 93 c8 00 d6 4f 16
       16 -7 26 20 -51 10 30 -9 11 -65 -109 -56 0 -42 79 22
000030 00 28 bf 12 d9 38 00 e2 fd f8 f9 b2 dd b7 04 da
       0 40 -65 18 -39 56 0 -30 -3 -8 -7 -78 -35 -73 4 -38
000040 fb e9 f4 bd 01 65 f9 e2 dc c3 0e fb 7f 46 18 1f
       -5 -23 -12 -67 1 101 -7 -30 -36 -61 14 -5 127 70 24 31
000050 24 cf 7f 4e d1 ff 94 ca 53 c6 bf f5 7f f3 df ee
       36 -49 127 78 -47 -1 -108 -54 83 -58 -65 -11 127 -13 -33 -18
000060 18 d3 01 be b6 7f 17 46 1e 55 9b 7f c5 81 69 58
       24 -45 1 -66 -74 127 23 70 30 85 -101 127 -59 -127 105 88
000070 00 15 a6 f6 97 29 00 01 cc e9 35 81 f1 de d3 a6
       0 21 -90 -10 -105 41 0 1 -52 -23 53 -127 -15 -34 -45 -90
000080 e1 d9 04 ea 00 44 fd e3 a9 0a 0d ee 0b e9 32 20
       -31 -39 4 -22 0 68 -3 -29 -87 10 13 -18 11 -23 50 32
000090 11 c9 03 43 0a 25 0f 0c 1d cf e9 ff 26 d9 04 e2
       17 -55 3 67 10 37 15 12 29 -49 -23 -1 38 -39 4 -30
0000a0 da fd f3 05 c1 0c bd f9 09 fd 81 ce 0c cd 5d 04
       -38 -3 -13 5 -63 12 -67 -7 9 -3 -127 -50 12 -51 93 4
0000b0 00 dc c1 10 da 41 00 de f8 fd f4 b6 1f b4 03 de
       0 -36 -63 16 -38 65 0 -34 -8 -3 -12 -74 31 -76 3 -34
0000c0 ae ef f6 05 a9 09 03 e8 8d 9f 4f 0f 04 9e c4 27
       -82 -17 -10 5 -87 9 3 -24 -115 -97 79 15 4 -98 -60 39
0000d0 7f 91 fa 2d 12 08 8f 8c c8 e8 7f b2 13 05 7f 09
       127 -111 -6 45 18 8 -113 -116 -56 -24 127 -78 19 5 127 9
0000e0 dd 01 e6 7f 6a f2 c2 1b 26 81 a0 38 cb 26 23 7f
       -35 1 -26 127 106 -14 -62 27 38 -127 -96 56 -53 38 35 127
0000f0 00 4c e0 09 ad 7f 00 81 c0 04 e0 47 fe 95 0b a2
       0 76 -32 9 -83 127 0 -127 -64 4 -32 71 -2 -107 11 -94

model/427/Conv2D i1 [64, 1, 1, 64]
000000 c1 1e a2 d2 05 f9 f2 15 3c 37 ef 7f 0c db e5 1f
       -63 30 -94 -46 5 -7 -14 21 60 55 -17 127 12 -37 -27 31
000010 ed 1f d6 b6 fe 00 ea 09 e2 34 04 3c ff a0 25 2a
       -19 31 -42 -74 -2 0 -22 9 -30 52 4 60 -1 -96 37 42
000020 1b fd 5a be e5 43 3d 18 24 e8 f3 9e bc ef e0 e5
       27 -3 90 -66 -27 67 61 24 36 -24 -13 -98 -68 -17 -32 -27
000030 00 07 3b b2 af 1a 00 c9 30 82 e2 11 1e fb b6 46
       0 7 59 -78 -81 26 0 -55 48 -126 -30 17 30 -5 -74 70
000040 e4 34 c5 64 f6 e6 81 e9 c6 f8 ad 5c 60 41 94 09
       -28 52 -59 100 -10 -26 -127 -23 -58 -8 -83 92 96 65 -108 9
000050 18 e9 e2 3d 16 c2 1f 13 1c b5 09 fc 2c ff 5f 32
       24 -23 -30 61 22 -62 31 19 28 -75 9 -4 44 -1 95 50
000060 cb 8d 31 ef 1e ec 0b 25 ef 1c c2 05 d1 1b a7 28
       -53 -115 49 -17 30 -20 11 37 -17 28 -62 5 -47 27 -89 40
000070 00 ad 42 75 3b dc 00 9a e8 e3 01 d0 0d 41 f0 c6
       0 -83 66 117 59 -36 0 -102 -24 -29 1 -48 13 65 -16 -58
000080 2e 7f c3 00 21 2d df ae ef e0 fa fe 0b fd 12 20
       46 127 -61 0 33 45 -33 -82 -17 -32 -6 -2 11 -3 18 32
000090 00 12 f5 e0 35 eb 08 f4 0b d1 c3 09 20 d3 77 36
       0 18 -11 -32 53 -21 8 -12 11 -47 -61 9 32 -45 119 54
0000a0 ed 26 11 d1 0f fc 0b ed dc cb d5 e6 ce 1c b4 04
       -19 38 17 -47 15 -4 11 -19 -36 -53 -43 -26 -50 28 -76 4
0000b0 00 15 20 eb f2 14 00 13 03 fb 04 58 09 fa fb dd
       0 21 32 -21 -14 20 0 19 3 -5 4 88 9 -6 -5 -35
0000c0 e4 a2 de 09 ff fd 03 46 f0 15 cf f1 0d 66 ea 00
       -28 -94 -34 9 -1 -3 3 70 -16 21 -49 -15 13 102 -22 0
0000d0 02 c2 de c0 c8 4f e4 26 42 f8 e9 3d 04 0d 32 17
       2 -62 -34 -64 -56 79 -28 38 66 -8 -23 61 4 13 50 23
0000e0 7f 09 c6 e0 1d ca 6c ff c8 e9 a2 c0 d3 17 f7 f0
       127 9 -58 -32 29 -54 108 -1 -56 -23 -94 -64 -45 23 -9 -16
0000f0 00 46 0f be ca 0e 00 dc 8c f2 13 03 be eb 0d ff
       0 70 15 -66 -54 14 0 -36 -116 -14 19 3 -66 -21 13 -1

model/430/Conv2D i1 [4, 1, 1, 64]
000000 ff fa 0c 01 ff f8 21 f9 09 fd 0e 0e 01 ee 0e fd
       -1 -6 12 1 -1 -8 33 -7 9 -3 14 14 1 -18 14 -3
000010 10 52 08 eb f9 06 02 17 03 03 0b dd fd 09 f1 fd
       16 82 8 -21 -7 6 2 23 3 3 11 -35 -3 9 -15 -3
000020 00 01 16 01 ff fc 0a 04 05 04 09 04 f7 ff fe fd
       0 1 22 1 -1 -4 10 4 5 4 9 4 -9 -1 -2 -3
000030 7f 03 12 01 fa 12 fb 05 fb f8 00 02 08 12 f7 02
       127 3 18 1 -6 18 -5 5 -5 -8 0 2 8 18 -9 2
000040 fd ec 09 ff fb 05 81 f2 17 02 1a 0c f8 f0 24 09
       -3 -20 9 -1 -5 5 -127 -14 23 2 26 12 -8 -16 36 9
000050 12 bf 0b f9 00 06 05 1d 08 05 fe b9 fc 11 f2 09
       18 -65 11 -7 0 6 5 29 8 5 -2 -71 -4 17 -14 9
000060 fb 02 f9 fb f5 0b 0d 00 08 fa f9 06 ee f0 f9 fc
       -5 2 -7 -5 -11 11 13 0 8 -6 -7 6 -18 -16 -7 -4
000070 33 f9 16 07 0a 18 fd 04 fb f2 08 fa 03 0e fe 01
       51 -7 22 7 10 24 -3 4 -5 -14 8 -6 3 14 -2 1
000080 f8 f2 08 e0 fe ff 70 ef 0e fd 1c 11 11 ee 1f 07
       -8 -14 8 -32 -2 -1 112 -17 14 -3 28 17 17 -18 31 7
000090 07 2c 0d f6 eb 04 fd 1e 09 f7 01 be f0 0d fd 0d
       7 44 13 -10 -21 4 -3 30 9 -9 1 -66 -16 13 -3 13
0000a0 06 09 0d 03 05 f7 09 06 00 f9 03 06 f4 06 fb fb
       6 9 13 3 5 -9 9 6 0 -7 3 6 -12 6 -5 -5
0000b0 81 fa 0b 03 fd 09 ee 03 00 ed fa 08 06 fd fa 07
       -127 -6 11 3 -3 9 -18 3 0 -19 -6 8 6 -3 -6 7
0000c0 01 f7 07 0d 01 fb 81 f9 08 fe 06 08 02 f9 0b fd
       1 -9 7 13 1 -5 -127 -7 8 -2 6 8 2 -7 11 -3
0000d0 05 4c 02 f8 00 04 ff 0e 01 08 07 f0 07 02 f3 fd
       5 76 2 -8 0 4 -1 14 1 8 7 -16 7 2 -13 -3
0000e0 fe f9 0c ff fb 02 13 03 03 02 02 01 fa fc fd fe
       -2 -7 12 -1 -5 2 19 3 3 2 2 1 -6 -4 -3 -2
0000f0 d4 04 04 fa fe 0a fb 01 01 02 05 06 01 04 fc 05
       -44 4 4 -6 -2 10 -5 1 1 2 5 6 1 4 -4 5

model/432/Conv2D i1 [64, 1, 1, 4]
000000 be 45 ce 7f 1d 81 26 d1 1d 8a 59 7f 03 2f 7f f8
       -66 69 -50 127 29 -127 38 -47 29 -118 89 127 3 47 127 -8
000010 56 c9 40 81 d1 10 07 81 98 81 dd 97 4f db 08 81
       86 -55 64 -127 -47 16 7 -127 -104 -127 -35 -105 79 -37 8 -127
000020 9a a4 3b 81 02 1a 81 fa 21 d9 51 81 04 57 f5 7f
       -102 -92 59 -127 2 26 -127 -6 33 -39 81 -127 4 87 -11 127
000030 d4 16 0a 7f 7f f4 d2 cd a3 81 9a b5 c1 fc 03 7f
       -44 22 10 127 127 -12 -46 -51 -93 -127 -102 -75 -63 -4 3 127
000040 81 f2 62 1f 91 d2 81 a4 66 2f 9d 81 1b 81 5b 0a
       -127 -14 98 31 -111 -46 -127 -92 102 47 -99 -127 27 -127 91 10
000050 7f 97 36 17 17 04 7f 26 4e 91 7f 32 13 dd f5 7f
       127 -105 54 23 23 4 127 38 78 -111 127 50 19 -35 -11 127
000060 e1 4f ff 7f 13 ba 37 7f b6 01 7f b3 e0 81 a7 27
       -31 79 -1 127 19 -70 55 127 -74 1 127 -77 -32 -127 -89 39
000070 07 7f af 5d 81 b8 56 0c 81 06 4f 39 e2 cb 7f 30
       7 127 -81 93 -127 -72 86 12 -127 6 79 57 -30 -53 127 48
000080 81 f6 14 f6 7f 9c cf 8e 81 33 e8 a6 df a0 1a 7f
       -127 -10 20 -10 127 -100 -49 -114 -127 51 -24 -90 -33 -96 26 127
000090 45 ec 7f 10 c3 cf 7f e9 f0 81 41 ad 29 1a 7f 1a
       69 -20 127 16 -61 -49 127 -23 -16 -127 65 -83 41 26 127 26
0000a0 81 01 1e 62 81 e8 33 b4 27 c2 00 81 81 fd b3 62
       -127 1 30 98 -127 -24 51 -76 39 -62 0 -127 -127 -3 -77 98
0000b0 eb 81 50 d6 fb c0 69 81 eb 1c 97 7f 62 ca bd 81
       -21 -127 80 -42 -5 -64 105 -127 -21 28 -105 127 98 -54 -67 -127
0000c0 84 81 ae a5 7f 2a f0 67 81 c5 4a 48 4b 1b c5 81
       -124 -127 -82 -91 127 42 -16 103 -127 -59 74 72 75 27 -59 -127
0000d0 29 a7 61 81 81 d0 64 e4 06 a5 25 7f f9 7f a1 ec
       41 -89 97 -127 -127 -48 100 -28 6 -91 37 127 -7 127 -95 -20
0000e0 5b 26 a1 81 0a 8d 7f 85 49 ef ef 81 b1 f7 6f 81
       91 38 -95 -127 10 -115 127 -123 73 -17 -17 -127 -79 -9 111 -127
0000f0 99 39 4a 7f fc 81 68 b7 3a 98 7f 1b 41 b7 c5 81
       -103 57 74 127 -4 -127 104 -73 58 -104 127 27 65 -73 -59 -127
