application/network_application/eaif_server/models/facereco/onet_quant.tflite (tflite, 412928 bytes, 13 tensors)

model_2/conv1/Conv2D i1 [32, 3, 3, 3]
000000 79 76 54 72 70 5b 36 2a 23 4c 4b 38 e9 e9 ec 82
       121 118 84 114 112 91 54 42 35 76 75 56 -23 -23 -20 -126
000010 81 96 f0 ea e4 a5 a2 b5 a2 a6 cd 86 9e a1 e0 f7
       -127 -106 -16 -22 -28 -91 -94 -75 -94 -90 -51 -122 -98 -95 -32 -9
000020 f4 35 55 49 95 b7 b4 05 29 1e 5a 7f 72 aa c7 c1
       -12 53 85 73 -107 -73 -76 5 41 30 90 127 114 -86 -57 -63
000030 ed 13 0a 39 5e 53 69 54 43 25 1b 15 ba b5 c7 7d
       -19 19 10 57 94 83 105 84 67 37 27 21 -70 -75 -57 125
000040 6a 58 09 05 03 8f 98 ae 61 54 42 dc df e0 81 94
       106 88 9 5 3 -113 -104 -82 97 84 66 -36 -33 -32 -127 -108
000050 ae d0 29 42 b5 10 2e c8 1f 36 a8 0b 33 81 e5 13
       -82 -48 41 66 -75 16 46 -56 31 54 -88 11 51 -127 -27 19
000060 c2 1f 43 db 2f 56 b4 05 2d d8 23 45 d5 e3 ea 2f
       -62 31 67 -37 47 86 -76 5 45 -40 35 69 -43 -29 -22 47
000070 31 2a 7f 75 61 a2 b8 c0 f8 03 fc 4b 48 36 96 aa
       49 42 127 117 97 -94 -72 -64 -8 3 -4 75 72 54 -106 -86
000080 ad cc d5 cf 1a 16 05 0d 06 05 60 5a 4b 6b 62 48
       -83 -52 -43 -49 26 22 5 13 6 5 96 90 75 107 98 72
000090 81 83 97 e2 e3 e3 52 4e 39 bb c8 e9 b1 b8 c5 0a
       -127 -125 -105 -30 -29 -29 82 78 57 -69 -56 -23 -79 -72 -59 10
0000a0 0a 00 8c a3 a9 8a a1 9e 8c 9d 9e f7 08 fc fe 14
       10 0 -116 -93 -87 -118 -95 -98 -116 -99 -98 -9 8 -4 -2 20
0000b0 02 f4 07 f7 5a 6d 5c 6b 7f 69 52 69 58 90 98 ac
       2 -12 7 -9 90 109 92 107 127 105 82 105 88 -112 -104 -84
0000c0 12 0a 0b 75 5f 4e 84 95 ac 08 04 04 7f 64 54 8b
       18 10 11 117 95 78 -124 -107 -84 8 4 4 127 100 84 -117
0000d0 97 ac 04 fc fb 6f 57 45 d2 6a 6d c1 60 69 a5 38
       -105 -84 4 -4 -5 111 87 69 -46 106 109 -63 96 105 -91 56
0000e0 42 d5 7f 7c d3 72 7a b4 57 57 d0 61 61 c9 5a 5d
       66 -43 127 124 -45 114 122 -76 87 87 -48 97 97 -55 90 93
0000f0 b0 3e 43 9c 81 f3 ad 9e 09 d5 c0 27 a3 96 15 ad
       -80 62 67 -100 -127 -13 -83 -98 9 -43 -64 39 -93 -106 21 -83

model_2/prelu1/add;model_2/prelu1/Relu;model_2/prelu1/Neg_1;model_2/prelu1/Relu_1;model_2/prelu1/mul i1 [1, 1, 32] scale=0.005096207 zero_point=0
000000 0c 00 17 48 a4 0d e9 25 fc 03 02 7f 1c 32 02 e4
       0.061154485 0.0 0.11721276 0.3669269 -0.46885103 0.06625069 -0.11721276 0.18855965 -0.020384828 0.015288621 0.010192414 0.6472183 0.14269379 0.25481033 0.010192414 -0.14269379
000010 00 d0 38 f4 31 00 04 e1 06 2e 3e fe 52 d3 fd 47
       0.0 -0.24461794 0.28538758 -0.061154485 0.24971414 0.0 0.020384828 -0.15798241 0.030577242 0.23442551 0.31596482 -0.010192414 0.41788897 -0.22932932 -0.015288621 0.36183068

model_2/conv2/Conv2D i1 [64, 3, 3, 32]
000000 d5 f8 03 34 00 cd d6 de fb 1d b5 f1 e0 05 c6 2b
       -43 -8 3 52 0 -51 -42 -34 -5 29 -75 -15 -32 5 -58 43
000010 d8 d1 fe 23 b0 da e9 15 f7 08 55 fd 2a 09 ef f7
       -40 -47 -2 35 -80 -38 -23 21 -9 8 85 -3 42 9 -17 -9
000020 a4 f7 d4 1f 02 d2 ca af f4 12 c9 e9 e1 b7 cb 27
       -92 -9 -44 31 2 -46 -54 -81 -12 18 -55 -23 -31 -73 -53 39
000030 cd c7 f6 27 ba dc f1 15 ed fb 1e f8 1b ea e8 f0
       -51 -57 -10 39 -70 -36 -15 21 -19 -5 30 -8 27 -22 -24 -16
000040 8d f0 cb 1e fd e8 cb bb f2 14 d2 ea dd b5 cb 22
       -115 -16 -53 30 -3 -24 -53 -69 -14 20 -46 -22 -35 -75 -53 34
000050 cf cd f4 1a d4 e0 f0 19 ea ff 25 f7 1c d9 ec ef
       -49 -51 -12 26 -44 -32 -16 25 -22 -1 37 -9 28 -39 -20 -17
000060 3c fa 51 37 02 e1 09 dc fa f3 b4 02 c5 fc b9 18
       60 -6 81 55 2 -31 9 -36 -6 -13 -76 2 -59 -4 -71 24
000070 f9 e7 fa 14 15 ed c3 f0 f5 e7 34 00 58 1e ea fe
       -7 -25 -6 20 21 -19 -61 -16 -11 -25 52 0 88 30 -22 -2
000080 1b fe 11 1e f2 e0 00 d0 ec f3 cb f2 c1 e7 b0 1a
       27 -2 17 30 -14 -32 0 -48 -20 -13 -53 -14 -63 -25 -80 26
000090 f8 da f5 19 1b f2 d0 eb ef df 17 f6 1c f0 e4 f6
       -8 -38 -11 25 27 -14 -48 -21 -17 -33 23 -10 28 -16 -28 -10
0000a0 fe f4 02 1f dc e1 fc ec e9 f7 d4 ec c1 e9 b7 1a
       -2 -12 2 31 -36 -31 -4 -20 -23 -9 -44 -20 -63 -23 -73 26
0000b0 f5 da f3 0c 0d f9 d0 ea ed e6 0b f6 1d ec e7 f0
       -11 -38 -13 12 13 -7 -48 -22 -19 -26 11 -10 29 -20 -25 -16
0000c0 71 fe 54 52 c6 03 23 e9 fd 02 ac 29 a9 e8 ba 1f
       113 -2 84 82 -58 3 35 -23 -3 2 -84 41 -87 -24 -70 31
0000d0 0d f5 fc e7 3f e6 f7 98 f6 0a 0a 04 23 05 fc fb
       13 -11 -4 -25 63 -26 -9 -104 -10 10 10 4 35 5 -4 -5
0000e0 54 f9 15 32 a7 0b 1a df ed 02 bf 0b af f1 b1 1b
       84 -7 21 50 -89 11 26 -33 -19 2 -65 11 -81 -15 -79 27
0000f0 06 e6 f4 f5 56 f3 f9 aa f3 00 fa ff ed d9 f6 f1
       6 -26 -12 -11 86 -13 -7 -86 -13 0 -6 -1 -19 -39 -10 -15

model_2/prelu2/add;model_2/prelu2/Relu;model_2/prelu2/Neg_1;model_2/prelu2/Relu_1;model_2/prelu2/mul i1 [1, 1, 64] scale=0.0059390822 zero_point=0
000000 ec 02 07 47 10 06 15 19 fe 23 09 ff 25 1e 0e 00
       -0.11878164 0.0118781645 0.041573577 0.42167485 0.095025316 0.035634495 0.12472073 0.14847706 -0.0118781645 0.20786788 0.05345174 -0.0059390822 0.21974604 0.17817247 0.08314715 0.0
000010 34 10 13 ff f9 16 0f 17 ff 22 ff 00 09 0b 0e ed
       0.3088323 0.095025316 0.11284256 -0.0059390822 -0.041573577 0.1306598 0.089086235 0.13659889 -0.0059390822 0.2019288 -0.0059390822 0.0 0.05345174 0.0653299 0.08314715 -0.11284256
000020 09 0e 13 fa fd f5 10 ff fe 27 10 df 4b 11 09 f4
       0.05345174 0.08314715 0.11284256 -0.035634495 -0.017817248 -0.0653299 0.095025316 -0.0059390822 -0.0118781645 0.2316242 0.095025316 -0.19598971 0.44543117 0.1009644 0.05345174 -0.07126899
000030 17 10 20 03 7f 07 ff eb 15 0f 04 f5 0f 44 0e 18
       0.13659889 0.095025316 0.19005063 0.017817248 0.75426346 0.041573577 -0.0059390822 -0.12472073 0.12472073 0.089086235 0.023756329 -0.0653299 0.089086235 0.4038576 0.08314715 0.14253798

model_2/conv3/Conv2D i1 [64, 3, 3, 64]
000000 f6 01 22 3b 43 f8 09 e1 f5 15 0c ee f9 fc 0e 12
       -10 1 34 59 67 -8 9 -31 -11 21 12 -18 -7 -4 14 18
000010 1f f5 04 11 37 e5 05 ea 11 18 fb e1 f6 3a fc 0f
       31 -11 4 17 55 -27 5 -22 17 24 -5 -31 -10 58 -4 15
000020 af e4 36 1d ea e8 d6 03 0d 18 f2 fd 2d fa fb f8
       -81 -28 54 29 -22 -24 -42 3 13 24 -14 -3 45 -6 -5 -8
000030 e8 00 fd fd 88 f6 f2 ee 02 e2 03 fc 09 f4 f2 12
       -24 0 -3 -3 -120 -10 -14 -18 2 -30 3 -4 9 -12 -14 18
000040 f3 00 0f 24 21 f8 1f fa 0c 15 02 00 01 d3 07 f1
       -13 0 15 36 33 -8 31 -6 12 21 2 0 1 -45 7 -15
000050 28 00 ff f2 25 f4 ff f0 f7 03 f4 e7 ec 1c 00 08
       40 0 -1 -14 37 -12 -1 -16 -9 3 -12 -25 -20 28 0 8
000060 bf 04 20 32 db f7 fe 09 10 0a fb e6 18 fa f4 04
       -65 4 32 50 -37 -9 -2 9 16 10 -5 -26 24 -6 -12 4
000070 02 e4 da 00 a1 fe f9 f7 0e e0 fd 05 09 fa fe 00
       2 -28 -38 0 -95 -2 -7 -9 14 -32 -3 5 9 -6 -2 0
000080 07 00 08 35 fc 08 15 f3 1b 14 05 08 05 a3 fd fa
       7 0 8 53 -4 8 21 -13 27 20 5 8 5 -93 -3 -6
000090 fd 05 e9 e0 38 f3 01 03 ef 0f f5 ef fc 09 05 00
       -3 5 -23 -32 56 -13 1 3 -17 15 -11 -17 -4 9 5 0
0000a0 aa fe 38 41 cf fa eb 10 f7 2c 06 b7 03 ec f5 03
       -86 -2 56 65 -49 -6 -21 16 -9 44 6 -73 3 -20 -11 3
0000b0 ea ed f5 00 96 03 fb 19 f9 ff e8 f5 08 05 e9 16
       -22 -19 -11 0 -106 3 -5 25 -7 -1 -24 -11 8 5 -23 22
0000c0 04 00 f7 f7 16 0b ee f6 f3 fe 07 e1 fb 02 f2 12
       4 0 -9 -9 22 11 -18 -10 -13 -2 7 -31 -5 2 -14 18
0000d0 12 d7 f4 23 1d f9 00 14 ed 00 00 ec fd 27 f0 f6
       18 -41 -12 35 29 -7 0 20 -19 0 0 -20 -3 39 -16 -10
0000e0 dd 25 14 f7 e9 00 e3 f2 f5 03 fd 04 ff fb f0 00
       -35 37 20 -9 -23 0 -29 -14 -11 3 -3 4 -1 -5 -16 0
0000f0 db 0d 02 f7 f5 06 f2 0c 02 e5 15 f6 fc 0a 00 11
       -37 13 2 -9 -11 6 -14 12 2 -27 21 -10 -4 10 0 17

model_2/prelu3/add;model_2/prelu3/Relu;model_2/prelu3/Neg_1;model_2/prelu3/Relu_1;model_2/prelu3/mul i1 [1, 1, 64] scale=0.004141985 zero_point=0
000000 c4 2c 24 34 3c 46 23 01 22 1a 10 16 1f 19 b8 f9
       -0.2485191 0.18224734 0.14911146 0.21538322 0.2485191 0.28993896 0.14496948 0.004141985 0.14082749 0.10769161 0.06627176 0.09112367 0.12840153 0.10354962 -0.29822293 -0.028993895
000010 43 26 30 05 06 07 03 22 3e 2d 7f 05 11 d9 25 fd
       0.277513 0.15739542 0.19881529 0.020709924 0.02485191 0.028993895 0.012425955 0.14082749 0.25680307 0.18638933 0.5260321 0.020709924 0.070413746 -0.16153741 0.15325345 -0.012425955
000020 0f 1d 2a 2e 36 12 20 2b 28 1d 14 31 28 1e 1d 33
       0.062129773 0.12011757 0.17396337 0.19053131 0.22366719 0.07455573 0.13254352 0.17810535 0.1656794 0.12011757 0.0828397 0.20295726 0.1656794 0.12425955 0.12011757 0.21124123
000030 32 13 00 21 17 11 02 21 19 18 05 2f 3f 20 03 21
       0.20709924 0.07869771 0.0 0.1366855 0.09526566 0.070413746 0.00828397 0.1366855 0.10354962 0.09940764 0.020709924 0.1946733 0.26094505 0.13254352 0.012425955 0.1366855

model_2/conv4/Conv2D i1 [128, 2, 2, 64]
000000 1c e3 20 fb e6 dc 0b 05 d7 e8 00 e9 22 0c 0e 30
       28 -29 32 -5 -26 -36 11 5 -41 -24 0 -23 34 12 14 48
000010 22 26 14 1f 29 13 df f3 f9 cc 13 0b 18 cb fd 3b
       34 38 20 31 41 19 -33 -13 -7 -52 19 11 24 -53 -3 59
000020 04 f1 81 49 07 1f ce 20 02 12 10 fc f7 dc 06 42
       4 -15 -127 73 7 31 -50 32 2 18 16 -4 -9 -36 6 66
000030 f1 ed 08 f1 0e dc 14 d8 e0 0c f0 e6 bf cf f1 65
       -15 -19 8 -15 14 -36 20 -40 -32 12 -16 -26 -65 -49 -15 101
000040 28 e0 f1 a3 dd e4 cf f6 c2 e7 f2 ff 0e ef 20 21
       40 -32 -15 -93 -35 -28 -49 -10 -62 -25 -14 -1 14 -17 32 33
000050 2c f9 0f 1f 04 fe 0c bf 35 de 00 47 0e c5 08 48
       44 -7 15 31 4 -2 12 -65 53 -34 0 71 14 -59 8 72
000060 fa e2 cb 07 08 0f d1 f3 cb 22 e8 f3 1d df fd 40
       -6 -30 -53 7 8 15 -47 -13 -53 34 -24 -13 29 -33 -3 64
000070 d6 12 f1 42 03 e3 35 d6 de 38 01 21 fd fb ea 3b
       -42 18 -15 66 3 -29 53 -42 -34 56 1 33 -3 -5 -22 59
000080 16 db ff ff fd f9 f1 f2 fc 00 0b f6 ea 27 15 00
       22 -37 -1 -1 -3 -7 -15 -14 -4 0 11 -10 -22 39 21 0
000090 e8 ef 11 f5 ed 13 18 ea f0 f7 0a f7 fa 07 fb 21
       -24 -17 17 -11 -19 19 24 -22 -16 -9 10 -9 -6 7 -5 33
0000a0 1c e8 07 0d 0a 38 e9 07 fb 13 29 f7 0d ea 23 1a
       28 -24 7 13 10 56 -23 7 -5 19 41 -9 13 -22 35 26
0000b0 2e 10 ff 2c 03 0a e8 fb fd 00 ff cb ef ef 23 21
       46 16 -1 44 3 10 -24 -5 -3 0 -1 -53 -17 -17 35 33
0000c0 0e d6 04 08 07 ee c4 f8 eb f6 cf ec 0b 16 1d 13
       14 -42 4 8 7 -18 -60 -8 -21 -10 -49 -20 11 22 29 19
0000d0 18 fe 29 eb f6 00 2a d4 22 f6 2c fa 11 fc f8 25
       24 -2 41 -21 -10 0 42 -44 34 -10 44 -6 17 -4 -8 37
0000e0 f3 f1 f8 f6 d6 36 fa f0 df 1a fc e1 10 df 20 ef
       -13 -15 -8 -10 -42 54 -6 -16 -33 26 -4 -31 16 -33 32 -17
0000f0 30 1b ec 2e 04 05 1c e6 f2 0b fe f9 12 fa 23 f8
       48 27 -20 46 4 5 28 -26 -14 11 -2 -7 18 -6 35 -8

model_2/prelu4/add;model_2/prelu4/Relu;model_2/prelu4/Neg_1;model_2/prelu4/Relu_1;model_2/prelu4/mul i1 [1, 1, 128] scale=0.0024928448 zero_point=0
000000 ca 02 c0 f0 e0 b9 ac e5 bb db d9 d3 df f5 cd aa
       -0.13461362 0.0049856897 -0.15954207 -0.039885517 -0.079771034 -0.17699198 -0.20939897 -0.06730681 -0.1720063 -0.09223526 -0.09722095 -0.11217802 -0.08226388 -0.027421294 -0.12713508 -0.21438466
000010 01 aa c4 e5 15 d8 f1 e4 ed d3 db cc e6 ae bb fd
       0.0024928448 -0.21438466 -0.14957069 -0.06730681 0.052349743 -0.099713795 -0.037392672 -0.069799654 -0.047364052 -0.11217802 -0.09223526 -0.12962793 -0.064813964 -0.20441328 -0.1720063 -0.0074785342
000020 f6 ee c7 f7 f7 c1 dc e4 b8 f7 ef 0d 1a b3 a0 e9
       -0.024928449 -0.044871207 -0.14209215 -0.022435604 -0.022435604 -0.15704922 -0.089742415 -0.069799654 -0.17948483 -0.022435604 -0.042378362 0.032406982 0.064813964 -0.19194905 -0.2393131 -0.057335433
000030 d7 f9 e5 f0 f5 02 cc bf d5 9f b8 01 81 b0 b8 df
       -0.10220664 -0.017449914 -0.06730681 -0.039885517 -0.027421294 0.0049856897 -0.12962793 -0.16203491 -0.10719233 -0.24180594 -0.17948483 0.0024928448 -0.3165913 -0.19942759 -0.17948483 -0.08226388
000040 fa 09 dc 14 b5 d4 cf ef 10 fb 0b 9f 03 b3 ef f7
       -0.0149570685 0.022435604 -0.089742415 0.049856897 -0.18696336 -0.109685175 -0.12214939 -0.042378362 0.039885517 -0.012464224 0.027421294 -0.24180594 0.0074785342 -0.19194905 -0.042378362 -0.022435604
000050 e1 14 e8 f7 c0 10 c0 1a d3 d9 cb e4 ce f6 f4 f2
       -0.07727819 0.049856897 -0.059828274 -0.022435604 -0.15954207 0.039885517 -0.15954207 0.064813964 -0.11217802 -0.09722095 -0.13212077 -0.069799654 -0.12464224 -0.024928449 -0.029914137 -0.034899827
000060 d3 c3 ca c3 8e b2 04 dc fc fd db c6 0a e4 d4 c0
       -0.11217802 -0.15206353 -0.13461362 -0.15206353 -0.2841843 -0.1944419 0.009971379 -0.089742415 -0.009971379 -0.0074785342 -0.09223526 -0.144585 0.024928449 -0.069799654 -0.109685175 -0.15954207
000070 13 c0 01 eb ff e8 d0 1b 0c c8 f0 bd f2 dd f8 26
       0.047364052 -0.15954207 0.0024928448 -0.052349743 -0.0024928448 -0.059828274 -0.11965655 0.06730681 0.029914137 -0.13959931 -0.039885517 -0.1670206 -0.034899827 -0.08724957 -0.019942759 0.094728105

model_2/conv5/Conv2D i1 [256, 3, 3, 128]
000000 1a fb fb 0a f7 04 f9 fe 00 ef 01 f1 05 0d fb 02
       26 -5 -5 10 -9 4 -7 -2 0 -17 1 -15 5 13 -5 2
000010 03 03 07 ff 18 eb fa fe 02 f3 05 fc 07 0f ff 0f
       3 3 7 -1 24 -21 -6 -2 2 -13 5 -4 7 15 -1 15
000020 f9 0b f9 fe 03 f3 0a 02 f3 02 04 ff 0a fa 0d 0b
       -7 11 -7 -2 3 -13 10 2 -13 2 4 -1 10 -6 13 11
000030 03 0c 07 f6 fb ff 0b 00 02 0a fc df 10 06 fe fc
       3 12 7 -10 -5 -1 11 0 2 10 -4 -33 16 6 -2 -4
000040 eb 00 fa ee 02 ff fc ff 15 f7 01 fd f6 fc f1 fe
       -21 0 -6 -18 2 -1 -4 -1 21 -9 1 -3 -10 -4 -15 -2
000050 fa 08 04 01 f6 03 08 f4 f8 ff f3 f0 01 02 fe 00
       -6 8 4 1 -10 3 8 -12 -8 -1 -13 -16 1 2 -2 0
000060 f5 f9 00 ed 0b fc 0b f7 f3 0f 08 f8 15 fc 04 f0
       -11 -7 0 -19 11 -4 11 -9 -13 15 8 -8 21 -4 4 -16
000070 08 fd 06 03 01 f6 15 ff fb fe fb f9 f7 07 fd 10
       8 -3 6 3 1 -10 21 -1 -5 -2 -5 -7 -9 7 -3 16
000080 0d 05 04 f0 05 14 fb 03 fb 03 02 fe fb 06 fb 09
       13 5 4 -16 5 20 -5 3 -5 3 2 -2 -5 6 -5 9
000090 0c ff 0b 08 fc 03 03 ff ff fc 04 fe 0a fc fb f2
       12 -1 11 8 -4 3 3 -1 -1 -4 4 -2 10 -4 -5 -14
0000a0 f8 04 09 fe 02 f8 f8 06 13 fc fb f5 14 08 fa 0b
       -8 4 9 -2 2 -8 -8 6 19 -4 -5 -11 20 8 -6 11
0000b0 f2 09 05 fc f7 f5 fb f0 f3 04 11 0b ff f8 04 15
       -14 9 5 -4 -9 -11 -5 -16 -13 4 17 11 -1 -8 4 21
0000c0 f0 fa 03 05 f6 08 01 05 06 f4 f5 fa f7 05 e7 10
       -16 -6 3 5 -10 8 1 5 6 -12 -11 -6 -9 5 -25 16
0000d0 ed 18 08 fa 02 fa f5 f0 fd fb e5 ed fe 02 f9 ed
       -19 24 8 -6 2 -6 -11 -16 -3 -5 -27 -19 -2 2 -7 -19
0000e0 fa ed f8 05 0d f8 09 04 ed 0f fa 00 06 f6 f7 f1
       -6 -19 -8 5 13 -8 9 4 -19 15 -6 0 6 -10 -9 -15
0000f0 0a 00 08 08 06 0a 14 02 f0 fa 03 06 e6 fc fb f6
       10 0 8 8 6 10 20 2 -16 -6 3 6 -26 -4 -5 -10

model_2/prelu5/add;model_2/prelu5/Relu;model_2/prelu5/Neg_1;model_2/prelu5/Relu_1;model_2/prelu5/mul i1 [1, 1, 256] scale=0.0057245134 zero_point=0
000000 fa 01 04 00 e3 fc fc f6 f9 f6 f2 f4 0e ee 02 03
       -0.03434708 0.0057245134 0.022898054 0.0 -0.16601089 -0.022898054 -0.022898054 -0.057245135 -0.040071595 -0.057245135 -0.08014319 -0.06869416 0.08014319 -0.10304124 0.011449027 0.01717354
000010 e4 0a fd f5 f0 f5 f8 ed 0a ee f2 f8 00 f1 f7 f0
       -0.16028638 0.057245135 -0.01717354 -0.06296965 -0.091592215 -0.06296965 -0.045796108 -0.10876576 0.057245135 -0.10304124 -0.08014319 -0.045796108 0.0 -0.0858677 -0.05152062 -0.091592215
000020 00 ff 02 f3 f8 fe 17 0a f3 fd 02 02 f4 f1 fd 02
       0.0 -0.0057245134 0.011449027 -0.07441867 -0.045796108 -0.011449027 0.13166381 0.057245135 -0.07441867 -0.01717354 0.011449027 0.011449027 -0.06869416 -0.0858677 -0.01717354 0.011449027
000030 0a f6 07 ee fd ff f5 f6 f7 fb ed 0f f7 01 04 fd
       0.057245135 -0.057245135 0.040071595 -0.10304124 -0.01717354 -0.0057245134 -0.06296965 -0.057245135 -0.05152062 -0.028622568 -0.10876576 0.0858677 -0.05152062 0.0057245134 0.022898054 -0.01717354
000040 f9 f0 e3 bc f8 19 f3 ea f3 f1 00 84 01 f9 01 ee
       -0.040071595 -0.091592215 -0.16601089 -0.3892669 -0.045796108 0.14311284 -0.07441867 -0.1259393 -0.07441867 -0.0858677 0.0 -0.70983964 0.0057245134 -0.040071595 0.0057245134 -0.10304124
000050 02 f0 f4 0b f7 0a 06 f2 04 fa ad 13 f8 00 00 ff
       0.011449027 -0.091592215 -0.06869416 0.06296965 -0.05152062 0.057245135 0.03434708 -0.08014319 0.022898054 -0.03434708 -0.4751346 0.10876576 -0.045796108 0.0 0.0 -0.0057245134
000060 f9 ed f8 97 ff fd fc 04 02 f8 fb fa f5 fb fe 04
       -0.040071595 -0.10876576 -0.045796108 -0.6010739 -0.0057245134 -0.01717354 -0.022898054 0.022898054 0.011449027 -0.045796108 -0.028622568 -0.03434708 -0.06296965 -0.028622568 -0.011449027 0.022898054
000070 f9 de 05 02 f7 ff e8 f8 01 f4 91 d1 02 01 00 f0
       -0.040071595 -0.19463345 0.028622568 0.011449027 -0.05152062 -0.0057245134 -0.13738832 -0.045796108 0.0057245134 -0.06869416 -0.635421 -0.26905212 0.011449027 0.0057245134 0.0 -0.091592215
000080 fa f6 f6 fd fa ec fb 81 04 fc 18 f2 f9 f6 b4 fd
       -0.03434708 -0.057245135 -0.057245135 -0.01717354 -0.03434708 -0.11449027 -0.028622568 -0.72701323 0.022898054 -0.022898054 0.13738832 -0.08014319 -0.040071595 -0.057245135 -0.43506303 -0.01717354
000090 f7 fe 02 09 ff fd f5 02 fb ed fc fb 13 f9 0a 00
       -0.05152062 -0.011449027 0.011449027 0.05152062 -0.0057245134 -0.01717354 -0.06296965 0.011449027 -0.028622568 -0.10876576 -0.022898054 -0.028622568 0.10876576 -0.040071595 0.057245135 0.0
0000a0 fd ec f5 fb fd 1c fe e7 fa d9 fd 02 01 02 00 f4
       -0.01717354 -0.11449027 -0.06296965 -0.028622568 -0.01717354 0.16028638 -0.011449027 -0.14311284 -0.03434708 -0.22325602 -0.01717354 0.011449027 0.0057245134 0.011449027 0.0 -0.06869416
0000b0 ed ed 03 fc fb f3 f3 fb 01 f8 f9 00 14 08 f7 02
       -0.10876576 -0.10876576 0.01717354 -0.022898054 -0.028622568 -0.07441867 -0.07441867 -0.028622568 0.0057245134 -0.045796108 -0.040071595 0.0 0.11449027 0.045796108 -0.05152062 0.011449027
0000c0 fe 00 fa ff f4 f8 f7 13 fd f4 00 f3 f8 08 f4 02
       -0.011449027 0.0 -0.03434708 -0.0057245134 -0.06869416 -0.045796108 -0.05152062 0.10876576 -0.01717354 -0.06869416 0.0 -0.07441867 -0.045796108 0.045796108 -0.06869416 0.011449027
0000d0 f8 e3 09 f9 ff f5 08 fe f0 e7 1a fb f7 f4 fa 0c
       -0.045796108 -0.16601089 0.05152062 -0.040071595 -0.0057245134 -0.06296965 0.045796108 -0.011449027 -0.091592215 -0.14311284 0.14883734 -0.028622568 -0.05152062 -0.06869416 -0.03434708 0.06869416
0000e0 ed f9 03 15 ff fe ff f8 fe fb 00 ed ef ff ef 00
       -0.10876576 -0.040071595 0.01717354 0.12021478 -0.0057245134 -0.011449027 -0.0057245134 -0.045796108 -0.011449027 -0.028622568 0.0 -0.10876576 -0.09731673 -0.0057245134 -0.09731673 0.0
0000f0 f8 f2 01 fd 02 fe 04 04 f7 ff fb f9 e8 0f 03 f8
       -0.045796108 -0.08014319 0.0057245134 -0.01717354 0.011449027 -0.011449027 0.022898054 0.022898054 -0.05152062 -0.0057245134 -0.028622568 -0.040071595 -0.13738832 0.0858677 0.01717354 -0.045796108

model_2/conv6-1/Conv2D i1 [2, 1, 1, 256]
000000 04 ff 06 22 42 04 09 fc 0d 07 11 09 01 f2 02 01
       4 -1 6 34 66 4 9 -4 13 7 17 9 1 -14 2 1
000010 fa 49 fd db 08 03 e4 ff 05 f5 07 06 fe 09 04 ff
       -6 73 -3 -37 8 3 -28 -1 5 -11 7 6 -2 9 4 -1
000020 fc 02 03 fb f4 01 04 41 12 07 04 fe 02 f9 01 04
       -4 2 3 -5 -12 1 4 65 18 7 4 -2 2 -7 1 4
000030 48 f5 07 fe 05 01 0c 05 0d f2 15 13 f6 ff ff 01
       72 -11 7 -2 5 1 12 5 13 -14 21 19 -10 -1 -1 1
000040 32 01 02 a6 ff 02 02 f8 e9 f2 19 89 01 f3 01 02
       50 1 2 -90 -1 2 2 -8 -23 -14 25 -119 1 -13 1 2
000050 01 03 00 01 05 34 3a 3a 02 10 9c 02 01 02 03 03
       1 3 0 1 5 52 58 58 2 16 -100 2 1 2 3 3
000060 05 10 01 8d 03 18 14 17 02 06 05 02 ff fd 04 fd
       5 16 1 -115 3 24 20 23 2 6 5 2 -1 -3 4 -3
000070 05 55 11 00 1a 03 00 04 ff f8 85 59 1c 02 08 01
       5 85 17 0 26 3 0 4 -1 -8 -123 89 28 2 8 1
000080 30 0b 10 03 33 3a 10 81 ff 0b 03 12 fd 05 8d 05
       48 11 16 3 51 58 16 -127 -1 11 3 18 -3 5 -115 5
000090 03 05 10 08 02 fa ed 1d 01 06 fb 1a 02 08 45 04
       3 5 16 8 2 -6 -19 29 1 6 -5 26 2 8 69 4
0000a0 ff d8 01 10 01 02 0e f3 0b d7 ff fe 06 00 0d e6
       -1 -40 1 16 1 2 14 -13 11 -41 -1 -2 6 0 13 -26
0000b0 f4 f8 18 fe 10 18 07 02 17 03 03 09 02 09 06 02
       -12 -8 24 -2 16 24 7 2 23 3 3 9 2 9 6 2
0000c0 f8 00 08 0f 0b 03 17 02 02 02 00 ff fd 0c e7 01
       -8 0 8 15 11 3 23 2 2 2 0 -1 -3 12 -25 1
0000d0 04 fd 16 06 fc 02 53 00 39 01 01 f2 fb fd fe 02
       4 -3 22 6 -4 2 83 0 57 1 1 -14 -5 -3 -2 2
0000e0 c3 08 16 01 fd 00 02 ef ff 06 fb f6 f9 01 24 02
       -61 8 22 1 -3 0 2 -17 -1 6 -5 -10 -7 1 36 2
0000f0 eb 04 fd 07 31 fe 00 01 06 00 fb fd d9 02 02 f8
       -21 4 -3 7 49 -2 0 1 6 0 -5 -3 -39 2 2 -8

model_2/conv6-2/Conv2D i1 [4, 1, 1, 256]
000000 12 ed bf 01 ff fe fe 15 cb 02 17 cc fd 11 fb fc
       18 -19 -65 1 -1 -2 -2 21 -53 2 23 -52 -3 17 -5 -4
000010 00 0d d5 f7 f8 06 17 d9 f8 f7 14 09 00 e1 ef 74
       0 13 -43 -9 -8 6 23 -39 -8 -9 20 9 0 -31 -17 116
000020 f1 01 fe e1 e7 f7 f9 01 f9 fc e3 07 dd c0 f4 f7
       -15 1 -2 -31 -25 -9 -7 1 -7 -4 -29 7 -35 -64 -12 -9
000030 ec f8 06 91 fb 00 3e fc a7 dd 12 e2 e0 09 f0 f6
       -20 -8 6 -111 -5 0 62 -4 -89 -35 18 -30 -32 9 -16 -10
000040 fb f7 25 fb f3 00 19 dd d7 fd f3 03 04 1e fc 0c
       -5 -9 37 -5 -13 0 25 -35 -41 -3 -13 3 4 30 -4 12
000050 ff 2f f7 f6 ab 06 ff fd fe 1f fc 01 3c 03 0a 06
       -1 47 -9 -10 -85 6 -1 -3 -2 31 -4 1 60 3 10 6
000060 06 73 06 f9 fe f8 e6 d9 f9 fb 14 f9 4f e5 18 f2
       6 115 6 -7 -2 -8 -26 -39 -7 -5 20 -7 79 -27 24 -14
000070 1c 07 fb 11 13 f7 7f 06 fd bc fe fc 27 fb 02 37
       28 7 -5 17 19 -9 127 6 -3 -68 -2 -4 39 -5 2 55
000080 06 f3 11 04 f2 0d ca 01 fb 38 e4 ec fd 0e 01 08
       6 -13 17 4 -14 13 -54 1 -5 56 -28 -20 -3 14 1 8
000090 0e f9 d3 ef 16 f5 05 01 00 e9 c8 fb f2 10 ec 22
       14 -7 -45 -17 22 -11 5 1 0 -23 -56 -5 -14 16 -20 34
0000a0 07 14 2e 01 0a f6 1e 1c bf 40 f7 15 fa f5 12 ff
       7 20 46 1 10 -10 30 28 -65 64 -9 21 -6 -11 18 -1
0000b0 13 dd 06 ee 06 20 f2 ff 09 10 f6 d1 ff fd fa fe
       19 -35 6 -18 6 32 -14 -1 9 16 -10 -47 -1 -3 -6 -2
0000c0 d3 1c f5 07 f6 f9 01 fd 1e d8 ec b5 fe e8 00 11
       -45 28 -11 7 -10 -7 1 -3 30 -40 -20 -75 -2 -24 0 17
0000d0 fb 20 09 f8 fd d8 0f f0 03 e6 fa 03 d2 1e 24 fb
       -5 32 9 -8 -3 -40 15 -16 3 -26 -6 3 -46 30 36 -5
0000e0 05 f4 0b 04 e7 f6 f5 fc eb 0d 0b f0 27 00 ef fb
       5 -12 11 4 -25 -10 -11 -4 -21 13 11 -16 39 0 -17 -5
0000f0 0b fb ce ea f6 ed fa 0e 04 10 ee 03 b2 05 f6 fc
       11 -5 -50 -22 -10 -19 -6 14 4 16 -18 3 -78 5 -10 -4

model_2/conv6-3/Conv2D i1 [10, 1, 1, 256]
000000 0d d9 18 1f fc e8 13 06 f1 19 32 f1 0d 04 ef e8
       13 -39 24 31 -4 -24 19 6 -15 25 50 -15 13 4 -17 -24
000010 99 08 fa 00 03 fe 07 ce 04 fd 02 13 fe fd ff 23
       -103 8 -6 0 3 -2 7 -50 4 -3 2 19 -2 -3 -1 35
000020 00 f6 fd f3 1f f0 0c 27 f3 1e eb 00 f9 ef fe 00
       0 -10 -3 -13 31 -16 12 39 -13 30 -21 0 -7 -17 -2 0
000030 f4 4a f2 cc 02 00 21 00 f6 fd 09 f2 e8 fe 17 03
       -12 74 -14 -52 2 0 33 0 -10 -3 9 -14 -24 -2 23 3
000040 fd 27 01 00 f7 e2 fe f0 dc 13 02 00 0d 47 ee 02
       -3 39 1 0 -9 -30 -2 -16 -36 19 2 0 13 71 -18 2
000050 b7 07 b5 1e e8 fe fe 02 00 30 ff 03 0c 01 04 07
       -73 7 -75 30 -24 -2 -2 2 0 48 -1 3 12 1 4 7
000060 ed 14 07 00 13 02 fa e7 07 24 0b fd 14 13 0e ff
       -19 20 7 0 19 2 -6 -25 7 36 11 -3 20 19 14 -1
000070 0f 00 04 08 0e 04 09 02 00 10 00 ff 11 01 1a 1b
       15 0 4 8 14 4 9 2 0 16 0 -1 17 1 26 27
000080 10 eb eb fd ef 01 e6 00 f9 20 df f5 e9 f7 00 f3
       16 -21 -21 -3 -17 1 -26 0 -7 32 -33 -11 -23 -9 0 -13
000090 6d f6 f1 e4 0a 00 f6 03 02 f3 0d f4 fe 1f 0e 08
       109 -10 -15 -28 10 0 -10 3 2 -13 13 -12 -2 31 14 8
0000a0 f4 08 39 05 f8 04 04 f6 d3 06 fe 07 04 da f8 ff
       -12 8 57 5 -8 4 4 -10 -45 6 -2 7 4 -38 -8 -1
0000b0 e7 ff 16 0a e5 ff 07 fa 05 09 01 ea f4 f1 e2 fc
       -25 -1 22 10 -27 -1 7 -6 5 9 1 -22 -12 -15 -30 -4
0000c0 03 fe f6 04 b3 01 f6 f7 33 f2 ff fa 02 13 f0 48
       3 -2 -10 4 -77 1 -10 -9 51 -14 -1 -6 2 19 -16 72
0000d0 d6 5b 19 05 e0 e4 ed f8 fe 00 0f 00 14 1c 2a 53
       -42 91 25 5 -32 -28 -19 -8 -2 0 15 0 20 28 42 83
0000e0 ff a1 fb ee 01 13 ed fa cf 06 ff fa 29 e9 fd fd
       -1 -95 -5 -18 1 19 -19 -6 -49 6 -1 -6 41 -23 -3 -3
0000f0 0c 7f 09 19 dd 02 e1 07 f8 06 ea 08 fd 00 27 f2
       12 127 9 25 -35 2 -31 7 -8 6 -22 8 -3 0 39 -14
