application/network_application/eaif_server/models/classifiers/shuffleNetV2/shufflenetv2_x0_5.tflite (tflite, 507288 bytes, 57 tensors)

model_123/tf.linalg.matmul/MatMul i1 [1, 1024] scale=0.001467739 zero_point=0
00000000: e1c1 bac4 bec0 1db5 4dcc 1fc3 c2cf c6b2
00000010: ccb6 16c5 cd73 10be b2b1 b95f aeb7 c4b2
00000020: a2b6 c0ba c35e bea7 eccc 75b7 c15c 7ec4
00000030: 5cc1 51c4 cf67 cdc8 bbc8 b8be adbe bda9
00000040: bdbd 62cb b1bc b6b5 b5b3 bfae b401 c1bb
00000050: 09be b6d1 c8bd beb8 05c7 bfbc be02 f3de
00000060: be70 c8d6 64bd c5b1 f7bf 573e cbb8 c9b9
00000070: cdb2 6953 bbc6 4bbe b4ff bdc9 b93c d917
00000080: 23cb 62e7 d153 b5bd bfaa c0ba 265d c2c4
00000090: b9e7 61cc 62bd d9be 41d5 bcbc cac6 64b8
000000a0: a9ca 31c4 b8b0 c8c7 c931 bef5 64b3 cb4d
000000b0: bdc2 b0b1 b4cd cfc1 bb2f 9a51 62be ba27
000000c0: ba64 5bb6 c2b5 b6cf abad c770 cfbe 0ed7
000000d0: e0c4 b755 c2bc bbff b83b 4523 b9b7 c23d
000000e0: c4c8 b0ad 61c0 2fc1 bfbd c1c1 beb1 4bc6
000000f0: 10c5 c20e 06c0 bb4e a5be c1af abcd bd70
-0.04549991 -0.092467554 -0.10274173 -0.08806434 -0.09687077 -0.093935296 0.04256443 -0.11008043
0.113015905 -0.07632243 0.04549991 -0.08953208 -0.09099982 -0.07191921 -0.08512886 -0.11448364
-0.07632243 -0.10861269 0.032290258 -0.0865966 -0.07485469 0.16878998 0.023483824 -0.09687077
-0.11448364 -0.11595138 -0.10420947 0.1394352 -0.1203546 -0.107144944 -0.08806434 -0.11448364
-0.13796747 -0.10861269 -0.093935296 -0.10274173 -0.08953208 0.13796747 -0.09687077 -0.13062876
-0.02935478 -0.07632243 0.17172547 -0.107144944 -0.092467554 0.13503198 0.18493511 -0.08806434
0.13503198 -0.092467554 0.11888686 -0.08806434 -0.07191921 0.15117712 -0.07485469 -0.08219338
-0.10127399 -0.08219338 -0.10567721 -0.09687077 -0.121822335 -0.09687077 -0.098338515 -0.1276933
-0.098338515 -0.098338515 0.14383842 -0.07779016 -0.11595138 -0.09980625 -0.10861269 -0.11008043
-0.11008043 -0.113015905 -0.09540304 -0.1203546 -0.11154816 0.001467739 -0.092467554 -0.10127399
0.013209651 -0.09687077 -0.10861269 -0.06898373 -0.08219338 -0.098338515 -0.09687077 -0.10567721
0.007338695 -0.083661124 -0.09540304 -0.09980625 -0.09687077 0.002935478 -0.019080607 -0.049903125
-0.09687077 0.16438676 -0.08219338 -0.06164504 0.1467739 -0.098338515 -0.0865966 -0.11595138
-0.013209651 -0.09540304 0.1276933 0.09099982 -0.07779016 -0.10567721 -0.08072565 -0.10420947
-0.07485469 -0.11448364 0.15411259 0.121822335 -0.10127399 -0.08512886 0.11008043 -0.09687077
-0.11154816 -0.001467739 -0.098338515 -0.08072565 -0.10420947 0.08806434 -0.05724182 0.033757996
0.051370867 -0.07779016 0.14383842 -0.036693476 -0.06898373 0.121822335 -0.11008043 -0.098338515
-0.09540304 -0.12622556 -0.093935296 -0.10274173 0.05577408 0.13649973 -0.09099982 -0.08806434
-0.10420947 -0.036693476 0.14237069 -0.07632243 0.14383842 -0.098338515 -0.05724182 -0.09687077
0.09540304 -0.06311278 -0.09980625 -0.09980625 -0.079257905 -0.08512886 0.1467739 -0.10567721
-0.1276933 -0.079257905 0.07191921 -0.08806434 -0.10567721 -0.11741912 -0.08219338 -0.083661124
-0.08072565 0.07191921 -0.09687077 -0.016145129 0.1467739 -0.113015905 -0.07779016 0.113015905
-0.098338515 -0.09099982 -0.11741912 -0.11595138 -0.11154816 -0.07485469 -0.07191921 -0.092467554
-0.10127399 0.06898373 -0.14970937 0.11888686 0.14383842 -0.09687077 -0.10274173 0.05724182
-0.10274173 0.1467739 0.13356425 -0.10861269 -0.09099982 -0.11008043 -0.10861269 -0.07191921
-0.12475781 -0.121822335 -0.083661124 0.16438676 -0.07191921 -0.09687077 0.020548346 -0.0601773
-0.046967648 -0.08806434 -0.107144944 0.12475781 -0.09099982 -0.09980625 -0.10127399 -0.001467739
-0.10567721 0.0865966 0.10127399 0.051370867 -0.10420947 -0.107144944 -0.09099982 0.08953208
-0.08806434 -0.08219338 -0.11741912 -0.121822335 0.14237069 -0.093935296 0.06898373 -0.092467554
-0.09540304 -0.098338515 -0.092467554 -0.092467554 -0.09687077 -0.11595138 0.11008043 -0.08512886
0.023483824 -0.0865966 -0.09099982 0.020548346 0.0088064335 -0.093935296 -0.10127399 0.11448364
-0.13356425 -0.09687077 -0.092467554 -0.11888686 -0.12475781 -0.07485469 -0.098338515 0.16438676

model_123/tf.nn.convolution_61/convolution i1 [1024, 1, 1, 192]
00000000: 1f39 d734 16d7 29f7 0c3d 02ff eeae f721
00000010: 05dc 35f7 f0e9 1fef 21d2 f9f1 00fa abed
00000020: 7f10 1606 eb31 1dd6 ebe3 e6ef fee0 f10c
00000030: 1817 d2ee 06ff 00f1 cee1 f8ee e314 13fd
00000040: 413e ef24 4935 2ce9 0038 2516 bded fdc5
00000050: f9ce 1322 22f9 db04 31b5 1836 e11d 32ee
00000060: df17 e2e5 5228 ec15 bb12 e9d6 ff08 4209
00000070: f21c 0ee7 9033 16ce e303 7d1f eae1 e102
00000080: 6427 bfd2 400a 0cf1 9cf2 b537 d120 cee1
00000090: 15d4 bee6 1f0c 1f06 12ea 0307 14d2 15cc
000000a0: e034 44f1 e926 f61e dbf7 f2f1 f4be a732
000000b0: b853 4013 e209 e2ea f1c7 b2ec ec9f 450f
000000c0: 2321 cdf5 f3c8 1b6b ec00 05fa ed02 081e
000000d0: d6e8 29fc cae4 0718 9d09 0000 fbef 2202
000000e0: 0304 dc2a 24c5 0715 f13a c009 e2f4 f303
000000f0: c407 f8c5 e307 1528 ebdf 02dd 0ec3 fcf2
31 57 -41 52 22 -41 41 -9
12 61 2 -1 -18 -82 -9 33
5 -36 53 -9 -16 -23 31 -17
33 -46 -7 -15 0 -6 -85 -19
127 16 22 6 -21 49 29 -42
-21 -29 -26 -17 -2 -32 -15 12
24 23 -46 -18 6 -1 0 -15
-50 -31 -8 -18 -29 20 19 -3
65 62 -17 36 73 53 44 -23
0 56 37 22 -67 -19 -3 -59
-7 -50 19 34 34 -7 -37 4
49 -75 24 54 -31 29 50 -18
-33 23 -30 -27 82 40 -20 21
-69 18 -23 -42 -1 8 66 9
-14 28 14 -25 -112 51 22 -50
-29 3 125 31 -22 -31 -31 2
100 39 -65 -46 64 10 12 -15
-100 -14 -75 55 -47 32 -50 -31
21 -44 -66 -26 31 12 31 6
18 -22 3 7 20 -46 21 -52
-32 52 68 -15 -23 38 -10 30
-37 -9 -14 -15 -12 -66 -89 50
-72 83 64 19 -30 9 -30 -22
-15 -57 -78 -20 -20 -97 69 15
35 33 -51 -11 -13 -56 27 107
-20 0 5 -6 -19 2 8 30
-42 -24 41 -4 -54 -28 7 24
-99 9 0 0 -5 -17 34 2
3 4 -36 42 36 -59 7 21
-15 58 -64 9 -30 -12 -13 3
-60 7 -8 -59 -29 7 21 40
-21 -33 2 -35 14 -61 -4 -14

model_123/tf.nn.convolution_60/convolution i1 [96, 1, 1, 96]
00000000: 059a 33f1 0ed8 d91a e5e3 f958 f9d9 1c0c
00000010: fbc9 d646 0fe3 f4fe c7c3 58d7 92ca d71a
00000020: 2bef ef36 f917 bbe1 dcf8 0d39 0bd9 1c31
00000030: eee7 cbe6 fff7 0b2b d946 f6e8 e00e c2df
00000040: d941 ed2c c821 167f e3cc 2f18 2fe5 cce1
00000050: 0926 c319 39f9 1305 3b0a 0352 14de 2d1a
00000060: 22ca 04e7 0bfe e6f3 f5ed e7e7 0de5 ff01
00000070: 29de 5a2f 5312 f0fd e833 0ef8 0b0a f3f6
00000080: fd1a f32b 3039 2c0e 1bcf e413 e1ed e918
00000090: 12fc f52e d61d 25e0 2a81 f2f1 22fa 0b12
000000a0: 3af6 1150 e713 023e 180c f4f5 e111 f903
000000b0: 10bc 0a0d 17d8 1c1e 28f0 fdfe fe05 afe5
000000c0: fbbf 111f dc14 e411 c621 2ea5 f33d c322
000000d0: 051b 74e1 a9cd 8126 e119 e1f9 f2ed 0b00
000000e0: 27ee 21d0 eb03 06b3 ef0d fa01 ffde fed2
000000f0: 0ff6 1fc8 dc2f 12fe 031a b5bb 1123 13d9
5 -102 51 -15 14 -40 -39 26
-27 -29 -7 88 -7 -39 28 12
-5 -55 -42 70 15 -29 -12 -2
-57 -61 88 -41 -110 -54 -41 26
43 -17 -17 54 -7 23 -69 -31
-36 -8 13 57 11 -39 28 49
-18 -25 -53 -26 -1 -9 11 43
-39 70 -10 -24 -32 14 -62 -33
-39 65 -19 44 -56 33 22 127
-29 -52 47 24 47 -27 -52 -31
9 38 -61 25 57 -7 19 5
59 10 3 82 20 -34 45 26
34 -54 4 -25 11 -2 -26 -13
-11 -19 -25 -25 13 -27 -1 1
41 -34 90 47 83 18 -16 -3
-24 51 14 -8 11 10 -13 -10
-3 26 -13 43 48 57 44 14
27 -49 -28 19 -31 -19 -23 24
18 -4 -11 46 -42 29 37 -32
42 -127 -14 -15 34 -6 11 18
58 -10 17 80 -25 19 2 62
24 12 -12 -11 -31 17 -7 3
16 -68 10 13 23 -40 28 30
40 -16 -3 -2 -2 5 -81 -27
-5 -65 17 31 -36 20 -28 17
-58 33 46 -91 -13 61 -61 34
5 27 116 -31 -87 -51 -127 38
-31 25 -31 -7 -14 -19 11 0
39 -18 33 -48 -21 3 6 -77
-17 13 -6 1 -1 -34 -2 -46
15 -10 31 -56 -36 47 18 -2
3 26 -75 -69 17 35 19 -39

model_123/tf.compat.v1.nn.depthwise_conv2d_24/depthwise i1 [1, 3, 3, 96]
00000000: fdfb 001e eaf1 0805 d017 f314 1617 45e0
00000010: d4f9 1bd4 48fe f4b6 1800 18f8 f606 051d
00000020: ea2c f7fb 23c0 fddf 040e d7d1 f1c2 f70f
00000030: 0216 dffd 1ad0 1f07 f902 35f5 f8ff d7fb
00000040: 26fc e311 ebe3 4efa 03db ffe1 02f9 e935
00000050: ef4f 0bee 0816 fbb0 d6de fb0d eb04 fe06
00000060: 1657 fa31 0ee7 39ee 811f 04d7 7f0c 43be
00000070: 81f0 7fa3 7f1e e229 0ae5 36ba 9103 f6f9
00000080: 1a48 dee9 2303 1a81 180f ec81 d2a7 6b3f
00000090: d55b cda0 25a2 667f 030c 51d9 15f8 98f0
000000a0: 16fe b2fb d081 1006 0781 1d81 35d6 f46e
000000b0: bc1f 7fd4 1cdd 118f f2d1 4028 c1f8 f7ec
000000c0: ff01 021a e9f1 0904 ce19 f716 1718 4eda
000000d0: d3fa 1ad8 4cfb f4b5 1906 17f5 f603 041e
000000e0: ec2e ecf5 24c1 fedd 020e dcd0 f6c7 f511
000000f0: 0409 e3ff 19ce 2412 f902 32f3 f801 d1f8
-3 -5 0 30 -22 -15 8 5
-48 23 -13 20 22 23 69 -32
-44 -7 27 -44 72 -2 -12 -74
24 0 24 -8 -10 6 5 29
-22 44 -9 -5 35 -64 -3 -33
4 14 -41 -47 -15 -62 -9 15
2 22 -33 -3 26 -48 31 7
-7 2 53 -11 -8 -1 -41 -5
38 -4 -29 17 -21 -29 78 -6
3 -37 -1 -31 2 -7 -23 53
-17 79 11 -18 8 22 -5 -80
-42 -34 -5 13 -21 4 -2 6
22 87 -6 49 14 -25 57 -18
-127 31 4 -41 127 12 67 -66
-127 -16 127 -93 127 30 -30 41
10 -27 54 -70 -111 3 -10 -7
26 72 -34 -23 35 3 26 -127
24 15 -20 -127 -46 -89 107 63
-43 91 -51 -96 37 -94 102 127
3 12 81 -39 21 -8 -104 -16
22 -2 -78 -5 -48 -127 16 6
7 -127 29 -127 53 -42 -12 110
-68 31 127 -44 28 -35 17 -113
-14 -47 64 40 -63 -8 -9 -20
-1 1 2 26 -23 -15 9 4
-50 25 -9 22 23 24 78 -38
-45 -6 26 -40 76 -5 -12 -75
25 6 23 -11 -10 3 4 30
-20 46 -20 -11 36 -63 -2 -35
2 14 -36 -48 -10 -57 -11 17
4 9 -29 -1 25 -50 36 18
-7 2 50 -13 -8 1 -47 -8

model_123/tf.nn.convolution_59/convolution i1 [96, 1, 1, 96]
00000000: 08fa eeed e9fc faf4 12f8 ecf0 06f7 b209
00000010: 1ae1 0912 9c03 fd04 14fc 031f fefa 16fe
00000020: 23f8 ec0e f3f8 e5f7 f9fb 10fa 2e19 1524
00000030: 9025 f3ec 27fe 17eb 021f 81ef 17f5 07e0
00000040: 2b23 1812 2931 1207 ec2a fd0f 39ed 1309
00000050: 0103 f8f2 b7f3 ff00 1608 fb05 f713 1b0e
00000060: 1ecc 190e e4db 276d 2316 c001 1716 04e0
00000070: d305 281e 07f2 0cd4 c322 0612 12f1 f9e9
00000080: 3bd3 d1f0 04e4 3afb 9c39 d4e6 c00a 0209
00000090: 2029 e5c7 f933 fd2b 02e6 f1d6 1026 10eb
000000a0: fffc f6e0 4f81 33f8 0bd5 05fd 1924 02f8
000000b0: e53e f8e8 ece5 cd75 171d 0413 3406 0ecc
000000c0: d1ec eff1 d87f dea2 e9d5 0cff 07e2 f8f0
000000d0: 17cb 0d13 e2d2 ddfa f4dc 15ed 17ba f415
000000e0: 11e8 fd27 c514 2608 0816 cb12 17d6 c8a6
000000f0: eb15 1e17 d5fa e0ec 0029 e61e f4f3 ec47
8 -6 -18 -19 -23 -4 -6 -12
18 -8 -20 -16 6 -9 -78 9
26 -31 9 18 -100 3 -3 4
20 -4 3 31 -2 -6 22 -2
35 -8 -20 14 -13 -8 -27 -9
-7 -5 16 -6 46 25 21 36
-112 37 -13 -20 39 -2 23 -21
2 31 -127 -17 23 -11 7 -32
43 35 24 18 41 49 18 7
-20 42 -3 15 57 -19 19 9
1 3 -8 -14 -73 -13 -1 0
22 8 -5 5 -9 19 27 14
30 -52 25 14 -28 -37 39 109
35 22 -64 1 23 22 4 -32
-45 5 40 30 7 -14 12 -44
-61 34 6 18 18 -15 -7 -23
59 -45 -47 -16 4 -28 58 -5
-100 57 -44 -26 -64 10 2 9
32 41 -27 -57 -7 51 -3 43
2 -26 -15 -42 16 38 16 -21
-1 -4 -10 -32 79 -127 51 -8
11 -43 5 -3 25 36 2 -8
-27 62 -8 -24 -20 -27 -51 117
23 29 4 19 52 6 14 -52
-47 -20 -17 -15 -40 127 -34 -94
-23 -43 12 -1 7 -30 -8 -16
23 -53 13 19 -30 -46 -35 -6
-12 -36 21 -19 23 -70 -12 21
17 -24 -3 39 -59 20 38 8
8 22 -53 18 23 -42 -56 -90
-21 21 30 23 -43 -6 -32 -20
0 41 -26 30 -12 -13 -20 71

model_123/tf.nn.convolution_58/convolution i1 [96, 1, 1, 96]
00000000: 30ee 48ef d9f3 bc1a d761 0ac2 e405 0113
00000010: e9e4 f706 26f2 edec e1d1 fe3d f21a 184e
00000020: 6edf e9f5 e8ce d8f7 041c e41b cdf5 03d6
00000030: 81f3 d692 ef31 ce36 f2b0 013e 0aa3 fef1
00000040: dbe2 c574 12c6 1bec dcf9 db03 3d09 d2e5
00000050: 6503 1707 5514 0f3f 1b2b 0848 ef15 38ee
00000060: 04de 7ffe c0cb e4f5 e6f4 e418 ce01 0c54
00000070: 08ea eef5 30da 1cec cece 07c9 ea10 06e6
00000080: 0dfe e606 10e8 e9d5 1f50 49e9 11cc 0719
00000090: f821 1ba9 d83e 07ff f0ee 5966 02e9 fd8d
000000a0: ff19 ff6d 12f9 0a24 f2f8 ee56 f0e2 220a
000000b0: dfe1 3e06 33df daff ebf0 f928 fb0c dc41
000000c0: eada b515 eef5 fff5 1d20 8125 1211 4af7
000000d0: abef 1702 d0ec f9ff 63f5 0a0e 0c6e e02b
000000e0: fbc7 1cde 176b d503 06d6 61b6 2b0d 7599
000000f0: 461b 47cb 3444 174f 602a 355e 6ad3 e968
48 -18 72 -17 -39 -13 -68 26
-41 97 10 -62 -28 5 1 19
-23 -28 -9 6 38 -14 -19 -20
-31 -47 -2 61 -14 26 24 78
110 -33 -23 -11 -24 -50 -40 -9
4 28 -28 27 -51 -11 3 -42
-127 -13 -42 -110 -17 49 -50 54
-14 -80 1 62 10 -93 -2 -15
-37 -30 -59 116 18 -58 27 -20
-36 -7 -37 3 61 9 -46 -27
101 3 23 7 85 20 15 63
27 43 8 72 -17 21 56 -18
4 -34 127 -2 -64 -53 -28 -11
-26 -12 -28 24 -50 1 12 84
8 -22 -18 -11 48 -38 28 -20
-50 -50 7 -55 -22 16 6 -26
13 -2 -26 6 16 -24 -23 -43
31 80 73 -23 17 -52 7 25
-8 33 27 -87 -40 62 7 -1
-16 -18 89 102 2 -23 -3 -115
-1 25 -1 109 18 -7 10 36
-14 -8 -18 86 -16 -30 34 10
-33 -31 62 6 51 -33 -38 -1
-21 -16 -7 40 -5 12 -36 65
-22 -38 -75 21 -18 -11 -1 -11
29 32 -127 37 18 17 74 -9
-85 -17 23 2 -48 -20 -7 -1
99 -11 10 14 12 110 -32 43
-5 -57 28 -34 23 107 -43 3
6 -42 97 -74 43 13 117 -103
70 27 71 -53 52 68 23 79
96 42 53 94 106 -45 -23 104

model_123/tf.compat.v1.nn.depthwise_conv2d_23/depthwise i1 [1, 3, 3, 96]
00000000: 6628 0c16 0c0c df3c 0c06 fffe aff4 3d03
00000010: f004 fa0b fafc fe04 c8fb e50e d0a7 0004
00000020: fcec dbe2 5df5 21ea e4f3 0de9 0803 fbfb
00000030: 0f7f e1fc f408 b528 d7fb f308 014c 25f8
00000040: 281d 20ed 2713 2eed 20f9 d7f9 bd1c f958
00000050: 44d8 fcf0 d8d1 7fc1 8df1 e82f f910 efec
00000060: 7f7f f3f6 d901 b57f 153a d10c a1da 9e63
00000070: 0222 0581 f829 ead2 de7f 202c 22b9 7fdb
00000080: eaf5 8129 7f1b af81 c11e 00c0 f80d 5d02
00000090: f767 8be6 da27 b917 81dd 0711 e24d 0e0f
000000a0: 496f 7ff6 554b 05d4 e382 2b04 e07f 0d69
000000b0: 692a 0b0c 81ae 20cf 8503 817f e73a 8ccb
000000c0: 672c 0b1a 0c0a d740 0cff 00fe acf1 430d
000000d0: ef06 fb0e f9fe fa08 c9fc e70c 7fa7 0103
000000e0: f9ea d3e0 54f6 18e3 e9f6 0dea 0708 fdfa
000000f0: 1375 defd f40a af2a d5fd f309 024b 25fb
102 40 12 22 12 12 -33 60
12 6 -1 -2 -81 -12 61 3
-16 4 -6 11 -6 -4 -2 4
-56 -5 -27 14 -48 -89 0 4
-4 -20 -37 -30 93 -11 33 -22
-28 -13 13 -23 8 3 -5 -5
15 127 -31 -4 -12 8 -75 40
-41 -5 -13 8 1 76 37 -8
40 29 32 -19 39 19 46 -19
32 -7 -41 -7 -67 28 -7 88
68 -40 -4 -16 -40 -47 127 -63
-115 -15 -24 47 -7 16 -17 -20
127 127 -13 -10 -39 1 -75 127
21 58 -47 12 -95 -38 -98 99
2 34 5 -127 -8 41 -22 -46
-34 127 32 44 34 -71 127 -37
-22 -11 -127 41 127 27 -81 -127
-63 30 0 -64 -8 13 93 2
-9 103 -117 -26 -38 39 -71 23
-127 -35 7 17 -30 77 14 15
73 111 127 -10 85 75 5 -44
-29 -126 43 4 -32 127 13 105
105 42 11 12 -127 -82 32 -49
-123 3 -127 127 -25 58 -116 -53
103 44 11 26 12 10 -41 64
12 -1 0 -2 -84 -15 67 13
-17 6 -5 14 -7 -2 -6 8
-55 -4 -25 12 127 -89 1 3
-7 -22 -45 -32 84 -10 24 -29
-23 -10 13 -22 7 8 -3 -6
19 117 -34 -3 -12 10 -81 42
-43 -3 -13 9 2 75 37 -5

model_123/tf.nn.convolution_57/convolution i1 [96, 1, 1, 96]
00000000: fce1 f654 ffb8 dbf2 03c2 fba4 229e 04e8
00000010: f6ec ef04 171a fd3e f1a7 05dd de55 0603
00000020: fed7 fca7 fddb 1821 0c50 1afd f6b9 efe1
00000030: 06e0 2841 f8b5 f8e7 fe70 02ec 05b8 de21
00000040: ebd4 ffa5 efe4 fb11 f7d7 ef0e 1416 2213
00000050: f081 fe71 23ff 2ab0 d71f f4e1 0ff4 e94b
00000060: f700 224a b1d0 d0ba 05d4 d1f1 0dc8 3428
00000070: b46d cb8f b3ef e6e4 1ff3 0111 d60c d5d3
00000080: 3714 07c3 1013 09df 29e8 f72f 28e7 edf9
00000090: 35c5 b01d 322b 172b 0a38 21e0 d4fd b301
000000a0: 280d 2920 cec7 1f35 cfc1 f4ee 0307 7f29
000000b0: 1a59 f3cd 0b98 dd0b 52e7 37e2 fae4 52c9
000000c0: e4ed e6fa e7d6 d505 1eeb ddfe 3306 c0ac
000000d0: 1604 ebe9 ea09 e51f 00fe efd7 daf6 f318
000000e0: 1a07 1af9 cbf4 f317 3d2e 1e00 7fe2 2f0a
000000f0: 1107 10ea 0ee4 050c c707 0dd4 ed0e e600
-4 -31 -10 84 -1 -72 -37 -14
3 -62 -5 -92 34 -98 4 -24
-10 -20 -17 4 23 26 -3 62
-15 -89 5 -35 -34 85 6 3
-2 -41 -4 -89 -3 -37 24 33
12 80 26 -3 -10 -71 -17 -31
6 -32 40 65 -8 -75 -8 -25
-2 112 2 -20 5 -72 -34 33
-21 -44 -1 -91 -17 -28 -5 17
-9 -41 -17 14 20 22 34 19
-16 -127 -2 113 35 -1 42 -80
-41 31 -12 -31 15 -12 -23 75
-9 0 34 74 -79 -48 -48 -70
5 -44 -47 -15 13 -56 52 40
-76 109 -53 -113 -77 -17 -26 -28
31 -13 1 17 -42 12 -43 -45
55 20 7 -61 16 19 9 -33
41 -24 -9 47 40 -25 -19 -7
53 -59 -80 29 50 43 23 43
10 56 33 -32 -44 -3 -77 1
40 13 41 32 -50 -57 31 53
-49 -63 -12 -18 3 7 127 41
26 89 -13 -51 11 -104 -35 11
82 -25 55 -30 -6 -28 82 -55
-28 -19 -26 -6 -25 -42 -43 5
30 -21 -35 -2 51 6 -64 -84
22 4 -21 -23 -22 9 -27 31
0 -2 -17 -41 -38 -10 -13 24
26 7 26 -7 -53 -12 -13 23
61 46 30 0 127 -30 47 10
17 7 16 -22 14 -28 5 12
-57 7 13 -44 -19 14 -26 0

model_123/tf.nn.convolution_56/convolution i1 [96, 1, 1, 96]
00000000: a94d f201 02e8 5203 daf0 0210 213a f6f0
00000010: c8d0 fdf3 0f03 100c f3f7 fb10 12bc 0b57
00000020: 190a 0bf5 16c5 34e1 19b3 e7b8 8b2d 0704
00000030: e023 dfc8 eb1b d943 0821 fdff efd5 f3f1
00000040: f015 e5ec abff dfd8 0500 3afb ddb3 10c5
00000050: 0a09 d681 20cd 04d4 2b16 10e9 032b 050a
00000060: 2130 15f0 180e da09 1b03 de24 fe81 2a24
00000070: bc22 200a ffeb fb07 dd01 d4fc 0a07 35f4
00000080: 40fd 1f03 f314 fee1 a6fb 301a feeb 34f1
00000090: 9c36 eb23 00b6 0720 31d6 dcee d7fd c30a
000000a0: e0f8 cf2b e3a8 e6de 01e7 194c ceff f20e
000000b0: f8bb f8b5 013b 100d b43a edcd 00c2 8dd6
000000c0: e422 130a 03ea e21f 0af4 0418 ed3b f40d
000000d0: c8e5 264e dcfb 3f01 0de7 1a03 1412 25f3
000000e0: 0f24 c3f4 08e3 2bcc d431 3ae2 ff0f e10d
000000f0: e2f6 fc37 fe02 08fc 07e9 f0dd 052c 24ed
-87 77 -14 1 2 -24 82 3
-38 -16 2 16 33 58 -10 -16
-56 -48 -3 -13 15 3 16 12
-13 -9 -5 16 18 -68 11 87
25 10 11 -11 22 -59 52 -31
25 -77 -25 -72 -117 45 7 4
-32 35 -33 -56 -21 27 -39 67
8 33 -3 -1 -17 -43 -13 -15
-16 21 -27 -20 -85 -1 -33 -40
5 0 58 -5 -35 -77 16 -59
10 9 -42 -127 32 -51 4 -44
43 22 16 -23 3 43 5 10
33 48 21 -16 24 14 -38 9
27 3 -34 36 -2 -127 42 36
-68 34 32 10 -1 -21 -5 7
-35 1 -44 -4 10 7 53 -12
64 -3 31 3 -13 20 -2 -31
-90 -5 48 26 -2 -21 52 -15
-100 54 -21 35 0 -74 7 32
49 -42 -36 -18 -41 -3 -61 10
-32 -8 -49 43 -29 -88 -26 -34
1 -25 25 76 -50 -1 -14 14
-8 -69 -8 -75 1 59 16 13
-76 58 -19 -51 0 -62 -115 -42
-28 34 19 10 3 -22 -30 31
10 -12 4 24 -19 59 -12 13
-56 -27 38 78 -36 -5 63 1
13 -25 26 3 20 18 37 -13
15 36 -61 -12 8 -29 43 -52
-44 49 58 -30 -1 15 -31 13
-30 -10 -4 55 -2 2 8 -4
7 -23 -16 -35 5 44 36 -19

model_123/tf.compat.v1.nn.depthwise_conv2d_22/depthwise i1 [1, 3, 3, 96]
00000000: f90b 1428 95f1 0f24 2ff9 ccbf 2df2 ec25
00000010: 15e4 2cf9 eb22 1afd 4dc4 0487 d3e4 2f04
00000020: df21 dfc9 1a07 1c07 fef3 06ee 1019 0dd3
00000030: f0f7 a900 31e3 0a16 6325 e620 25ef fac6
00000040: 812b f5a3 07ff 0120 01dd db29 66f9 c3fe
00000050: a8a5 ff14 10f4 de04 035d cf2a 37e6 09e3
00000060: d706 401e fb0a 7f6d 34f6 8181 41e1 607f
00000070: c8de 2019 811b a850 7fcb 0b8d c4cf 7ff8
00000080: 141f 8c8f a62d 6b19 f3fa c4a5 0e6d 0269
00000090: 81a9 b3ed ebda 0e18 507f 9c7f 7fea f6e6
000000a0: c96a 1c81 f8fa 817f dd9e f10b 7fdf 810b
000000b0: 81bc e311 e2ee 112b c766 8146 2d99 f481
000000c0: f80b 1b2d f8f0 1529 31f8 c7c1 2df2 f030
000000d0: 13e9 23f9 e86d 1cff 58bd 0681 d6e1 3401
000000e0: d825 dec8 1a0c 1e07 fef4 fef4 0f16 11d3
000000f0: e1ef a1ff 36d8 0e17 6826 e522 26f0 f8cb
-7 11 20 40 -107 -15 15 36
47 -7 -52 -65 45 -14 -20 37
21 -28 44 -7 -21 34 26 -3
77 -60 4 -121 -45 -28 47 4
-33 33 -33 -55 26 7 28 7
-2 -13 6 -18 16 25 13 -45
-16 -9 -87 0 49 -29 10 22
99 37 -26 32 37 -17 -6 -58
-127 43 -11 -93 7 -1 1 32
1 -35 -37 41 102 -7 -61 -2
-88 -91 -1 20 16 -12 -34 4
3 93 -49 42 55 -26 9 -29
-41 6 64 30 -5 10 127 109
52 -10 -127 -127 65 -31 96 127
-56 -34 32 25 -127 27 -88 80
127 -53 11 -115 -60 -49 127 -8
20 31 -116 -113 -90 45 107 25
-13 -6 -60 -91 14 109 2 105
-127 -87 -77 -19 -21 -38 14 24
80 127 -100 127 127 -22 -10 -26
-55 106 28 -127 -8 -6 -127 127
-35 -98 -15 11 127 -33 -127 11
-127 -68 -29 17 -30 -18 17 43
-57 102 -127 70 45 -103 -12 -127
-8 11 27 45 -8 -16 21 41
49 -8 -57 -63 45 -14 -16 48
19 -23 35 -7 -24 109 28 -1
88 -67 6 -127 -42 -31 52 1
-40 37 -34 -56 26 12 30 7
-2 -12 -2 -12 15 22 17 -45
-31 -17 -95 -1 54 -40 14 23
104 38 -27 34 38 -16 -8 -53

model_123/tf.nn.convolution_55/convolution i1 [96, 1, 1, 96]
00000000: 28ca 2120 fc13 d930 22df 14e5 1f10 f1ef
00000010: f700 14eb 0503 e802 e70a 0f20 ff05 df45
00000020: d414 d8c8 de11 f9db 16fb 100b 11d9 f800
00000030: 0e7f fc13 ded1 3ad9 ddf4 2bc3 0a02 f950
00000040: 16fe e929 0822 fa17 ffe1 2406 d4e6 b416
00000050: 1624 08f3 faf3 c8f8 baef e2da 1102 fbfb
00000060: 250f fa13 ec09 e603 e11d fde8 c017 ff09
00000070: 111b 0526 f520 f41e 01f8 1ffe 020d 0d15
00000080: f90d 1af6 ed0c 0eff 03e2 c7d4 04f3 141d
00000090: ed04 2509 f7e6 2e3a 1525 ddff 81e6 06f9
000000a0: b43c 0a2c 2cb6 f92a e609 43f4 20fe f1f6
000000b0: 06ff d216 fae9 061e d603 24d0 55d9 f81c
000000c0: e6f7 541c 2599 e5b1 bf51 0e20 2d2c f7df
000000d0: f4e0 b1f2 48e7 01e0 aa1f 2522 242f ce04
000000e0: 20fb 2c01 d75c c3ba 0824 8147 f816 e3b7
000000f0: 2aa3 df2d e621 e826 e603 29e7 ccef fb00
40 -54 33 32 -4 19 -39 48
34 -33 20 -27 31 16 -15 -17
-9 0 20 -21 5 3 -24 2
-25 10 15 32 -1 5 -33 69
-44 20 -40 -56 -34 17 -7 -37
22 -5 16 11 17 -39 -8 0
14 127 -4 19 -34 -47 58 -39
-35 -12 43 -61 10 2 -7 80
22 -2 -23 41 8 34 -6 23
-1 -31 36 6 -44 -26 -76 22
22 36 8 -13 -6 -13 -56 -8
-70 -17 -30 -38 17 2 -5 -5
37 15 -6 19 -20 9 -26 3
-31 29 -3 -24 -64 23 -1 9
17 27 5 38 -11 32 -12 30
1 -8 31 -2 2 13 13 21
-7 13 26 -10 -19 12 14 -1
3 -30 -57 -44 4 -13 20 29
-19 4 37 9 -9 -26 46 58
21 37 -35 -1 -127 -26 6 -7
-76 60 10 44 44 -74 -7 42
-26 9 67 -12 32 -2 -15 -10
6 -1 -46 22 -6 -23 6 30
-42 3 36 -48 85 -39 -8 28
-26 -9 84 28 37 -103 -27 -79
-65 81 14 32 45 44 -9 -33
-12 -32 -79 -14 72 -25 1 -32
-86 31 37 34 36 47 -50 4
32 -5 44 1 -41 92 -61 -70
8 36 -127 71 -8 22 -29 -73
42 -93 -33 45 -26 33 -24 38
-26 3 41 -25 -52 -17 -5 0

model_123/tf.nn.convolution_54/convolution i1 [96, 1, 1, 96]
00000000: 0700 e3ff e7ff 1cd7 d246 d5f6 17aa 0920
00000010: bc11 ad0a 3a2b 46bd ff69 cd3e 2dbe 24fd
00000020: 0dea 3b46 d128 f003 0ef5 3031 e70b ea3c
00000030: 0021 0d19 02fe 057f fb34 edee 181c 0cf1
00000040: ede8 ea11 04d2 e406 d3fa 373f 0839 e446
00000050: e5f0 1145 030f 1be5 b559 18a4 0805 12d8
00000060: f5cb f915 f423 2b7f dc1b 0005 e00e 1b04
00000070: e7f5 16f3 2825 ec40 f0f7 dbfa 0928 07f3
00000080: 0209 f603 63d3 fd26 3c12 2002 0810 5d0a
00000090: 00e1 0bf3 0523 121c 14f5 0200 d9c1 0bf4
000000a0: dd1b cbf2 f7e1 ee25 06ec 0b09 f3fc 06f8
000000b0: d6f0 dfd7 2111 0d1c 14f9 06df 0505 e6f8
000000c0: db06 f506 de26 fce9 d7dd fb1c 7f02 3e11
000000d0: 2bf7 fbf1 1d1a 3031 f3f2 1ed8 ede0 fcd4
000000e0: 04ed 12f9 2563 0809 6012 f0da e418 27ce
000000f0: 00a1 08e3 fc07 f3d0 fde1 15f7 e727 0603
7 0 -29 -1 -25 -1 28 -41
-46 70 -43 -10 23 -86 9 32
-68 17 -83 10 58 43 70 -67
-1 105 -51 62 45 -66 36 -3
13 -22 59 70 -47 40 -16 3
14 -11 48 49 -25 11 -22 60
0 33 13 25 2 -2 5 127
-5 52 -19 -18 24 28 12 -15
-19 -24 -22 17 4 -46 -28 6
-45 -6 55 63 8 57 -28 70
-27 -16 17 69 3 15 27 -27
-75 89 24 -92 8 5 18 -40
-11 -53 -7 21 -12 35 43 127
-36 27 0 5 -32 14 27 4
-25 -11 22 -13 40 37 -20 64
-16 -9 -37 -6 9 40 7 -13
2 9 -10 3 99 -45 -3 38
60 18 32 2 8 16 93 10
0 -31 11 -13 5 35 18 28
20 -11 2 0 -39 -63 11 -12
-35 27 -53 -14 -9 -31 -18 37
6 -20 11 9 -13 -4 6 -8
-42 -16 -33 -41 33 17 13 28
20 -7 6 -33 5 5 -26 -8
-37 6 -11 6 -34 38 -4 -23
-41 -35 -5 28 127 2 62 17
43 -9 -5 -15 29 26 48 49
-13 -14 30 -40 -19 -32 -4 -44
4 -19 18 -7 37 99 8 9
96 18 -16 -38 -28 24 39 -50
0 -95 8 -29 -4 7 -13 -48
-3 -31 21 -9 -25 39 6 3

model_123/tf.compat.v1.nn.depthwise_conv2d_21/depthwise i1 [1, 3, 3, 96]
00000000: 221c e81b dd1c dc23 de22 cedf e721 e6e7
00000010: 1ddc e718 2714 e31a dfe9 1721 1bdc e0d7
00000020: e233 d7e9 2c21 271f 2421 e0e7 291a 1cd9
00000030: eadf e6eb 1ce5 2517 e2e3 e520 de21 e3dd
00000040: 2225 2722 16e2 2921 de1b 221d d31c 1de4
00000050: dee8 2223 df1d 2e1d 281e cb1a 1cee 1ecd
00000060: 4348 c744 b73e b64c bd52 a6b8 c845 b7cc
00000070: 4ebb c43c 4746 bf3f bac5 4142 41ba bab7
00000080: c858 b6c6 4d43 5441 4638 c5c5 5242 48b8
00000090: 0bb9 beb8 3dc5 4745 bdbe ba53 bc48 c0b8
000000a0: 424f 464d 2dbf 4147 bc3e 4648 8c3d 41bf
000000b0: b2c5 3d46 b243 413e 4845 8740 46c8 51af
000000c0: 2d39 cd33 ca30 d23b cd3a becb dc38 cdd9
000000d0: 38cc d72a 3031 cf2b ced1 2b2e 34cb d1c8
000000e0: d546 c3d2 3731 3e32 332a dad5 3731 33c6
000000f0: 09cc d4d1 2cd3 3337 ced1 c13c c738 d2c9
34 28 -24 27 -35 28 -36 35
-34 34 -50 -33 -25 33 -26 -25
29 -36 -25 24 39 20 -29 26
-33 -23 23 33 27 -36 -32 -41
-30 51 -41 -23 44 33 39 31
36 33 -32 -25 41 26 28 -39
-22 -33 -26 -21 28 -27 37 23
-30 -29 -27 32 -34 33 -29 -35
34 37 39 34 22 -30 41 33
-34 27 34 29 -45 28 29 -28
-34 -24 34 35 -33 29 46 29
40 30 -53 26 28 -18 30 -51
67 72 -57 68 -73 62 -74 76
-67 82 -90 -72 -56 69 -73 -52
78 -69 -60 60 71 70 -65 63
-70 -59 65 66 65 -70 -70 -73
-56 88 -74 -58 77 67 84 65
70 56 -59 -59 82 66 72 -72
11 -71 -66 -72 61 -59 71 69
-67 -66 -70 83 -68 72 -64 -72
66 79 70 77 45 -65 65 71
-68 62 70 72 -116 61 65 -65
-78 -59 61 70 -78 67 65 62
72 69 -121 64 70 -56 81 -81
45 57 -51 51 -54 48 -46 59
-51 58 -66 -53 -36 56 -51 -39
56 -52 -41 42 48 49 -49 43
-50 -47 43 46 52 -53 -47 -56
-43 70 -61 -46 55 49 62 50
51 42 -38 -43 55 49 51 -58
9 -52 -44 -47 44 -45 51 55
-50 -47 -63 60 -57 56 -46 -55

model_123/tf.nn.convolution_52/convolution i1 [96, 1, 1, 96]
00000000: f60b 0ae5 e4d6 c1fa f824 f0f7 e712 0cf0
00000010: f813 19fb d6d4 0c11 09f6 e70b 1328 04ed
00000020: 19fa 2fff dc28 533c 7fce 0a1a d5ef f011
00000030: f7e0 c1f5 a108 0119 e108 2aed 24fc 0feb
00000040: 65fa d003 1fff 0df7 f32d 1412 e112 2232
00000050: 2322 d8da 1a43 38c4 e2e2 e707 e8f5 bef4
00000060: 2ef4 d9e0 1422 da38 e806 32f4 2327 32ec
00000070: dde2 0af6 b0f8 e7fe dd0b cbd4 10ef eef5
00000080: fbf9 1810 06fb f3fb 1823 36f8 e6f7 2600
00000090: 0821 173d 0f04 02f6 e41f d016 10f7 5218
000000a0: 230c f0f1 ee02 0205 fb02 1e12 7f1c ffe3
000000b0: 1806 381a 19e4 dc04 0110 63d7 1a0e 0d0d
000000c0: f8ed 0910 0d25 1f0a 2b07 6118 1e02 230b
000000d0: 0ced eef6 c30d 1322 fcfa 20ff 18fd c913
000000e0: 08f5 f5fc d6fc cf0d ed08 82e2 3000 e214
000000f0: 10dd 7f2a dc11 feee 9c01 120c ecf6 a407
-10 11 10 -27 -28 -42 -63 -6
-8 36 -16 -9 -25 18 12 -16
-8 19 25 -5 -42 -44 12 17
9 -10 -25 11 19 40 4 -19
25 -6 47 -1 -36 40 83 60
127 -50 10 26 -43 -17 -16 17
-9 -32 -63 -11 -95 8 1 25
-31 8 42 -19 36 -4 15 -21
101 -6 -48 3 31 -1 13 -9
-13 45 20 18 -31 18 34 50
35 34 -40 -38 26 67 56 -60
-30 -30 -25 7 -24 -11 -66 -12
46 -12 -39 -32 20 34 -38 56
-24 6 50 -12 35 39 50 -20
-35 -30 10 -10 -80 -8 -25 -2
-35 11 -53 -44 16 -17 -18 -11
-5 -7 24 16 6 -5 -13 -5
24 35 54 -8 -26 -9 38 0
8 33 23 61 15 4 2 -10
-28 31 -48 22 16 -9 82 24
35 12 -16 -15 -18 2 2 5
-5 2 30 18 127 28 -1 -29
24 6 56 26 25 -28 -36 4
1 16 99 -41 26 14 13 13
-8 -19 9 16 13 37 31 10
43 7 97 24 30 2 35 11
12 -19 -18 -10 -61 13 19 34
-4 -6 32 -1 24 -3 -55 19
8 -11 -11 -4 -42 -4 -49 13
-19 8 -126 -30 48 0 -30 20
16 -35 127 42 -36 17 -2 -18
-100 1 18 12 -20 -10 -92 7

model_123/tf.nn.convolution_53/convolution i1 [96, 1, 1, 96]
00000000: e8fa d30e 24f5 f508 1004 0f04 ecf6 ec0e
00000010: ff0c 04f4 00e7 f3ef 36ed 08f0 0803 10fe
00000020: 0df4 f525 120d daee 1226 3806 dff6 07f3
00000030: fcf3 81f6 09eb 3eef 0401 e51d 03f2 e705
00000040: 1a13 f5ff faff 0d10 21fd ffea 121d 0c0b
00000050: f0fd 13da e7f8 01f4 f7f5 2a0b 07fd 0116
00000060: aa07 e238 1bc4 e5f5 081f 18e1 82f7 e307
00000070: 1a04 fae3 0ddd 20cd 2920 3bd9 e1e4 cf06
00000080: 9611 e6fd ee04 1cf5 21e6 15ee ca26 0bb8
00000090: d5ec e9e9 a80c 10ef e3ef 21da 6bcf ee1c
000000a0: f9f6 04f2 bde1 f3af 29ef 002d 566b 2b21
000000b0: 0908 e3cc 570c e705 e84d 5100 7ffb 1006
000000c0: cf09 6518 12e2 fbfd 33f4 81fb d0d9 d964
000000d0: fb23 18dd 16e1 00f0 ff04 061f 0eed 0bfb
000000e0: abe7 37ff e852 e5a9 d6cd eb22 4b50 d209
000000f0: cb29 12fe f5d8 c20f f028 f406 fcf6 c7fb
-24 -6 -45 14 36 -11 -11 8
16 4 15 4 -20 -10 -20 14
-1 12 4 -12 0 -25 -13 -17
54 -19 8 -16 8 3 16 -2
13 -12 -11 37 18 13 -38 -18
18 38 56 6 -33 -10 7 -13
-4 -13 -127 -10 9 -21 62 -17
4 1 -27 29 3 -14 -25 5
26 19 -11 -1 -6 -1 13 16
33 -3 -1 -22 18 29 12 11
-16 -3 19 -38 -25 -8 1 -12
-9 -11 42 11 7 -3 1 22
-86 7 -30 56 27 -60 -27 -11
8 31 24 -31 -126 -9 -29 7
26 4 -6 -29 13 -35 32 -51
41 32 59 -39 -31 -28 -49 6
-106 17 -26 -3 -18 4 28 -11
33 -26 21 -18 -54 38 11 -72
-43 -20 -23 -23 -88 12 16 -17
-29 -17 33 -38 107 -49 -18 28
-7 -10 4 -14 -67 -31 -13 -81
41 -17 0 45 86 107 43 33
9 8 -29 -52 87 12 -25 5
-24 77 81 0 127 -5 16 6
-49 9 101 24 18 -30 -5 -3
51 -12 -127 -5 -48 -39 -39 100
-5 35 24 -35 22 -31 0 -16
-1 4 6 31 14 -19 11 -5
-85 -25 55 -1 -24 82 -27 -87
-42 -51 -21 34 75 80 -46 9
-53 41 18 -2 -11 -40 -62 15
-16 40 -12 6 -4 -10 -57 -5

model_123/tf.compat.v1.nn.depthwise_conv2d_20/depthwise i1 [1, 3, 3, 96]
00000000: e4ef e51e 1def 1af0 1ade eedd ebe3 2114
00000010: 0e1e e1dc dd17 2009 1d1d 18e6 123e de2c
00000020: 18e3 ec1f e2e2 26ef 1614 e5f4 1aea 15e8
00000030: d810 e422 2403 e2d3 dff5 1b34 1fe4 152a
00000040: 1f1e e4e9 20ee e1e8 1a20 d914 1deb 343a
00000050: 171b 10ee e807 dc34 2020 e9bf efcc 2edf
00000060: d00c bd39 44cc 40d3 36bc c5c6 cfd8 413e
00000070: 2c39 bcb6 c641 3025 4248 3bbf 337a c252
00000080: 37c9 d442 c4bd 43c7 3740 badf 43c8 3bdf
00000090: b62d bd4d 4c1b b2a3 c0ee 444e 45ca 2f37
000000a0: 4142 becf 3ace bbca 4147 be3a 32cf 48db
000000b0: 3a2b 3ace bd29 ad51 3542 c99e c7e4 44bf
000000c0: e030 cf2c 36da 31d8 28cf d0d1 dddc 2d2f
000000d0: 1c25 d0c7 d62e 2229 3432 26d6 2259 d03c
000000e0: 27d6 dc2d d4cc 31d0 2e2d c8e5 30cf 24e3
000000f0: c723 d138 4929 c3c9 d3ef 372d 3cc7 332a
-28 -17 -27 30 29 -17 26 -16
26 -34 -18 -35 -21 -29 33 20
14 30 -31 -36 -35 23 32 9
29 29 24 -26 18 62 -34 44
24 -29 -20 31 -30 -30 38 -17
22 20 -27 -12 26 -22 21 -24
-40 16 -28 34 36 3 -30 -45
-33 -11 27 52 31 -28 21 42
31 30 -28 -23 32 -18 -31 -24
26 32 -39 20 29 -21 52 58
23 27 16 -18 -24 7 -36 52
32 32 -23 -65 -17 -52 46 -33
-48 12 -67 57 68 -52 64 -45
54 -68 -59 -58 -49 -40 65 62
44 57 -68 -74 -58 65 48 37
66 72 59 -65 51 122 -62 82
55 -55 -44 66 -60 -67 67 -57
55 64 -70 -33 67 -56 59 -33
-74 45 -67 77 76 27 -78 -93
-64 -18 68 78 69 -54 47 55
65 66 -66 -49 58 -50 -69 -54
65 71 -66 58 50 -49 72 -37
58 43 58 -50 -67 41 -83 81
53 66 -55 -98 -57 -28 68 -65
-32 48 -49 44 54 -38 49 -40
40 -49 -48 -47 -35 -36 45 47
28 37 -48 -57 -42 46 34 41
52 50 38 -42 34 89 -48 60
39 -42 -36 45 -44 -52 49 -48
46 45 -56 -27 48 -49 36 -29
-57 35 -47 56 73 41 -61 -55
-45 -17 55 45 60 -57 51 42

model_123/tf.nn.convolution_51/convolution i1 [48, 1, 1, 48]
00000000: f601 fcfc fcff 81f1 fcdf 06f2 05f9 0b03
00000010: ff18 fcff e409 fb00 e5f5 fc0a 0207 fef9
00000020: 0508 05fb 0c02 04f7 04f5 0202 fcf9 0111
00000030: 43c4 17e6 c49e 1a4e f8f0 2e2a f7ee bc05
00000040: d240 26d2 ed0b 05ec f348 f08b db0f 0705
00000050: 76ee ecf0 e937 17ed 8107 e0fc fce1 29da
00000060: 192d 0511 18c1 fe17 def5 25c1 1906 03a3
00000070: e413 e4e3 fe34 23d8 ffd9 15fa 81d6 eeca
00000080: 1b2d 161a 10fc 930e 19fd fb1d fdea 161f
00000090: f444 1cb8 ece6 191a e7e2 e00f 81c8 e201
000000a0: 3433 13e0 f31e f10c f7fa 0d1f f334 1a16
000000b0: fb18 4ce9 f536 deac d40b 21de fbb4 33d5
000000c0: 05df 0305 2c53 192b 8f00 06d8 18ee d9fb
000000d0: 0100 de08 2014 b9f2 f560 9df8 feff 152c
000000e0: 527f 4cbb 0411 9cf8 5cfb 1add b807 3abb
000000f0: f90b 0bf9 d1f4 fd05 d609 1417 fb00 f7e1
-10 1 -4 -4 -4 -1 -127 -15
-4 -33 6 -14 5 -7 11 3
-1 24 -4 -1 -28 9 -5 0
-27 -11 -4 10 2 7 -2 -7
5 8 5 -5 12 2 4 -9
4 -11 2 2 -4 -7 1 17
67 -60 23 -26 -60 -98 26 78
-8 -16 46 42 -9 -18 -68 5
-46 64 38 -46 -19 11 5 -20
-13 72 -16 -117 -37 15 7 5
118 -18 -20 -16 -23 55 23 -19
-127 7 -32 -4 -4 -31 41 -38
25 45 5 17 24 -63 -2 23
-34 -11 37 -63 25 6 3 -93
-28 19 -28 -29 -2 52 35 -40
-1 -39 21 -6 -127 -42 -18 -54
27 45 22 26 16 -4 -109 14
25 -3 -5 29 -3 -22 22 31
-12 68 28 -72 -20 -26 25 26
-25 -30 -32 15 -127 -56 -30 1
52 51 19 -32 -13 30 -15 12
-9 -6 13 31 -13 52 26 22
-5 24 76 -23 -11 54 -34 -84
-44 11 33 -34 -5 -76 51 -43
5 -33 3 5 44 83 25 43
-113 0 6 -40 24 -18 -39 -5
1 0 -34 8 32 20 -71 -14
-11 96 -99 -8 -2 -1 21 44
82 127 76 -69 4 17 -100 -8
92 -5 26 -35 -72 7 58 -69
-7 11 11 -7 -47 -12 -3 5
-42 9 20 23 -5 0 -9 -31

model_123/tf.compat.v1.nn.depthwise_conv2d_19/depthwise i1 [1, 3, 3, 48]
00000000: 16fd 200c fef7 f807 00fc edd3 040a 280c
00000010: fb12 f111 f0ec ecfe 7fff 18f3 021a 03f4
00000020: fcf8 2734 30fb fb01 04c3 321a e820 27e7
00000030: 190a 5e6f c3f6 4c53 0d0b e38a 00fc 7b20
00000040: 2426 dcfc e5bf e4fd 2b34 09ec 0b54 ced1
00000050: f5e0 286b 2fad e502 ff04 6af1 b951 7fef
00000060: 12fd 2211 f6f6 6209 0433 e1cd 0b0b 300d
00000070: f610 f012 e4e2 f4fe cb05 0def 052f 02ee
00000080: fbf4 2431 2bfb f906 0201 351e e324 1aec
00000090: 18f5 f901 e5f5 fd32 0f81 dc83 1419 5b16
000000a0: fc37 e6fc d7b9 dfed 75f5 f2f4 196b c9b6
000000b0: e6ef 257f 7d94 e817 ffb8 7f09 05f2 48c7
000000c0: 7f81 2b38 c67f ce7f 7f16 811b 7f81 ed81
000000d0: e681 7f7f 811a 7f7f f781 817f 817f 7f81
000000e0: 7f7f 7f0d 6981 7f81 81eb 157f 81ea 7ca8
000000f0: 1ff0 f6ff e7f7 5741 1336 cf81 2620 5b15
22 -3 32 12 -2 -9 -8 7
0 -4 -19 -45 4 10 40 12
-5 18 -15 17 -16 -20 -20 -2
127 -1 24 -13 2 26 3 -12
-4 -8 39 52 48 -5 -5 1
4 -61 50 26 -24 32 39 -25
25 10 94 111 -61 -10 76 83
13 11 -29 -118 0 -4 123 32
36 38 -36 -4 -27 -65 -28 -3
43 52 9 -20 11 84 -50 -47
-11 -32 40 107 47 -83 -27 2
-1 4 106 -15 -71 81 127 -17
18 -3 34 17 -10 -10 98 9
4 51 -31 -51 11 11 48 13
-10 16 -16 18 -28 -30 -12 -2
-53 5 13 -17 5 47 2 -18
-5 -12 36 49 43 -5 -7 6
2 1 53 30 -29 36 26 -20
24 -11 -7 1 -27 -11 -3 50
15 -127 -36 -125 20 25 91 22
-4 55 -26 -4 -41 -71 -33 -19
117 -11 -14 -12 25 107 -55 -74
-26 -17 37 127 125 -108 -24 23
-1 -72 127 9 5 -14 72 -57
127 -127 43 56 -58 127 -50 127
127 22 -127 27 127 -127 -19 -127
-26 -127 127 127 -127 26 127 127
-9 -127 -127 127 -127 127 127 -127
127 127 127 13 105 -127 127 -127
-127 -21 21 127 -127 -22 124 -88
31 -16 -10 -1 -25 -9 87 65
19 54 -49 -127 38 32 91 21

model_123/tf.nn.convolution_50/convolution i1 [48, 1, 1, 48]
00000000: f3e0 18e3 0ce5 19e1 4728 e869 04fc 527f
00000010: 1441 a1a6 09c9 00c7 ffef f436 caf9 2ee9
00000020: ec73 23c1 15e7 e0f4 e7e1 23cd e316 0800
00000030: e2fb 3805 15f7 2938 863c 7f58 e03d 3014
00000040: f4f5 d8ee 4e18 dac9 e402 1a18 1006 010c
00000050: f717 bdb1 1bb0 fd03 efcf dfc0 1b49 050d
00000060: 0939 f0f7 0e04 27e9 01f0 f8dd 1e17 e714
00000070: 04f7 e4f3 2581 0b33 f21c 0816 1737 3712
00000080: f2f9 fb65 0e36 2fb9 32e8 f31f 07f3 f3ee
00000090: 2611 000b 1cfe e000 11f2 bc13 0041 7fe2
000000a0: 1b64 5b0c 44b1 f5c1 f2df 45ed 00db b9e4
000000b0: e5ea ab39 0ae2 6622 fbed b924 1841 551a
000000c0: ec00 07e7 42f8 45ee e108 9ef6 fcc5 ab04
000000d0: 170c e9d6 7807 08dd dae1 1e36 24ce f254
000000e0: 731f c3ed c6c0 7fc7 bbcc 3bbf 0a6a 4307
000000f0: 13ec 0606 f246 1230 0722 fd26 e101 3cfd
-13 -32 24 -29 12 -27 25 -31
71 40 -24 105 4 -4 82 127
20 65 -95 -90 9 -55 0 -57
-1 -17 -12 54 -54 -7 46 -23
-20 115 35 -63 21 -25 -32 -12
-25 -31 35 -51 -29 22 8 0
-30 -5 56 5 21 -9 41 56
-122 60 127 88 -32 61 48 20
-12 -11 -40 -18 78 24 -38 -55
-28 2 26 24 16 6 1 12
-9 23 -67 -79 27 -80 -3 3
-17 -49 -33 -64 27 73 5 13
9 57 -16 -9 14 4 39 -23
1 -16 -8 -35 30 23 -25 20
4 -9 -28 -13 37 -127 11 51
-14 28 8 22 23 55 55 18
-14 -7 -5 101 14 54 47 -71
50 -24 -13 31 7 -13 -13 -18
38 17 0 11 28 -2 -32 0
17 -14 -68 19 0 65 127 -30
27 100 91 12 68 -79 -11 -63
-14 -33 69 -19 0 -37 -71 -28
-27 -22 -85 57 10 -30 102 34
-5 -19 -71 36 24 65 85 26
-20 0 7 -25 66 -8 69 -18
-31 8 -98 -10 -4 -59 -85 4
23 12 -23 -42 120 7 8 -35
-38 -31 30 54 36 -50 -14 84
115 31 -61 -19 -58 -64 127 -57
-69 -52 59 -65 10 106 67 7
19 -20 6 6 -14 70 18 48
7 34 -3 38 -31 1 60 -3

model_123/tf.nn.convolution_49/convolution i1 [48, 1, 1, 48]
00000000: 46e4 08f6 dff4 0412 12f0 c44d e017 1820
00000010: 1ecc 06dc 05f5 c40c 37ed ffff 2893 0832
00000020: 0dd5 f723 160f e347 df7f 40e6 4615 17da
00000030: 1adf f12c f9e8 c2fa 33fe 2dde 28f3 06bd
00000040: 0830 001f 292c ca03 8a1a d9ff c300 00c5
00000050: 3202 ffff 2170 0136 fd08 7f11 e051 fee5
00000060: e8ee 2dda d80c e90d f51d f0df d211 0481
00000070: c5d3 1634 1530 0cf6 2f0f f4e1 0cf5 d819
00000080: 49b7 f2e6 1803 10cf 0ff7 16e9 053f ff04
00000090: f997 67c1 fff1 ec2a 4326 3405 f5f3 bbed
000000a0: 29ee 4501 bd1e 0302 1fbc 090e 1208 8803
000000b0: 2c81 8621 2401 0627 fcec 3d21 f109 d9e5
000000c0: 14fc 0101 fc0d 1146 f518 0df9 fc1d 25fb
000000d0: ee09 ec17 1805 031c cb00 f309 fb01 11fc
000000e0: e7d9 fb03 ef81 080f f9fa 3f0e fc2d f1f4
000000f0: d722 1c01 17c7 d72b 3808 e311 d84a 75ec
70 -28 8 -10 -33 -12 4 18
18 -16 -60 77 -32 23 24 32
30 -52 6 -36 5 -11 -60 12
55 -19 -1 -1 40 -109 8 50
13 -43 -9 35 22 15 -29 71
-33 127 64 -26 70 21 23 -38
26 -33 -15 44 -7 -24 -62 -6
51 -2 45 -34 40 -13 6 -67
8 48 0 31 41 44 -54 3
-118 26 -39 -1 -61 0 0 -59
50 2 -1 -1 33 112 1 54
-3 8 127 17 -32 81 -2 -27
-24 -18 45 -38 -40 12 -23 13
-11 29 -16 -33 -46 17 4 -127
-59 -45 22 52 21 48 12 -10
47 15 -12 -31 12 -11 -40 25
73 -73 -14 -26 24 3 16 -49
15 -9 22 -23 5 63 -1 4
-7 -105 103 -63 -1 -15 -20 42
67 38 52 5 -11 -13 -69 -19
41 -18 69 1 -67 30 3 2
31 -68 9 14 18 8 -120 3
44 -127 -122 33 36 1 6 39
-4 -20 61 33 -15 9 -39 -27
20 -4 1 1 -4 13 17 70
-11 24 13 -7 -4 29 37 -5
-18 9 -20 23 24 5 3 28
-53 0 -13 9 -5 1 17 -4
-25 -39 -5 3 -17 -127 8 15
-7 -6 63 14 -4 45 -15 -12
-41 34 28 1 23 -57 -41 43
56 8 -29 17 -40 74 117 -20

model_123/tf.compat.v1.nn.depthwise_conv2d_18/depthwise i1 [1, 3, 3, 48]
00000000: fc20 2c08 142a 110d 3619 05fc d700 3af9
00000010: 4afc d7e9 09fd 0103 f9cb 0135 4400 1c0d
00000020: 11fd 3aef da2d 6cfd f8f4 01f9 ddf5 0bfb
00000030: df69 08c3 0527 9e1d 4d6c 03f1 ab78 7f16
00000040: 5d61 811a ee81 ee10 1581 81fb 2be0 7f0a
00000050: f9e0 dec7 9d47 76f0 d1cd f9df 0ed3 d71c
00000060: fc25 db06 0d20 0b13 412a 06fb e10e 39ff
00000070: 52fd c6eb 05d5 0203 f7c0 e6c7 43fe 1c0b
00000080: 12fe e5e4 cf32 7205 0cfc 03f8 e0f5 07fc
00000090: f87f 4916 f76d 4250 61ee 19e8 c113 c412
000000a0: 5779 baf2 f397 ebf5 0cff ba7f 67e9 cffd
000000b0: 14e1 728e 8148 6bac a1fb fabc 9de8 3c29
000000c0: 7f82 2481 7ff5 7f7f 7f3f 817f e235 147f
000000d0: ba2d b881 7f4b 8181 8135 cb0e 727f 1b81
000000e0: 7ffc 0dbd f27f a581 7f7f 7f81 2681 f181
000000f0: fa7a 8112 fd6a 5b5c 5df5 14fb c72b c61b
-4 32 44 8 20 42 17 13
54 25 5 -4 -41 0 58 -7
74 -4 -41 -23 9 -3 1 3
-7 -53 1 53 68 0 28 13
17 -3 58 -17 -38 45 108 -3
-8 -12 1 -7 -35 -11 11 -5
-33 105 8 -61 5 39 -98 29
77 108 3 -15 -85 120 127 22
93 97 -127 26 -18 -127 -18 16
21 -127 -127 -5 43 -32 127 10
-7 -32 -34 -57 -99 71 118 -16
-47 -51 -7 -33 14 -45 -41 28
-4 37 -37 6 13 32 11 19
65 42 6 -5 -31 14 57 -1
82 -3 -58 -21 5 -43 2 3
-9 -64 -26 -57 67 -2 28 11
18 -2 -27 -28 -49 50 114 5
12 -4 3 -8 -32 -11 7 -4
-8 127 73 22 -9 109 66 80
97 -18 25 -24 -63 19 -60 18
87 121 -70 -14 -13 -105 -21 -11
12 -1 -70 127 103 -23 -49 -3
20 -31 114 -114 -127 72 107 -84
-95 -5 -6 -68 -99 -24 60 41
127 -126 36 -127 127 -11 127 127
127 63 -127 127 -30 53 20 127
-70 45 -72 -127 127 75 -127 -127
-127 53 -53 14 114 127 27 -127
127 -4 13 -67 -14 127 -91 -127
127 127 127 -127 38 -127 -15 -127
-6 122 -127 18 -3 106 91 92
93 -11 20 -5 -57 43 -58 27

model_123/tf.nn.convolution_48/convolution i1 [48, 1, 1, 48]
00000000: 7ff1 0cff 54cd 29eb c721 d927 4b01 00fe
00000010: ff16 fcfa 2ee0 f5fa e005 e2f1 ea02 05fd
00000020: 051b f027 ee25 05d7 11f9 1ac5 2201 fd14
00000030: 1f2f 033e 47fe e717 200b 28d6 e7fd 1df3
00000040: f825 bee4 4dec 0608 de19 0d97 d791 7ff5
00000050: ecd8 0501 c2f8 ca33 ebee 15d0 d82d 113d
00000060: 16e0 04f4 11e2 05f3 f17f 0503 ed53 05c5
00000070: 0622 1fe5 fb62 0bfc f510 e207 ece1 f90f
00000080: f60c 298f fdfe 03e1 0edf fafc fd11 03fd
00000090: ebe6 0df9 08e7 f4e2 d1f7 f4f6 060b e3f8
000000a0: 004e e7f9 da0e 13ff 0cec 0c2f 0d23 f1d5
000000b0: 0738 40f4 7f16 2a01 0100 0620 d81d fbc8
000000c0: 0006 f702 81f5 ffef e01a dd04 0d0b 0709
000000d0: 1817 e507 15fe 17fe 070d 061c 29f8 2b0a
000000e0: f8f8 1410 f32e ffdf 250a d7ef 5c28 00f4
000000f0: 81de 2af8 29fe 02f5 a9db 3eff cf05 dfff
127 -15 12 -1 84 -51 41 -21
-57 33 -39 39 75 1 0 -2
-1 22 -4 -6 46 -32 -11 -6
-32 5 -30 -15 -22 2 5 -3
5 27 -16 39 -18 37 5 -41
17 -7 26 -59 34 1 -3 20
31 47 3 62 71 -2 -25 23
32 11 40 -42 -25 -3 29 -13
-8 37 -66 -28 77 -20 6 8
-34 25 13 -105 -41 -111 127 -11
-20 -40 5 1 -62 -8 -54 51
-21 -18 21 -48 -40 45 17 61
22 -32 4 -12 17 -30 5 -13
-15 127 5 3 -19 83 5 -59
6 34 31 -27 -5 98 11 -4
-11 16 -30 7 -20 -31 -7 15
-10 12 41 -113 -3 -2 3 -31
14 -33 -6 -4 -3 17 3 -3
-21 -26 13 -7 8 -25 -12 -30
-47 -9 -12 -10 6 11 -29 -8
0 78 -25 -7 -38 14 19 -1
12 -20 12 47 13 35 -15 -43
7 56 64 -12 127 22 42 1
1 0 6 32 -40 29 -5 -56
0 6 -9 2 -127 -11 -1 -17
-32 26 -35 4 13 11 7 9
24 23 -27 7 21 -2 23 -2
7 13 6 28 41 -8 43 10
-8 -8 20 16 -13 46 -1 -33
37 10 -41 -17 92 40 0 -12
-127 -34 42 -8 41 -2 2 -11
-87 -37 62 -1 -49 5 -33 -1

model_123/tf.nn.convolution_47/convolution i1 [48, 1, 1, 48]
00000000: dbdb f506 c4f3 1ffa 1cff 2400 fde9 d0ab
00000010: e281 4bca 2e83 ba17 03ee e8cd e2e1 2307
00000020: 2b0a 0204 0dff d2ee d83e d410 07de db06
00000030: 22ff dd7f ebfe 2410 ec0f 09e9 eef7 190e
00000040: e311 00d4 d7ce 11c8 0b02 cff9 fbf9 f5f6
00000050: 114a 1504 2411 ca10 fdfd f7f5 43d0 4236
00000060: b948 22fb 99e3 0b01 811c e4f4 3635 98d7
00000070: a9ec 0ed2 bc35 03ea 0437 0d13 de15 fc09
00000080: 4b08 3f20 c12e ea0b d921 5de0 f6e4 13e4
00000090: 05de efea f6e4 ee02 811c 060e 2add b90f
000000a0: 65a0 2e0e f5d3 31ef d9d0 0a0f 20de fd0c
000000b0: c204 15ef 2407 fa0d e607 011c e20e 0520
000000c0: faf7 5f0e 20f2 ee00 1520 0105 7f06 e4f2
000000d0: 07fd 04e0 fecf da14 1af5 1aeb 0e1c 001d
000000e0: cd36 fa00 fbfc d719 2f01 1206 e1e5 400b
000000f0: dbfe 0435 0a07 fcff 0506 faf9 0ce9 1218
-37 -37 -11 6 -60 -13 31 -6
28 -1 36 0 -3 -23 -48 -85
-30 -127 75 -54 46 -125 -70 23
3 -18 -24 -51 -30 -31 35 7
43 10 2 4 13 -1 -46 -18
-40 62 -44 16 7 -34 -37 6
34 -1 -35 127 -21 -2 36 16
-20 15 9 -23 -18 -9 25 14
-29 17 0 -44 -41 -50 17 -56
11 2 -49 -7 -5 -7 -11 -10
17 74 21 4 36 17 -54 16
-3 -3 -9 -11 67 -48 66 54
-71 72 34 -5 -103 -29 11 1
-127 28 -28 -12 54 53 -104 -41
-87 -20 14 -46 -68 53 3 -22
4 55 13 19 -34 21 -4 9
75 8 63 32 -63 46 -22 11
-39 33 93 -32 -10 -28 19 -28
5 -34 -17 -22 -10 -28 -18 2
-127 28 6 14 42 -35 -71 15
101 -96 46 14 -11 -45 49 -17
-39 -48 10 15 32 -34 -3 12
-62 4 21 -17 36 7 -6 13
-26 7 1 28 -30 14 5 32
-6 -9 95 14 32 -14 -18 0
21 32 1 5 127 6 -28 -14
7 -3 4 -32 -2 -49 -38 20
26 -11 26 -21 14 28 0 29
-51 54 -6 0 -5 -4 -41 25
47 1 18 6 -31 -27 64 11
-37 -2 4 53 10 7 -4 -1
5 6 -6 -7 12 -23 18 24

model_123/tf.compat.v1.nn.depthwise_conv2d_17/depthwise i1 [1, 3, 3, 48]
00000000: f702 17f8 fe05 d52d 0623 e2ed f901 fe2f
00000010: 081f 2008 e70a ecf5 ff1e fd15 06e5 0100
00000020: e91b eab3 09e9 0f31 0445 fdf2 0200 fcef
00000030: 81dd 7f04 f6ed 4c57 09fa d810 ed15 271e
00000040: 0a7f 7fdc 8138 7fb5 f147 eb7f 060f 8419
00000050: 1130 24f3 e9e7 632b 147c 81f1 ca7f ee67
00000060: e8f6 1cf6 ff1f da19 07fb 0cf8 fa0c 053f
00000070: 062c 2bfb e314 effa 1d12 fc28 11de abfb
00000080: fd27 ead4 08f3 2460 0633 ef08 01f3 00d9
00000090: fdf6 fcfa eae8 bea0 fb7f 81d4 05a7 180b
000000a0: ff0e 0af7 e70e d7f2 8140 ed25 e1a7 99c4
000000b0: e4f9 8191 8100 311d 47de f481 dadb f4fb
000000c0: 2581 1a7f 7ffd 7f0f 8104 a5b4 7fb7 8161
000000d0: 81db b17f 2c81 bc7f 4081 7fbe 7fb0 b881
000000e0: 817f 378c 6881 7f34 817f 0798 7ff8 7fd3
000000f0: 03de 0511 f37f cd7f d9f2 e87f 027f 0c17
-9 2 23 -8 -2 5 -43 45
6 35 -30 -19 -7 1 -2 47
8 31 32 8 -25 10 -20 -11
-1 30 -3 21 6 -27 1 0
-23 27 -22 -77 9 -23 15 49
4 69 -3 -14 2 0 -4 -17
-127 -35 127 4 -10 -19 76 87
9 -6 -40 16 -19 21 39 30
10 127 127 -36 -127 56 127 -75
-15 71 -21 127 6 15 -124 25
17 48 36 -13 -23 -25 99 43
20 124 -127 -15 -54 127 -18 103
-24 -10 28 -10 -1 31 -38 25
7 -5 12 -8 -6 12 5 63
6 44 43 -5 -29 20 -17 -6
29 18 -4 40 17 -34 -85 -5
-3 39 -22 -44 8 -13 36 96
6 51 -17 8 1 -13 0 -39
-3 -10 -4 -6 -22 -24 -66 -96
-5 127 -127 -44 5 -89 24 11
-1 14 10 -9 -25 14 -41 -14
-127 64 -19 37 -31 -89 -103 -60
-28 -7 -127 -111 -127 0 49 29
71 -34 -12 -127 -38 -37 -12 -5
37 -127 26 127 127 -3 127 15
-127 4 -91 -76 127 -73 -127 97
-127 -37 -79 127 44 -127 -68 127
64 -127 127 -66 127 -80 -72 -127
-127 127 55 -116 104 -127 127 52
-127 127 7 -104 127 -8 127 -45
3 -34 5 17 -13 127 -51 127
-39 -14 -24 127 2 127 12 23

model_123/tf.nn.convolution_46/convolution i1 [48, 1, 1, 48]
00000000: 0009 ff00 ee03 a0f5 e9ef 1c1d e354 0c0b
00000010: 0606 02d8 09fa fdd1 ec00 1681 00fc 01bb
00000020: 01e9 e9fb eb10 d114 0c0e 0007 e2f7 f506
00000030: 0eef 980d 0ae8 10fc f0e7 18d9 09ef fc0e
00000040: 06f5 0300 431b ea42 07e6 f7fd 2a09 81f9
00000050: 0d2d fede b2e7 04d5 ff16 080c d294 1720
00000060: 0519 0403 010b 95f8 ed05 ec27 813f ea85
00000070: 1403 f5f5 09ee ecfa fd04 0288 1c0e fcf3
00000080: 02e3 ef05 03fe b30c 0913 0de1 0609 97bc
00000090: 9afa fff2 dcfa 03ff 1509 080e fdf9 00fa
000000a0: 7f03 1106 e103 fb0a 050a fe00 14ee 0606
000000b0: 3fef 0406 07fd 0003 e905 0c07 fcf5 04f5
000000c0: f8f4 e8f8 f700 d600 2c02 032b ebfc 10fa
000000d0: 0d22 1c00 bf1f 03f4 c6f7 15fc 7f02 e502
000000e0: 0df9 f3eb f806 10f1 e2f1 f614 edf1 df10
000000f0: 11f9 ce12 1a09 0326 5794 5a3e 353f 131d
0 9 -1 0 -18 3 -96 -11
-23 -17 28 29 -29 84 12 11
6 6 2 -40 9 -6 -3 -47
-20 0 22 -127 0 -4 1 -69
1 -23 -23 -5 -21 16 -47 20
12 14 0 7 -30 -9 -11 6
14 -17 -104 13 10 -24 16 -4
-16 -25 24 -39 9 -17 -4 14
6 -11 3 0 67 27 -22 66
7 -26 -9 -3 42 9 -127 -7
13 45 -2 -34 -78 -25 4 -43
-1 22 8 12 -46 -108 23 32
5 25 4 3 1 11 -107 -8
-19 5 -20 39 -127 63 -22 -123
20 3 -11 -11 9 -18 -20 -6
-3 4 2 -120 28 14 -4 -13
2 -29 -17 5 3 -2 -77 12
9 19 13 -31 6 9 -105 -68
-102 -6 -1 -14 -36 -6 3 -1
21 9 8 14 -3 -7 0 -6
127 3 17 6 -31 3 -5 10
5 10 -2 0 20 -18 6 6
63 -17 4 6 7 -3 0 3
-23 5 12 7 -4 -11 4 -11
-8 -12 -24 -8 -9 0 -42 0
44 2 3 43 -21 -4 16 -6
13 34 28 0 -65 31 3 -12
-58 -9 21 -4 127 2 -27 2
13 -7 -13 -21 -8 6 16 -15
-30 -15 -10 20 -19 -15 -33 16
17 -7 -50 18 26 9 3 38
87 -108 90 62 53 63 19 29

model_123/tf.nn.convolution_45/convolution i1 [48, 1, 1, 48]
00000000: 0303 2ef0 e8d6 1616 0042 bc0e 0918 7fba
00000010: edff e923 06ee 1111 fbfa ff31 04f7 fcfd
00000020: 0b03 fa02 0bfe e903 f8fe e90d 1600 d7b7
00000030: dcfb 170f f6ea c000 1f6a 12e9 ec16 06fa
00000040: ef0a 7fde 15ee 0821 05ee 14e0 1307 17f3
00000050: f510 9021 15eb 290e 13ec c1cb de13 f042
00000060: e424 f608 cff6 be2f 7f55 0313 c41d f1f8
00000070: 10e8 a200 00e7 0c23 13df 279d 00c7 0af0
00000080: fe21 3e21 e10d d72f f62c db33 742f fe61
00000090: 0c26 b34b 69de 269b f84c 00e7 feea 5bd2
000000a0: 4126 0e08 1e31 81e8 0915 45db d303 f919
000000b0: 0ac3 7725 f01c f917 0a07 6090 cb3e 4f11
000000c0: 1e1b ce9c acf0 2251 0b12 00fa f3ec 0af7
000000d0: 6ad7 ef05 101b 54f0 f720 81e7 f909 eb05
000000e0: 0d49 0210 ea02 11ed 01e9 90c4 e493 52fa
000000f0: e5ba 19dd cffa ee26 44f1 0ae2 15f5 0c00
3 3 46 -16 -24 -42 22 22
0 66 -68 14 9 24 127 -70
-19 -1 -23 35 6 -18 17 17
-5 -6 -1 49 4 -9 -4 -3
11 3 -6 2 11 -2 -23 3
-8 -2 -23 13 22 0 -41 -73
-36 -5 23 15 -10 -22 -64 0
31 106 18 -23 -20 22 6 -6
-17 10 127 -34 21 -18 8 33
5 -18 20 -32 19 7 23 -13
-11 16 -112 33 21 -21 41 14
19 -20 -63 -53 -34 19 -16 66
-28 36 -10 8 -49 -10 -66 47
127 85 3 19 -60 29 -15 -8
16 -24 -94 0 0 -25 12 35
19 -33 39 -99 0 -57 10 -16
-2 33 62 33 -31 13 -41 47
-10 44 -37 51 116 47 -2 97
12 38 -77 75 105 -34 38 -101
-8 76 0 -25 -2 -22 91 -46
65 38 14 8 30 49 -127 -24
9 21 69 -37 -45 3 -7 25
10 -61 119 37 -16 28 -7 23
10 7 96 -112 -53 62 79 17
30 27 -50 -100 -84 -16 34 81
11 18 0 -6 -13 -20 10 -9
106 -41 -17 5 16 27 84 -16
-9 32 -127 -25 -7 9 -21 5
13 73 2 16 -22 2 17 -19
1 -23 -112 -60 -28 -109 82 -6
-27 -70 25 -35 -49 -6 -18 38
68 -15 10 -30 21 -11 12 0

model_123/tf.compat.v1.nn.depthwise_conv2d_16/depthwise i1 [1, 3, 3, 48]
00000000: 14e2 0d04 e5df f6e5 f3ff 0c0b feff 021e
00000010: fb18 f823 e7d9 00e9 2a13 ebf2 0cdc fff0
00000020: f713 1515 fff3 05c8 01aa 0bfb f107 fc00
00000030: 68af 04f3 fa9a 7006 edf9 191a 27f4 db25
00000040: 0913 163f 8712 15fa e91a 17c9 ef1a f41e
00000050: 7f20 d9e3 8114 23c2 1817 c9ff 5714 05dd
00000060: 08e1 1007 21e7 0e1b edff 0304 faeb fcdf
00000070: fa16 f423 d3fe 00fa b504 06ec 1010 06fc
00000080: 0112 0c1e f6e1 fdcb 0028 10fa f1eb f9fe
00000090: 1029 02fa f506 50e3 25fa 0efd d80a fc63
000000a0: 09dc 0b68 1081 fe81 2c7f 00ce e181 7ffc
000000b0: c8f7 0002 edfa 39e4 1181 0c03 e5d8 efdc
000000c0: 607f 8181 7f9f 7f81 7f7f 8181 f8cf 7f0e
000000d0: 7fe6 7f7f 7f52 8105 3949 8181 ba31 a657
000000e0: 168a 7f81 f81f 7f81 516e 7f7f 4781 7f7f
000000f0: 0c3e e3ed 3014 5105 5dfe 1c16 d681 cc81
20 -30 13 4 -27 -33 -10 -27
-13 -1 12 11 -2 -1 2 30
-5 24 -8 35 -25 -39 0 -23
42 19 -21 -14 12 -36 -1 -16
-9 19 21 21 -1 -13 5 -56
1 -86 11 -5 -15 7 -4 0
104 -81 4 -13 -6 -102 112 6
-19 -7 25 26 39 -12 -37 37
9 19 22 63 -121 18 21 -6
-23 26 23 -55 -17 26 -12 30
127 32 -39 -29 -127 20 35 -62
24 23 -55 -1 87 20 5 -35
8 -31 16 7 33 -25 14 27
-19 -1 3 4 -6 -21 -4 -33
-6 22 -12 35 -45 -2 0 -6
-75 4 6 -20 16 16 6 -4
1 18 12 30 -10 -31 -3 -53
0 40 16 -6 -15 -21 -7 -2
16 41 2 -6 -11 6 80 -29
37 -6 14 -3 -40 10 -4 99
9 -36 11 104 16 -127 -2 -127
44 127 0 -50 -31 -127 127 -4
-56 -9 0 2 -19 -6 57 -28
17 -127 12 3 -27 -40 -17 -36
96 127 -127 -127 127 -97 127 -127
127 127 -127 -127 -8 -49 127 14
127 -26 127 127 127 82 -127 5
57 73 -127 -127 -70 49 -90 87
22 -118 127 -127 -8 31 127 -127
81 110 127 127 71 -127 127 127
12 62 -29 -19 48 20 81 5
93 -2 28 22 -42 -127 -52 -127

model_123/tf.nn.convolution_44/convolution i1 [48, 1, 1, 48]
00000000: 8121 00ff fbed fed9 ddd1 100d e986 f5ed
00000010: 1eef ff1a 5b09 534a 1bf5 f0df 04d1 1d0b
00000020: 2aff 09ee 6908 34ed 3ecf 93ec 2acf 08fd
00000030: b448 dc22 fdae 24c4 07cd 1ed7 bdc6 13d7
00000040: d3ed f8bf 5902 2eea fd0b 213e dd0d 2fbe
00000050: 6905 eab6 7381 d7c9 46e3 4dca c7ab fbbd
00000060: 1038 f8eb 03f8 e6ee 0bc8 2bf5 dd0a bd16
00000070: 36fe 1feb f7ff b0f9 f00d 18dc e2f9 1f03
00000080: 4805 fee6 dbe0 1f29 81b6 e1fa 0aea 29df
00000090: e11c fe22 fecb 0615 e9da 0e30 a12e ff7b
000000a0: f109 db08 091e f1cf 01f9 05a2 f327 d5cb
000000b0: 1d08 f3ea 3c36 e57f d105 dbbf 0ce7 da0b
000000c0: f2f9 f3f8 fb3f f203 f84b 0a1f f2f3 050a
000000d0: 0df7 fae1 0d0f 04fc ffe7 f74b e5eb f1f0
000000e0: 0961 fb2b 09c7 fadd 0106 f381 0af8 fbb0
000000f0: ffff 07ff 0103 08fc 0fff 01ff fdf9 fafe
-127 33 0 -1 -5 -19 -2 -39
-35 -47 16 13 -23 -122 -11 -19
30 -17 -1 26 91 9 83 74
27 -11 -16 -33 4 -47 29 11
42 -1 9 -18 105 8 52 -19
62 -49 -109 -20 42 -49 8 -3
-76 72 -36 34 -3 -82 36 -60
7 -51 30 -41 -67 -58 19 -41
-45 -19 -8 -65 89 2 46 -22
-3 11 33 62 -35 13 47 -66
105 5 -22 -74 115 -127 -41 -55
70 -29 77 -54 -57 -85 -5 -67
16 56 -8 -21 3 -8 -26 -18
11 -56 43 -11 -35 10 -67 22
54 -2 31 -21 -9 -1 -80 -7
-16 13 24 -36 -30 -7 31 3
72 5 -2 -26 -37 -32 31 41
-127 -74 -31 -6 10 -22 41 -33
-31 28 -2 34 -2 -53 6 21
-23 -38 14 48 -95 46 -1 123
-15 9 -37 8 9 30 -15 -49
1 -7 5 -94 -13 39 -43 -53
29 8 -13 -22 60 54 -27 127
-47 5 -37 -65 12 -25 -38 11
-14 -7 -13 -8 -5 63 -14 3
-8 75 10 31 -14 -13 5 10
13 -9 -6 -31 13 15 4 -4
-1 -25 -9 75 -27 -21 -15 -16
9 97 -5 43 9 -57 -6 -35
1 6 -13 -127 10 -8 -5 -80
-1 -1 7 -1 1 3 8 -4
15 -1 1 -1 -3 -7 -6 -2
