network_application/eaif_server/models/facereco/pnet_quant_224.tflite (tflite, 7648 bytes, 7 tensors)

model_115/14/Conv2D i1 [8, 3, 3, 3]
0	0x4d	77
1	0x13	19
2	0xc9	-55
3	0x8f	-113
4	0x33	51
5	0x19	25
6	0xfa	-6
7	0x31	49
8	0xaf	-81
9	0x3d	61
10	0x37	55
11	0xdd	-35
12	0x81	-127
13	0xc0	-64
14	0x56	86
15	0x1d	29
16	0xff	-1
17	0xd8	-40
18	0x4d	77
19	0xdd	-35
20	0x19	25
21	0xa6	-90
22	0x85	-123
23	0x46	70
24	0x76	118
25	0xbe	-66
26	0x2b	43
27	0xd8	-40
28	0x1f	31
29	0xef	-17
30	0xb8	-72
31	0x10	16
32	0xef	-17
33	0x81	-127
34	0x1e	30
35	0x19	25
36	0x1a	26
37	0xfe	-2
38	0x12	18
39	0x1b	27
40	0x0f	15
41	0xf1	-15
42	0xd9	-39
43	0x11	17
44	0xee	-18
45	0x41	65
46	0xe4	-28
47	0x06	6
48	0x5b	91
49	0xd8	-40
50	0x14	20
51	0x48	72
52	0xd8	-40
53	0xff	-1
54	0x26	38
55	0xf0	-16
56	0xfc	-4
57	0x12	18
58	0xdd	-35
59	0x13	19
60	0xec	-20
61	0x16	22
62	0xfb	-5
63	0x53	83
64	0x3a	58
65	0x11	17
66	0x7d	125
67	0x02	2
68	0x25	37
69	0x2c	44
70	0x18	24
71	0x00	0
72	0xfd	-3
73	0xe7	-25
74	0xdd	-35
75	0xbd	-67
76	0xa7	-89
77	0xd6	-42
78	0x81	-127
79	0xe1	-31
80	0x35	53
81	0x62	98
82	0x0a	10
83	0x0c	12
84	0x0e	14
85	0xea	-22
86	0xfe	-2
87	0x88	-120
88	0x21	33
89	0xef	-17
90	0x7f	127
91	0xe6	-26
92	0x11	17
93	0x02	2
94	0x09	9
95	0xfb	-5
96	0x9d	-99
97	0x00	0
98	0xe1	-31
99	0x27	39
100	0x0f	15
101	0x03	3
102	0xf2	-14
103	0x00	0
104	0x23	35
105	0xd4	-44
106	0xec	-20
107	0xf0	-16
108	0x81	-127
109	0xe7	-25
110	0x28	40
111	0x88	-120
112	0x36	54
113	0xe0	-32
114	0xf2	-14
115	0x04	4
116	0xf3	-13
117	0xd7	-41
118	0xd6	-42
119	0x02	2
120	0xde	-34
121	0x2c	44
122	0x13	19
123	0x31	49
124	0x08	8
125	0x0c	12
126	0x40	64
127	0xfd	-3
128	0xf7	-9
129	0x7d	125
130	0x19	25
131	0xd2	-46
132	0x5f	95
133	0xcb	-53
134	0x14	20
135	0xa2	-94
136	0x0e	14
137	0xe7	-25
138	0x77	119
139	0x7f	127
140	0xf9	-7
141	0xb3	-77
142	0xce	-50
143	0xf5	-11
144	0xe4	-28
145	0xdb	-37
146	0xde	-34
147	0x6a	106
148	0x2f	47
149	0xf7	-9
150	0x13	19
151	0xbb	-69
152	0xe0	-32
153	0xc9	-55
154	0x0f	15
155	0x19	25
156	0x08	8
157	0xe2	-30
158	0x37	55
159	0x08	8
160	0xde	-34
161	0x2f	47
162	0xa6	-90
163	0x08	8
164	0x3f	63
165	0xe5	-27
166	0x1f	31
167	0xf6	-10
168	0xe6	-26
169	0x26	38
170	0xfa	-6
171	0xfa	-6
172	0x26	38
173	0x1a	26
174	0x22	34
175	0x0d	13
176	0xc8	-56
177	0xcf	-49
178	0x15	21
179	0x1a	26
180	0x44	68
181	0xb3	-77
182	0xeb	-21
183	0x7f	127
184	0xc7	-57
185	0xce	-50
186	0xd9	-39
187	0x08	8
188	0x16	22
189	0x06	6
190	0xe0	-32
191	0x1d	29
192	0xa0	-96
193	0x57	87
194	0x0d	13
195	0x1d	29
196	0x0a	10
197	0xe0	-32
198	0x17	23
199	0x22	34
200	0xcb	-53
201	0x90	-112
202	0x7f	127
203	0xf6	-10
204	0xd8	-40
205	0x3b	59
206	0xf0	-16
207	0x3e	62
208	0xe4	-28
209	0xe1	-31
210	0xa4	-92
211	0x3b	59
212	0x21	33
213	0x29	41
214	0xd2	-46
215	0x04	4

model_115/16/add;model_115/16/Relu;model_115/16/Neg_1;model_115/16/Relu_1;model_115/16/mul i1 [1, 1, 8] scale=0.007525647 zero_point=0
0	0x52	0.61710304
1	0xda	-0.2859746
2	0xff	-0.007525647
3	0xa6	-0.67730826
4	0xeb	-0.15803859
5	0x81	-0.9557572
6	0xa8	-0.66225696
7	0xd5	-0.32360283

model_115/18/Conv2D i1 [7, 3, 3, 8]
0	0xf9	-7
1	0x05	5
2	0x09	9
3	0xf0	-16
4	0xf9	-7
5	0x0d	13
6	0xff	-1
7	0xd8	-40
8	0x0a	10
9	0xf8	-8
10	0x0e	14
11	0xe6	-26
12	0x23	35
13	0x10	16
14	0xf0	-16
15	0x16	22
16	0x24	36
17	0xca	-54
18	0x0a	10
19	0xaa	-86
20	0x12	18
21	0xfb	-5
22	0x20	32
23	0xad	-83
24	0xf8	-8
25	0x12	18
26	0xe8	-24
27	0xf0	-16
28	0xf3	-13
29	0x0b	11
30	0x08	8
31	0xfa	-6
32	0xe5	-27
33	0x0e	14
34	0x16	22
35	0xf1	-15
36	0x01	1
37	0xf2	-14
38	0xfb	-5
39	0xe6	-26
40	0xef	-17
41	0x03	3
42	0x01	1
43	0xed	-19
44	0xfd	-3
45	0xfe	-2
46	0x0c	12
47	0x0f	15
48	0xd5	-43
49	0x2f	47
50	0xed	-19
51	0x0f	15
52	0xe7	-25
53	0x07	7
54	0x01	1
55	0xfd	-3
56	0x81	-127
57	0x28	40
58	0x28	40
59	0xf3	-13
60	0xb6	-74
61	0xb6	-74
62	0xe2	-30
63	0xfc	-4
64	0xd6	-42
65	0x08	8
66	0x16	22
67	0x06	6
68	0x2e	46
69	0xdc	-36
70	0xe6	-26
71	0x22	34
72	0xdc	-36
73	0xaf	-81
74	0x01	1
75	0x20	32
76	0xfb	-5
77	0x08	8
78	0x27	39
79	0xea	-22
80	0xaa	-86
81	0xee	-18
82	0xf4	-12
83	0x37	55
84	0xd7	-41
85	0xfe	-2
86	0xf2	-14
87	0x42	66
88	0xf8	-8
89	0xd8	-40
90	0xfd	-3
91	0x1e	30
92	0xad	-83
93	0x05	5
94	0xfc	-4
95	0x0e	14
96	0xf6	-10
97	0xf9	-7
98	0xf2	-14
99	0x23	35
100	0xdd	-35
101	0x31	49
102	0x10	16
103	0x01	1
104	0xd7	-41
105	0x88	-120
106	0xf0	-16
107	0x1c	28
108	0x81	-127
109	0x10	16
110	0x94	-108
111	0xd6	-42
112	0x1b	27
113	0xce	-50
114	0x1b	27
115	0x55	85
116	0xed	-19
117	0x02	2
118	0xe6	-26
119	0xd4	-44
120	0x18	24
121	0xef	-17
122	0x0b	11
123	0x26	38
124	0xf8	-8
125	0xf4	-12
126	0x2c	44
127	0x17	23
128	0x10	16
129	0xd1	-47
130	0x11	17
131	0x18	24
132	0xf1	-15
133	0xe2	-30
134	0x00	0
135	0xc9	-55
136	0xef	-17
137	0xe3	-29
138	0xfe	-2
139	0xf3	-13
140	0x1e	30
141	0x06	6
142	0x2c	44
143	0x1c	28
144	0xdb	-37
145	0x19	25
146	0x34	52
147	0xc0	-64
148	0x3e	62
149	0xca	-54
150	0xec	-20
151	0x26	38
152	0xb1	-79
153	0x1e	30
154	0x02	2
155	0x94	-108
156	0x0e	14
157	0xce	-50
158	0xc9	-55
159	0x0d	13
160	0x81	-127
161	0x6e	110
162	0x13	19
163	0xb0	-80
164	0xf0	-16
165	0xa4	-92
166	0xb4	-76
167	0x0e	14
168	0x05	5
169	0xf2	-14
170	0x31	49
171	0xdc	-36
172	0x23	35
173	0xe6	-26
174	0xe5	-27
175	0xd9	-39
176	0x03	3
177	0xfc	-4
178	0xee	-18
179	0xf9	-7
180	0xd9	-39
181	0x0a	10
182	0xd5	-43
183	0xe3	-29
184	0x09	9
185	0x0e	14
186	0x09	9
187	0xe4	-28
188	0x03	3
189	0xfc	-4
190	0xae	-82
191	0x9d	-99
192	0x1d	29
193	0x0c	12
194	0x48	72
195	0xab	-85
196	0x38	56
197	0xe0	-32
198	0xd5	-43
199	0xaf	-81
200	0x37	55
201	0xe2	-30
202	0xdf	-33
203	0xdd	-35
204	0x11	17
205	0x2f	47
206	0xe6	-26
207	0x5c	92
208	0x1a	26
209	0xf0	-16
210	0xfe	-2
211	0xf0	-16
212	0xd5	-43
213	0x0a	10
214	0x20	32
215	0x0c	12
216	0xe8	-24
217	0xdf	-33
218	0xf4	-12
219	0x1c	28
220	0x25	37
221	0xf9	-7
222	0xe6	-26
223	0x63	99
224	0xf4	-12
225	0xf1	-15
226	0x22	34
227	0xf8	-8
228	0x05	5
229	0xe3	-29
230	0x0b	11
231	0xef	-17
232	0xfa	-6
233	0x0a	10
234	0xff	-1
235	0x14	20
236	0xe0	-32
237	0xec	-20
238	0xde	-34
239	0x2f	47
240	0xe7	-25
241	0xec	-20
242	0xe4	-28
243	0xec	-20
244	0x0a	10
245	0x24	36
246	0xf7	-9
247	0xe7	-25
248	0x0e	14
249	0x56	86
250	0xff	-1
251	0xeb	-21
252	0x18	24
253	0x0b	11
254	0xd3	-45
255	0x97	-105

model_115/21/Conv2D i1 [13, 3, 3, 7]
0	0xb4	-76
1	0x95	-107
2	0xd0	-48
3	0x22	34
4	0xf0	-16
5	0xee	-18
6	0x98	-104
7	0x99	-103
8	0x87	-121
9	0xfd	-3
10	0x0d	13
11	0xa0	-96
12	0xce	-50
13	0x81	-127
14	0xc8	-56
15	0xa4	-92
16	0x00	0
17	0x17	23
18	0x82	-126
19	0x9f	-97
20	0x8e	-114
21	0xe2	-30
22	0x51	81
23	0x32	50
24	0xff	-1
25	0xb8	-72
26	0xbf	-65
27	0xe0	-32
28	0xe1	-31
29	0x56	86
30	0x18	24
31	0x0f	15
32	0xa8	-88
33	0x06	6
34	0xfe	-2
35	0xed	-19
36	0x68	104
37	0x31	49
38	0x2c	44
39	0xc3	-61
40	0x0e	14
41	0xff	-1
42	0x12	18
43	0x15	21
44	0x08	8
45	0xea	-22
46	0xcc	-52
47	0xa8	-88
48	0xf5	-11
49	0x3d	61
50	0xeb	-21
51	0xfb	-5
52	0xfa	-6
53	0x18	24
54	0xd8	-40
55	0x0f	15
56	0x43	67
57	0x20	32
58	0xe7	-25
59	0x0a	10
60	0x10	16
61	0x30	48
62	0xf2	-14
63	0x13	19
64	0xdd	-35
65	0xa2	-94
66	0x3c	60
67	0x3b	59
68	0xd3	-45
69	0xfe	-2
70	0xed	-19
71	0xec	-20
72	0x2a	42
73	0xf7	-9
74	0x34	52
75	0xb3	-77
76	0xd6	-42
77	0x97	-105
78	0xdc	-36
79	0xb6	-74
80	0x3e	62
81	0x69	105
82	0xc2	-62
83	0xc9	-55
84	0x36	54
85	0xc9	-55
86	0xf0	-16
87	0x36	54
88	0x26	38
89	0x20	32
90	0xf9	-7
91	0x0a	10
92	0xd5	-43
93	0xe4	-28
94	0x55	85
95	0x42	66
96	0xfd	-3
97	0xeb	-21
98	0xc2	-62
99	0xce	-50
100	0xd5	-43
101	0x56	86
102	0x7f	127
103	0xd6	-42
104	0xd0	-48
105	0x08	8
106	0xf4	-12
107	0xed	-19
108	0x15	21
109	0x65	101
110	0xf2	-14
111	0xf2	-14
112	0x2e	46
113	0xe0	-32
114	0xbd	-67
115	0x37	55
116	0x02	2
117	0xa3	-93
118	0xff	-1
119	0xd5	-43
120	0x15	21
121	0xf6	-10
122	0x6d	109
123	0x62	98
124	0xd6	-42
125	0xce	-50
126	0xea	-22
127	0x02	2
128	0x11	17
129	0xb1	-79
130	0x09	9
131	0x11	17
132	0xa0	-96
133	0xeb	-21
134	0x10	16
135	0x0d	13
136	0xc9	-55
137	0x0d	13
138	0xfd	-3
139	0xec	-20
140	0xe8	-24
141	0x17	23
142	0xe3	-29
143	0xda	-38
144	0x07	7
145	0xf5	-11
146	0xdc	-36
147	0x07	7
148	0xfa	-6
149	0x11	17
150	0xa1	-95
151	0x01	1
152	0xe1	-31
153	0xf0	-16
154	0x10	16
155	0xf9	-7
156	0x03	3
157	0xd5	-43
158	0x1b	27
159	0xf8	-8
160	0xed	-19
161	0xeb	-21
162	0x15	21
163	0x00	0
164	0xdc	-36
165	0x01	1
166	0xfe	-2
167	0xf3	-13
168	0x12	18
169	0xec	-20
170	0x6a	106
171	0x81	-127
172	0x21	33
173	0xe0	-32
174	0xcf	-49
175	0x10	16
176	0x04	4
177	0xf6	-10
178	0xcf	-49
179	0xf9	-7
180	0x02	2
181	0xd6	-42
182	0x10	16
183	0x0d	13
184	0x0d	13
185	0xde	-34
186	0x21	33
187	0xeb	-21
188	0xf2	-14
189	0xed	-19
190	0x27	39
191	0xca	-54
192	0xea	-22
193	0x91	-111
194	0xfe	-2
195	0xfc	-4
196	0xfb	-5
197	0xfd	-3
198	0xed	-19
199	0x4d	77
200	0xf9	-7
201	0x02	2
202	0x31	49
203	0x0c	12
204	0xef	-17
205	0x3e	62
206	0x2d	45
207	0xf6	-10
208	0x00	0
209	0x04	4
210	0xfb	-5
211	0x2d	45
212	0xfa	-6
213	0xd7	-41
214	0x94	-108
215	0xef	-17
216	0x1c	28
217	0xe3	-29
218	0xe2	-30
219	0xe5	-27
220	0x13	19
221	0xfd	-3
222	0xfd	-3
223	0x21	33
224	0xfa	-6
225	0xd9	-39
226	0x05	5
227	0x14	20
228	0xf2	-14
229	0xf0	-16
230	0x07	7
231	0xd3	-45
232	0x01	1
233	0x7f	127
234	0xdd	-35
235	0xd3	-45
236	0x1b	27
237	0xfc	-4
238	0xfa	-6
239	0xf6	-10
240	0x9b	-101
241	0x23	35
242	0xd3	-45
243	0xd8	-40
244	0x12	18
245	0x16	22
246	0xf7	-9
247	0xfe	-2
248	0x0e	14
249	0xd8	-40
250	0x06	6
251	0xff	-1
252	0xa4	-92
253	0xd7	-41
254	0x29	41
255	0x20	32

model_115/23/add;model_115/23/Relu;model_115/23/Neg_1;model_115/23/Relu_1;model_115/23/mul i1 [1, 1, 13] scale=0.013230178 zero_point=0
0	0xf9	-0.092611246
1	0x7f	1.6802325
2	0x07	0.092611246
3	0xe7	-0.33075443
4	0x0a	0.13230178
5	0xd6	-0.55566746
6	0xf7	-0.119071595
7	0x0f	0.19845267
8	0xfa	-0.07938106
9	0x0f	0.19845267
10	0xd6	-0.55566746
11	0xf8	-0.10584142
12	0xfc	-0.05292071

model_115/output_0/Conv2D i1 [4, 1, 1, 13]
0	0xd7	-41
1	0x18	24
2	0xcd	-51
3	0x4c	76
4	0x01	1
5	0xed	-19
6	0xf1	-15
7	0xfc	-4
8	0x02	2
9	0xfb	-5
10	0x04	4
11	0xf1	-15
12	0x81	-127
13	0xad	-83
14	0xfa	-6
15	0xee	-18
16	0x10	16
17	0x0a	10
18	0x81	-127
19	0x02	2
20	0xbe	-66
21	0xf5	-11
22	0x1b	27
23	0x5e	94
24	0xed	-19
25	0xc4	-60
26	0x2c	44
27	0xf4	-12
28	0xf9	-7
29	0x07	7
30	0xfc	-4
31	0xff	-1
32	0x06	6
33	0x7f	127
34	0x0a	10
35	0xcf	-49
36	0x07	7
37	0x13	19
38	0xfc	-4
39	0x06	6
40	0xf4	-12
41	0x10	16
42	0xdb	-37
43	0xf7	-9
44	0x81	-127
45	0xf7	-9
46	0x4e	78
47	0x06	6
48	0xe9	-23
49	0x6b	107
50	0x20	32
51	0x48	72

model_115/output_1/Conv2D i1 [2, 1, 1, 13]
0	0xcd	-51
1	0x8f	-113
2	0x5c	92
3	0x18	24
4	0x81	-127
5	0xec	-20
6	0x2a	42
7	0xeb	-21
8	0x0c	12
9	0xad	-83
10	0xb1	-79
11	0x63	99
12	0xb3	-77
13	0x2b	43
14	0x3f	63
15	0xc8	-56
16	0xf1	-15
17	0x7f	127
18	0xf7	-9
19	0xcf	-49
20	0x20	32
21	0xb0	-80
22	0x2c	44
23	0x10	16
24	0xf2	-14
25	0x13	19
