network_application/eaif_server/models/facereco/rnet_quant.tflite (tflite, 114328 bytes, 10 tensors)

model_1/conv1/Conv2D i1 [28, 3, 3, 3]
000000 81 9b b3 05 f3 fa 60 3c 37 99 b5 cd 0d fb 01 61
       -127 -101 -77 5 -13 -6 96 60 55 -103 -75 -51 13 -5 1 97
000010 43 40 b6 d2 e7 22 0d 19 4e 2b 2b f2 db e6 63 37
       67 64 -74 -46 -25 34 13 25 78 43 43 -14 -37 -26 99 55
000020 32 6d 20 04 9c c7 e3 8d 9d a4 4d 27 08 2c 64 7f
       50 109 32 4 -100 -57 -29 -115 -99 -92 77 39 8 44 100 127
000030 b0 e5 f2 e1 f0 d8 97 aa b6 81 a6 b4 98 bc cf ee
       -80 -27 -14 -31 -16 -40 -105 -86 -74 -127 -90 -76 -104 -68 -49 -18
000040 00 fd f7 19 15 fe 13 14 51 49 34 75 73 5d 48 3d
       0 -3 -9 25 21 -2 19 20 81 73 52 117 115 93 72 61
000050 30 4b 44 3b c1 be c5 07 fe ff 20 24 18 81 8f 9a
       48 75 68 59 -63 -66 -59 7 -2 -1 32 36 24 -127 -113 -102
000060 3b 39 3f f7 01 f6 eb f2 f6 2e 23 28 ee 7b b4 e3
       59 57 63 -9 1 -10 -21 -14 -10 46 35 40 -18 123 -76 -29
000070 72 a6 c6 6a c5 e2 5e 98 0e 7f ab e3 6a b1 f5 6f
       114 -90 -58 106 -59 -30 94 -104 14 127 -85 -29 106 -79 -11 111
000080 b8 e7 5c 9a ee 73 b9 e9 d8 e3 d0 bd cc e8 dc da
       -72 -25 92 -102 -18 115 -71 -23 -40 -29 -48 -67 -52 -24 -36 -38
000090 6c 63 5f 7f 78 76 4d 4b 3f b2 bb ca a6 b5 c4 d5
       108 99 95 127 120 118 77 75 63 -78 -69 -54 -90 -75 -60 -43
0000a0 e5 e0 1c f4 02 da ff 28 81 eb 24 3c e6 e2 13 ec
       -27 -32 28 -12 2 -38 -1 40 -127 -21 36 60 -26 -30 19 -20
0000b0 f8 fe 12 2a 63 eb d2 3f e9 d2 2b 00 f2 b1 bc d5
       -8 -2 18 42 99 -21 -46 63 -23 -46 43 0 -14 -79 -68 -43
0000c0 2b 38 3b 7e 7f 63 8b a2 bc ff 19 1d 41 47 2d 93
       43 56 59 126 127 99 -117 -94 -68 -1 25 29 65 71 45 -109
0000d0 a3 b5 da ed ed 18 18 01 56 4d 56 6e 52 61 f1 c7
       -93 -75 -38 -19 -19 24 24 1 86 77 86 110 82 97 -15 -57
0000e0 dd 79 79 62 0b f8 f5 96 81 98 0f 20 f0 97 a1 98
       -35 121 121 98 11 -8 -11 -106 -127 -104 15 32 -16 -105 -95 -104
0000f0 a8 c0 df 98 48 0f a2 5d 38 8e 50 36 b8 4d 22 94
       -88 -64 -33 -104 72 15 -94 93 56 -114 80 54 -72 77 34 -108

model_1/prelu1/add;model_1/prelu1/Relu;model_1/prelu1/Neg_1;model_1/prelu1/Relu_1;model_1/prelu1/mul i1 [1, 1, 28] scale=0.010202595 zero_point=0
000000 7f 09 f4 02 e3 06 01 ed 2a 51 0d f0 00 09 0a 0e
       1.2957295 0.091823354 -0.122431144 0.02040519 -0.29587525 0.061215572 0.010202595 -0.19384931 0.428509 0.8264102 0.13263373 -0.16324152 0.0 0.091823354 0.10202595 0.14283633
000010 7c ec dd d9 12 0a 07 07 04 c0 07 f7
       1.2651218 -0.2040519 -0.35709083 -0.3979012 0.18364671 0.10202595 0.071418166 0.071418166 0.04081038 -0.6529661 0.071418166 -0.091823354

model_1/conv2/Conv2D i1 [48, 3, 3, 28]
000000 1c c3 82 22 0f d8 eb 02 d1 f4 bf 05 ed ff de 1f
       28 -61 -126 34 15 -40 -21 2 -47 -12 -65 5 -19 -1 -34 31
000010 34 7f 04 ad ec b8 05 e3 0b 18 27 40 d9 a4 89 f0
       52 127 4 -83 -20 -72 5 -29 11 24 39 64 -39 -92 -119 -16
000020 0a c1 ff 13 b8 e6 e2 e6 ee ff ba f1 45 6d ff b3
       10 -63 -1 19 -72 -26 -30 -26 -18 -1 -70 -15 69 109 -1 -77
000030 f8 ce fe f7 fb d3 30 27 ce e5 84 c2 0b ce 0d 41
       -8 -50 -2 -9 -5 -45 48 39 -50 -27 -124 -62 11 -50 13 65
000040 b9 fa 23 fb f2 f7 b7 f7 5d 71 14 a5 c8 1b fb 0d
       -71 -6 35 -5 -14 -9 -73 -9 93 113 20 -91 -56 27 -5 13
000050 0f da 2a 0f e4 27 fe 04 01 00 03 2c e3 02 f4 fc
       15 -38 42 15 -28 39 -2 4 1 0 3 44 -29 2 -12 -4
000060 01 02 f2 12 e1 03 fb fc e4 09 0c 14 01 03 f7 1f
       1 2 -14 18 -31 3 -5 -4 -28 9 12 20 1 3 -9 31
000070 f7 f4 e3 fc fb f4 11 20 da 01 cb e4 08 f7 eb 00
       -9 -12 -29 -4 -5 -12 17 32 -38 1 -53 -28 8 -9 -21 0
000080 c1 ee f7 0e e2 01 04 ea f5 fd 0d 25 f5 eb 03 14
       -63 -18 -9 14 -30 1 4 -22 -11 -3 13 37 -11 -21 3 20
000090 fd f4 0f 22 e3 fc f9 ea 0a fc fd ed ee d9 01 0d
       -3 -12 15 34 -29 -4 -7 -22 10 -4 -3 -19 -18 -39 1 13
0000a0 d0 1d 14 08 f4 19 03 28 05 1e 19 0b 05 10 f6 f9
       -48 29 20 8 -12 25 3 40 5 30 25 11 5 16 -10 -7
0000b0 fe 06 14 14 07 fd 04 05 04 f7 0c f6 ee ff fe 0f
       -2 6 20 20 7 -3 4 5 4 -9 12 -10 -18 -1 -2 15
0000c0 06 05 fa 16 fc 0e e3 02 f7 15 fc 09 00 02 ed f0
       6 5 -6 22 -4 14 -29 2 -9 21 -4 9 0 2 -19 -16
0000d0 04 f8 0d 09 fe fa fe f6 f4 fa 07 f7 fe f4 01 0a
       4 -8 13 9 -2 -6 -2 -10 -12 -6 7 -9 -2 -12 1 10
0000e0 f1 13 07 14 f7 0d ff 14 0f 05 ff f4 04 08 1e f3
       -15 19 7 20 -9 13 -1 20 15 5 -1 -12 4 8 30 -13
0000f0 fe ef 0a 04 e7 11 f6 04 0f 06 03 04 f3 ec f0 f2
       -2 -17 10 4 -25 17 -10 4 15 6 3 4 -13 -20 -16 -14

model_1/prelu2/add;model_1/prelu2/Relu;model_1/prelu2/Neg_1;model_1/prelu2/Relu_1;model_1/prelu2/mul i1 [1, 1, 48] scale=0.004950512 zero_point=0
000000 26 26 28 44 25 30 19 0b 12 1c 21 19 26 2b 38 f7
       0.18811947 0.18811947 0.19802049 0.3366348 0.18316895 0.23762459 0.1237628 0.054455634 0.08910922 0.13861434 0.1633669 0.1237628 0.18811947 0.21287203 0.27722868 -0.04455461
000010 42 53 17 3a 47 19 53 f3 3e 29 25 1b 45 00 2c 19
       0.3267338 0.41089252 0.113861784 0.2871297 0.35148636 0.1237628 0.41089252 -0.064356655 0.30693176 0.202971 0.18316895 0.13366383 0.34158534 0.0 0.21782254 0.1237628
000020 42 38 46 11 42 22 7f 18 30 15 34 12 46 4e 00 df
       0.3267338 0.27722868 0.34653586 0.0841587 0.3267338 0.1683174 0.62871504 0.11881229 0.23762459 0.10396075 0.25742662 0.08910922 0.34653586 0.38613996 0.0 -0.1633669

model_1/conv3/Conv2D i1 [64, 2, 2, 48]
000000 06 4f 2d e6 e1 e0 28 fe 10 0f 14 dd 0c d1 a6 12
       6 79 45 -26 -31 -32 40 -2 16 15 20 -35 12 -47 -90 18
000010 40 b7 f6 c6 c3 fb e2 05 e9 3e 5d e1 08 3d f2 3e
       64 -73 -10 -58 -61 -5 -30 5 -23 62 93 -31 8 61 -14 62
000020 14 1e e0 bd 0f ce 37 f8 37 f2 c0 fc 14 e3 22 fb
       20 30 -32 -67 15 -50 55 -8 55 -14 -64 -4 20 -29 34 -5
000030 11 3c 37 14 c5 be 1d 1f f3 e2 0b da 10 02 d7 ff
       17 60 55 20 -59 -66 29 31 -13 -30 11 -38 16 2 -41 -1
000040 29 cc de 0b e3 0d 8c 04 fe 14 f6 17 19 21 59 55
       41 -52 -34 11 -29 13 -116 4 -2 20 -10 23 25 33 89 85
000050 16 58 d5 13 17 d1 15 9f 15 31 b5 e2 df f6 1a ea
       22 88 -43 19 23 -47 21 -97 21 49 -75 -30 -33 -10 26 -22
000060 09 30 e8 d7 fa c5 61 c3 16 e4 e7 d6 eb 35 08 db
       9 48 -24 -41 -6 -59 97 -61 22 -28 -25 -42 -21 53 8 -37
000070 12 3d 15 e1 1a 10 ab 24 db 04 3e df 7f d9 47 0a
       18 61 21 -31 26 16 -85 36 -37 4 62 -33 127 -39 71 10
000080 df f8 eb ff 04 e7 f6 2e 39 09 2b f8 ea fe e4 f0
       -33 -8 -21 -1 4 -25 -10 46 57 9 43 -8 -22 -2 -28 -16
000090 e8 1c fc 76 cb 04 df 07 ba df fe 0c ba 16 d9 0b
       -24 28 -4 118 -53 4 -33 7 -70 -33 -2 12 -70 22 -39 11
0000a0 1a 1f 12 f4 13 db f5 06 ca 0b 12 fd 5f 04 ee 1c
       26 31 18 -12 19 -37 -11 6 -54 11 18 -3 95 4 -18 28
0000b0 c2 e8 e2 0d f5 cb f3 a1 0a e3 f5 ce 2a ec ea eb
       -62 -24 -30 13 -11 -53 -13 -95 10 -29 -11 -50 42 -20 -22 -21
0000c0 fb ee 25 ff 03 32 17 0d 15 22 18 11 fb ff 07 14
       -5 -18 37 -1 3 50 23 13 21 34 24 17 -5 -1 7 20
0000d0 11 ea e8 f2 ed f3 1e ec ec dd d2 10 e4 20 f8 fc
       17 -22 -24 -14 -19 -13 30 -20 -20 -35 -46 16 -28 32 -8 -4
0000e0 12 bb d0 e4 26 fe 09 01 f5 f3 1c e5 1b 0b 2b 0a
       18 -69 -48 -28 38 -2 9 1 -11 -13 28 -27 27 11 43 10
0000f0 fa 60 c7 f2 cd f9 da ea f4 0b 28 de dd 1a f0 f7
       -6 96 -57 -14 -51 -7 -38 -22 -12 11 40 -34 -35 26 -16 -9

model_1/prelu3/add;model_1/prelu3/Relu;model_1/prelu3/Neg_1;model_1/prelu3/Relu_1;model_1/prelu3/mul i1 [1, 1, 64] scale=0.004421108 zero_point=0
000000 f3 01 fc e6 d9 05 ed e2 f7 f1 db 81 c2 16 e9 fb
       -0.057474405 0.004421108 -0.017684432 -0.11494881 -0.17242321 0.02210554 -0.08400105 -0.13263324 -0.03978997 -0.06631662 -0.163581 -0.5614807 -0.27410868 0.09726437 -0.10168548 -0.02210554
000010 ef e2 d8 06 d4 02 29 fa f2 0e b4 c9 9d bf c8 e1
       -0.075158834 -0.13263324 -0.17684431 0.026526649 -0.19452874 0.008842216 0.18126543 -0.026526649 -0.061895512 0.061895512 -0.3360042 -0.24316093 -0.4376897 -0.28737202 -0.24758205 -0.13705434
000020 f2 1d db d9 fe 04 18 09 de f6 f2 fe c6 c0 df d2
       -0.061895512 0.12821212 -0.163581 -0.17242321 -0.008842216 0.017684432 0.106106594 0.03978997 -0.15031767 -0.04421108 -0.061895512 -0.008842216 -0.25642425 -0.2829509 -0.14589657 -0.20337096
000030 16 1a df ba ed 0b fe b8 de ed ff 08 ce e3 cd b3
       0.09726437 0.11494881 -0.14589657 -0.30947757 -0.08400105 0.048632186 -0.008842216 -0.31831977 -0.15031767 -0.08400105 -0.004421108 0.035368863 -0.2210554 -0.12821212 -0.2254765 -0.3404253

model_1/conv4/Conv2D i1 [128, 3, 3, 64]
000000 25 23 1a 0c c2 ca f6 1c 0a ff 21 1c 24 04 fb 97
       37 35 26 12 -62 -54 -10 28 10 -1 33 28 36 4 -5 -105
000010 06 2e bd 27 fc 14 9b 38 20 2b 1f 10 07 c1 11 29
       6 46 -67 39 -4 20 -101 56 32 43 31 16 7 -63 17 41
000020 ee 20 e1 14 0d fe ff 02 06 26 d0 2e 1e 0b d1 e6
       -18 32 -31 20 13 -2 -1 2 6 38 -48 46 30 11 -47 -26
000030 ef 23 07 0e 3a 10 f9 f8 f4 f3 fa 1e ed 11 06 00
       -17 35 7 14 58 16 -7 -8 -12 -13 -6 30 -19 17 6 0
000040 0f 05 25 e4 e6 f7 03 00 12 12 0d 2f fb 0d f7 cc
       15 5 37 -28 -26 -9 3 0 18 18 13 47 -5 13 -9 -52
000050 19 09 cc 09 cb 1d bd f0 cc eb dd 14 0c d5 12 1a
       25 9 -52 9 -53 29 -67 -16 -52 -21 -35 20 12 -43 18 26
000060 c9 d1 ed f3 ec f5 10 05 fd 07 c0 3e 0c ff ec cf
       -55 -47 -19 -13 -20 -11 16 5 -3 7 -64 62 12 -1 -20 -49
000070 fe 06 0b fb 08 fd ca 03 f9 f9 ed 0c f4 f1 f6 20
       -2 6 11 -5 8 -3 -54 3 -7 -7 -19 12 -12 -15 -10 32
000080 3a f0 2d e1 d7 f2 d0 30 fc 14 d5 47 1c 03 1d ba
       58 -16 45 -31 -41 -14 -48 48 -4 20 -43 71 28 3 29 -70
000090 16 ed c6 f7 e7 0b e2 f5 ea e9 e2 44 00 e4 08 00
       22 -19 -58 -9 -25 11 -30 -11 -22 -23 -30 68 0 -28 8 0
0000a0 f4 cb da fa e7 17 08 20 04 ec d6 2d ed f6 eb cd
       -12 -53 -38 -6 -25 23 8 32 4 -20 -42 45 -19 -10 -21 -51
0000b0 00 3a 0f 26 22 3c eb 1c e0 14 d9 e3 d8 bd c9 53
       0 58 15 38 34 60 -21 28 -32 20 -39 -29 -40 -67 -55 83
0000c0 25 26 ef fe e0 04 e2 09 18 dd 3b d3 3d 02 06 ca
       37 38 -17 -2 -32 4 -30 9 24 -35 59 -45 61 2 6 -54
0000d0 18 f5 d2 e7 e6 05 e2 0c f6 10 08 19 f3 d8 f9 38
       24 -11 -46 -25 -26 5 -30 12 -10 16 8 25 -13 -40 -7 56
0000e0 13 16 ea f9 0f 0a 00 21 e6 0d cf 09 0a 11 00 f2
       19 22 -22 -7 15 10 0 33 -26 13 -49 9 10 17 0 -14
0000f0 ee 23 01 1b 0c 06 1f e9 12 14 cf 12 cd f6 e9 f4
       -18 35 1 27 12 6 31 -23 18 20 -49 18 -51 -10 -23 -12

model_1/prelu4/add;model_1/prelu4/Relu;model_1/prelu4/Neg_1;model_1/prelu4/Relu_1;model_1/prelu4/mul i1 [1, 1, 128] scale=0.0052586696 zero_point=0
000000 f3 02 03 ec f2 00 f1 e8 fa f2 a2 fe f3 e0 fb f2
       -0.068362705 0.010517339 0.015776008 -0.105173394 -0.07362138 0.0 -0.07888004 -0.12620807 -0.031552017 -0.07362138 -0.49431494 -0.010517339 -0.068362705 -0.16827743 -0.026293349 -0.07362138
000010 eb 9e fd f6 fe f2 e7 01 fe f6 e8 fe fa e3 fc fb
       -0.11043206 -0.5153496 -0.015776008 -0.052586697 -0.010517339 -0.07362138 -0.13146675 0.0052586696 -0.010517339 -0.052586697 -0.12620807 -0.010517339 -0.031552017 -0.15250142 -0.021034678 -0.026293349
000020 fb eb ed f4 f8 ed c2 ec 01 f2 8f f9 e4 f5 e5 e5
       -0.026293349 -0.11043206 -0.09991472 -0.06310403 -0.042069357 -0.09991472 -0.32603753 -0.105173394 0.0052586696 -0.07362138 -0.59422964 -0.03681069 -0.14724275 -0.057845365 -0.14198408 -0.14198408
000030 f3 de fc ee ed fb a8 f9 f6 fc e4 f9 d3 f4 a1 bf
       -0.068362705 -0.17879477 -0.021034678 -0.09465605 -0.09991472 -0.026293349 -0.46276292 -0.03681069 -0.052586697 -0.021034678 -0.14724275 -0.03681069 -0.23664013 -0.06310403 -0.49957362 -0.34181353
000040 f9 ef d7 f0 e7 f8 f4 ea f2 ef fe fc fa de ee f0
       -0.03681069 -0.089397386 -0.21560545 -0.084138714 -0.13146675 -0.042069357 -0.06310403 -0.11569073 -0.07362138 -0.089397386 -0.010517339 -0.021034678 -0.031552017 -0.17879477 -0.09465605 -0.084138714
000050 00 f4 eb f1 b8 d0 f9 f5 ea ac ba 98 e0 fe ec f8
       0.0 -0.06310403 -0.11043206 -0.07888004 -0.3786242 -0.25241613 -0.03681069 -0.057845365 -0.11569073 -0.44172823 -0.36810687 -0.54690164 -0.16827743 -0.010517339 -0.105173394 -0.042069357
000060 f3 81 f4 f0 f0 f3 e8 fc f2 f7 e6 fb e9 0a e4 9d
       -0.068362705 -0.66785103 -0.06310403 -0.084138714 -0.084138714 -0.068362705 -0.12620807 -0.021034678 -0.07362138 -0.047328025 -0.13672541 -0.026293349 -0.1209494 0.052586697 -0.14724275 -0.5206083
000070 e2 b6 f9 bb f3 b5 d5 06 fd f6 fb f7 f7 dc ff a2
       -0.15776008 -0.38914156 -0.03681069 -0.3628482 -0.068362705 -0.3944002 -0.2261228 0.031552017 -0.015776008 -0.052586697 -0.026293349 -0.047328025 -0.047328025 -0.1893121 -0.0052586696 -0.49431494

model_1/conv5-1/Conv2D i1 [2, 1, 1, 128]
000000 16 fa fe eb 03 fe 0c 78 fd 44 91 fe 0d d3 01 1c
       22 -6 -2 -21 3 -2 12 120 -3 68 -111 -2 13 -45 1 28
000010 09 8b 10 0c 0b 34 25 07 3f e1 05 02 01 5a 10 08
       9 -117 16 12 11 52 37 7 63 -31 5 2 1 90 16 8
000020 fa ed 04 e3 f5 ee 53 e2 07 d6 85 09 12 f8 f0 31
       -6 -19 4 -29 -11 -18 83 -30 7 -42 -123 9 18 -8 -16 49
000030 05 d4 ff 0b fb ed 94 02 1a f9 44 fd bb ea 8f a7
       5 -44 -1 11 -5 -19 -108 2 26 -7 68 -3 -69 -22 -113 -89
000040 09 00 47 e1 04 21 0a de 1e 09 ff 0b 04 40 f8 12
       9 0 71 -31 4 33 10 -34 30 9 -1 11 4 64 -8 18
000050 fb 12 f6 05 76 51 07 09 f8 94 62 90 0b 04 22 fd
       -5 18 -10 5 118 81 7 9 -8 -108 98 -112 11 4 34 -3
000060 fc 7f 09 08 10 fb 24 04 09 06 f1 07 d6 00 05 97
       -4 127 9 8 16 -5 36 4 9 6 -15 7 -42 0 5 -105
000070 3a 9e fe ad 00 9e 44 ff 04 ff 10 fc 07 c9 f3 96
       58 -98 -2 -83 0 -98 68 -1 4 -1 16 -4 7 -55 -13 -106
000080 ea 06 02 15 fd 02 f4 88 03 bc 6f 02 f3 2d ff e4
       -22 6 2 21 -3 2 -12 -120 3 -68 111 2 -13 45 -1 -28
000090 f8 75 f0 f4 f5 cc db f9 c1 20 fb fe ff a6 f0 f7
       -8 117 -16 -12 -11 -52 -37 -7 -63 32 -5 -2 -1 -90 -16 -9
0000a0 05 13 fc 1c 0b 12 ad 1e f9 2a 7b f7 ee 08 10 cf
       5 19 -4 28 11 18 -83 30 -7 42 123 -9 -18 8 16 -49
0000b0 fb 2c 01 f5 05 13 6c fe e6 07 bd 03 45 16 71 58
       -5 44 1 -11 5 19 108 -2 -26 7 -67 3 69 22 113 88
0000c0 f7 ff ba 20 fc df f6 22 e2 f7 00 f6 fc c1 08 ee
       -9 -1 -70 32 -4 -33 -10 34 -30 -9 0 -10 -4 -63 8 -18
0000d0 05 ee 0a fb 8a ae f9 f7 08 6c 9f 70 f5 fc de 03
       5 -18 10 -5 -118 -82 -7 -9 8 108 -97 112 -11 -4 -34 3
0000e0 04 81 f7 f8 f0 05 dc fc f7 fa 0f f9 2a 00 fb 69
       4 -127 -9 -8 -16 5 -36 -4 -9 -6 15 -7 42 0 -5 105
0000f0 c6 62 02 53 01 62 bc 01 fc 01 f0 04 f9 37 0d 6a
       -58 98 2 83 1 98 -68 1 -4 1 -16 4 -7 55 13 106

model_1/conv5-2/Conv2D i1 [4, 1, 1, 128]
000000 d4 ce ff 03 ff 1d 25 f3 ee 22 03 00 ef 06 c8 d5
       -44 -50 -1 3 -1 29 37 -13 -18 34 3 0 -17 6 -56 -43
000010 04 04 05 12 f1 01 07 2a 0f 08 f1 07 c5 10 f7 b8
       4 4 5 18 -15 1 7 42 15 8 -15 7 -59 16 -9 -72
000020 08 24 23 01 d7 e9 e3 01 bb eb 02 e1 0e 22 d8 45
       8 36 35 1 -41 -23 -29 1 -69 -21 2 -31 14 34 -40 69
000030 e2 00 e3 8b 06 1d 0a e8 0e 2e ed fd ff ee 07 08
       -30 0 -29 -117 6 29 10 -24 14 46 -19 -3 -1 -18 7 8
000040 26 09 06 07 df 1e fd e7 02 db e0 15 08 34 d4 df
       38 9 6 7 -33 30 -3 -25 2 -37 -32 21 8 52 -44 -33
000050 d1 ec c8 f7 f2 0d 1b df fb 05 f7 03 fa ad c4 1c
       -47 -20 -56 -9 -14 13 27 -33 -5 5 -9 3 -6 -83 -60 28
000060 ec 01 22 db 19 0b 0f 03 15 d8 7f ee 08 15 1a 04
       -20 1 34 -37 25 11 15 3 21 -40 127 -18 8 21 26 4
000070 ee 0b f0 00 27 fd ec e3 f8 54 f6 b4 f5 02 fb 01
       -18 11 -16 0 39 -3 -20 -29 -8 84 -10 -76 -11 2 -5 1
000080 e8 f2 23 ea e0 01 4e f8 ef e8 00 2f 08 02 ef b3
       -24 -14 35 -22 -32 1 78 -8 -17 -24 0 47 8 2 -17 -77
000090 09 10 1f fb fa 05 03 da 0b 16 d5 13 fc 21 12 d4
       9 16 31 -5 -6 5 3 -38 11 22 -43 19 -4 33 18 -44
0000a0 01 e9 12 fb 17 ee 03 06 dd d6 02 ed e8 e9 b0 18
       1 -23 18 -5 23 -18 3 6 -35 -42 2 -19 -24 -23 -80 24
0000b0 f4 f0 0c f9 17 f5 08 e5 fd d7 ff 13 f8 0c 00 04
       -12 -16 12 -7 23 -11 8 -27 -3 -41 -1 19 -8 12 0 4
0000c0 d8 14 14 06 1d 44 f3 fb e3 db 10 09 fc 1d 03 33
       -40 20 20 6 29 68 -13 -5 -29 -37 16 9 -4 29 3 51
0000d0 06 ce de b4 f1 0b 1d e0 13 08 fc ff 12 de ad 0b
       6 -50 -34 -76 -15 11 29 -32 19 8 -4 -1 18 -34 -83 11
0000e0 e3 06 d7 81 06 4d 0f 06 ff e4 1e f6 fe fc 06 01
       -29 6 -41 -127 6 77 15 6 -1 -28 30 -10 -2 -4 6 1
0000f0 e2 11 fd fd 08 03 cb 0a 1f 35 03 d7 08 ff 01 f7
       -30 17 -3 -3 8 3 -53 10 31 53 3 -41 8 -1 1 -9
