network_application/eaif_server/models/facereco/scrfd.tflite (tflite, 175048 bytes, 37 tensors)

model/167/Conv2D i1 [8, 3, 3, 3]
-28 -20 -18 16 17 -1 -54 -46
-40 42 27 21 127 110 94 -53
-55 -35 51 23 19 94 74 60
-61 -52 -33 127 106 64 101 86
70 -4 -14 -9 52 35 21 16
12 15 -25 -26 -4 -43 -45 -48
-117 -105 -90 -87 -63 -27 -44 -23
-23 111 110 100 -38 -38 -15 -117
-87 -85 97 91 80 112 86 75
-127 -79 -94 -96 -76 -83 75 51
31 -56 70 -41 -63 101 -27 -43
90 -21 -56 116 -42 -87 127 -50
-72 108 -49 -35 101 -31 -71 104
-45 -61 82 -48 12 -12 -4 -15
-15 -3 -5 -5 -23 -2 12 21
-127 -80 -51 -121 -85 -76 36 21
0 -12 -1 -3 -24 -25 -35 29
69 -93 35 58 -94 15 73 -85
57 43 -97 65 20 -108 43 44
-89 70 61 -120 83 42 -127 60
64 -112 80 -55 -46 104 -52 -51
93 -42 -26 115 -49 -55 127 -59
-74 107 -58 -58 97 -48 -28 103
-63 -52 81 -66 -41 98 61 64
82 72 64 -32 -21 -15 105 102
78 -72 -49 -50 -127 -95 -84 18
31 17 -125 -104 -89 17 13 15
00000000: e4ec ee10 11ff cad2 d82a 1b15 7f6e 5ecb
00000010: c9dd 3317 135e 4a3c c3cc df7f 6a40 6556
00000020: 46fc f2f7 3423 1510 0c0f e7e6 fcd5 d3d0
00000030: 8b97 a6a9 c1e5 d4e9 e96f 6e64 dada f18b
00000040: a9ab 615b 5070 564b 81b1 a2a0 b4ad 4b33
00000050: 1fc8 46d7 c165 e5d5 5aeb c874 d6a9 7fce
00000060: b86c cfdd 65e1 b968 d3c3 52d0 0cf4 fcf1
00000070: f1fd fbfb e9fe 0c15 81b0 cd87 abb4 2415
00000080: 00f4 fffd e8e7 dd1d 45a3 233a a20f 49ab
00000090: 392b 9f41 1494 2b2c a746 3d88 532a 813c
000000a0: 4090 50c9 d268 cccd 5dd6 e673 cfc9 7fc5
000000b0: b66b c6c6 61d0 e467 c1cc 51be d762 3d40
000000c0: 5248 40e0 ebf1 6966 4eb8 cfce 81a1 ac12
000000d0: 1f11 8398 a711 0d0f

model/170/depthwise i1 [1, 3, 3, 8]
-18 8 5 -4 -47 40 -33 -10
31 4 36 -44 -7 -28 -22 17
21 -1 -14 8 10 44 -6 4
-127 -16 -10 -40 -64 -16 -81 29
42 -127 -127 -107 -81 -127 -120 52
-1 -28 115 -42 -28 -19 -72 -18
2 17 18 69 89 17 70 45
42 111 -28 -127 127 30 -127 -127
15 18 -4 66 1 19 60 9
00000000: ee08 05fc d128 dff6 1f04 24d4 f9e4 ea11
00000010: 15ff f208 0a2c fa04 81f0 f6d8 c0f0 af1d
00000020: 2a81 8195 af81 8834 ffe4 73d6 e4ed b8ee
00000030: 0211 1245 5911 462d 2a6f e481 7f1e 8181
00000040: 0f12 fc42 0113 3c09

model/173/Conv2D i1 [16, 1, 1, 8]
17 12 77 -127 16 95 -112 73
47 24 34 -118 27 127 -116 16
-127 -38 8 1 4 -1 -6 82
-29 68 -17 19 127 0 19 -12
126 -32 -127 22 -37 -53 26 -68
29 14 10 127 9 -117 107 -7
-83 76 -127 30 88 -23 28 -116
29 17 -5 26 127 -4 35 29
7 6 -41 10 -127 -10 11 3
-11 -3 -3 14 127 8 23 24
47 -75 127 -4 -26 3 -1 -12
10 9 9 -7 -127 -9 -24 -11
-26 127 -11 -17 4 14 -21 -20
51 41 -55 -9 -127 7 -5 48
-4 -88 -32 23 -10 -19 19 -127
-127 -1 44 4 -107 -7 0 -33
00000000: 110c 4d81 105f 9049 2f18 228a 1b7f 8c10
00000010: 81da 0801 04ff fa52 e344 ef13 7f00 13f4
00000020: 7ee0 8116 dbcb 1abc 1d0e 0a7f 098b 6bf9
00000030: ad4c 811e 58e9 1c8c 1d11 fb1a 7ffc 231d
00000040: 0706 d70a 81f6 0b03 f5fd fd0e 7f08 1718
00000050: 2fb5 7ffc e603 fff4 0a09 09f9 81f7 e8f5
00000060: e67f f5ef 040e ebec 3329 c9f7 8107 fb30
00000070: fca8 e017 f6ed 1381 81ff 2c04 95f9 00df

model/176/depthwise i1 [1, 3, 3, 16]
-42 -14 32 -105 -69 50 3 23
-34 10 -43 -54 -28 -97 -32 25
-127 -6 87 -78 36 79 25 -117
35 14 -50 -86 -65 -62 -67 49
-86 -1 50 32 63 40 28 -127
49 31 -16 -51 -44 0 -63 33
28 73 40 -127 -127 79 74 121
50 50 -89 123 -64 -95 -60 65
-11 101 127 -92 71 127 127 57
127 96 -127 127 -127 -126 -127 127
-33 64 93 25 78 69 72 -94
60 16 -46 93 -62 -31 -112 67
55 73 10 10 -101 73 79 55
57 -127 -44 -71 -44 -51 -42 55
69 127 68 40 53 86 100 98
83 -125 -83 -52 -59 -127 -63 83
39 70 60 37 51 31 52 -7
24 -93 -33 -33 -29 -70 -54 40
00000000: d6f2 2097 bb32 0317 de0a d5ca e49f e019
00000010: 81fa 57b2 244f 198b 230e ceaa bfc2 bd31
00000020: aaff 3220 3f28 1c81 311f f0cd d400 c121
00000030: 1c49 2881 814f 4a79 3232 a77b c0a1 c441
00000040: f565 7fa4 477f 7f39 7f60 817f 8182 817f
00000050: df40 5d19 4e45 48a2 3c10 d25d c2e1 9043
00000060: 3749 0a0a 9b49 4f37 3981 d4b9 d4cd d637
00000070: 457f 4428 3556 6462 5383 adcc c581 c153
00000080: 2746 3c25 331f 34f9 18a3 dfdf e3ba ca28

model/179/Conv2D i1 [32, 1, 1, 16]
25 2 -57 -36 17 -5 -32 127
-54 82 -12 103 -35 -15 -16 24
-2 -14 -12 -23 -106 -9 64 -45
90 36 127 9 12 -37 58 -55
30 -16 -1 34 108 -34 -127 59
-115 -48 -127 -48 42 106 -42 123
-32 3 6 22 -17 -34 42 26
127 73 -30 28 -41 -24 54 18
9 8 23 4 4 127 3 15
-5 9 -15 8 2 39 63 12
-58 12 79 -17 18 111 -1 -26
17 -20 -76 5 -70 -54 127 -50
45 -12 -127 55 -9 18 -2 44
14 -22 -5 -9 3 -39 25 -90
6 7 -14 24 40 0 -43 -7
-69 -70 -44 -58 127 23 -11 71
104 -49 -20 -19 -1 -31 -13 14
-127 56 12 -17 1 -5 -3 -1
96 -127 26 -63 -34 4 81 -23
-91 23 -9 0 -85 93 -31 -2
39 -92 -22 -21 -9 127 -5 2
-86 -4 -1 27 -51 4 -39 27
-21 -57 29 -38 127 -35 -80 -7
23 53 12 25 61 -53 46 -30
-18 -78 53 -36 -20 7 16 -108
-19 -13 78 -15 47 -17 62 -127
15 -33 13 5 3 127 -18 1
-7 -10 1 0 0 -17 -4 -17
-72 -61 6 -28 -9 127 -51 -9
-39 -95 -35 12 -33 -108 -28 -15
-1 52 15 1 4 -127 7 5
-6 17 5 5 -2 27 41 7
00000000: 1902 c7dc 11fb e07f ca52 f467 ddf1 f018
00000010: fef2 f4e9 96f7 40d3 5a24 7f09 0cdb 3ac9
00000020: 1ef0 ff22 6cde 813b 8dd0 81d0 2a6a d67b
00000030: e003 0616 efde 2a1a 7f49 e21c d7e8 3612
00000040: 0908 1704 047f 030f fb09 f108 0227 3f0c
00000050: c60c 4fef 126f ffe6 11ec b405 baca 7fce
00000060: 2df4 8137 f712 fe2c 0eea fbf7 03d9 19a6
00000070: 0607 f218 2800 d5f9 bbba d4c6 7f17 f547
00000080: 68cf eced ffe1 f30e 8138 0cef 01fb fdff
00000090: 6081 1ac1 de04 51e9 a517 f700 ab5d e1fe
000000a0: 27a4 eaeb f77f fb02 aafc ff1b cd04 d91b
000000b0: ebc7 1dda 7fdd b0f9 1735 0c19 3dcb 2ee2
000000c0: eeb2 35dc ec07 1094 edf3 4ef1 2fef 3e81
000000d0: 0fdf 0d05 037f ee01 f9f6 0100 00ef fcef
000000e0: b8c3 06e4 f77f cdf7 d9a1 dd0c df94 e4f1
000000f0: ff34 0f01 0481 0705 fa11 0505 fe1b 2907

model/182/depthwise i1 [1, 3, 3, 32]
-57 59 -55 15 58 30 -40 26
-45 -14 -71 43 -11 -50 60 2
9 -107 -46 74 20 -77 76 33
52 86 -23 44 45 1 -18 43
-107 84 -72 18 127 -25 -61 72
-65 38 1 72 10 -91 127 -107
53 57 -74 127 37 -91 95 107
127 109 -84 -58 -87 98 -77 62
-45 46 -44 17 65 -50 -40 56
-20 36 50 34 32 -35 93 65
63 127 -6 90 32 -50 21 -71
48 88 -79 -27 19 62 -72 38
-68 103 -32 -127 -18 127 -86 67
-82 63 15 69 -5 3 -44 -28
39 -116 -127 -32 -80 -58 93 102
-15 -32 -81 127 103 -32 -75 72
-127 127 -115 -20 4 58 -127 127
-127 116 127 127 98 -40 -44 -95
121 -47 -115 -96 -127 -127 127 123
25 -127 -127 -24 -127 127 -127 127
-67 63 -127 93 9 -96 -82 58
-80 55 70 70 119 -46 -16 127
108 119 21 -39 -73 -76 63 -127
17 -76 -52 -127 33 121 -82 70
-21 30 -4 -103 -66 110 -45 41
-32 -55 39 39 27 88 -43 -18
68 -16 -92 -14 28 19 20 87
-80 29 -62 81 71 -30 -66 51
-51 46 -73 -15 -116 96 -70 46
-67 -127 78 58 127 127 -95 -25
127 -88 -50 -72 90 -45 80 47
-84 -44 -59 42 -74 45 -79 103
00000000: c73b c90f 3a1e d81a d3f2 b92b f5ce 3c02
00000010: 0995 d24a 14b3 4c21 3456 e92c 2d01 ee2b
00000020: 9554 b812 7fe7 c348 bf26 0148 0aa5 7f95
00000030: 3539 b67f 25a5 5f6b 7f6d acc6 a962 b33e
00000040: d32e d411 41ce d838 ec24 3222 20dd 5d41
00000050: 3f7f fa5a 20ce 15b9 3058 b1e5 133e b826
00000060: bc67 e081 ee7f aa43 ae3f 0f45 fb03 d4e4
00000070: 278c 81e0 b0c6 5d66 f1e0 af7f 67e0 b548
00000080: 817f 8dec 043a 817f 8174 7f7f 62d8 d4a1
00000090: 79d1 8da0 8181 7f7b 1981 81e8 817f 817f
000000a0: bd3f 815d 09a0 ae3a b037 4646 77d2 f07f
000000b0: 6c77 15d9 b7b4 3f81 11b4 cc81 2179 ae46
000000c0: eb1e fc99 be6e d329 e0c9 2727 1b58 d5ee
000000d0: 44f0 a4f2 1c13 1457 b01d c251 47e2 be33
000000e0: cd2e b7f1 8c60 ba2e bd81 4e3a 7f7f a1e7
000000f0: 7fa8 ceb8 5ad3 502f acd4 c52a b62d b167

model/185/Conv2D i1 [32, 1, 1, 32]
5 -5 4 -21 -4 6 -34 39
-18 -3 127 -16 -25 -4 8 7
-4 5 -25 -7 6 13 -17 -4
8 -14 20 -11 3 26 -10 -2
-104 6 -105 45 89 90 -16 26
-61 7 -23 12 -94 127 -32 -35
-14 79 49 69 -40 97 87 77
-2 -17 90 9 27 12 34 126
-64 -38 0 -23 0 17 -23 -53
-39 20 37 18 19 51 -9 -18
3 127 -35 -5 19 55 -46 29
7 -11 -25 -60 -92 30 21 55
-53 -97 -120 47 31 75 115 -51
-4 15 -23 -92 -60 12 29 107
-93 -46 61 -7 8 -82 -64 -60
22 -27 -106 127 123 38 40 98
6 95 81 -34 6 -98 -36 -62
7 -10 46 92 127 12 38 24
-63 -63 -59 40 -32 -16 -75 54
-51 -30 -30 7 -17 -81 -79 63
37 16 -20 54 78 14 -51 72
53 -25 -39 10 34 68 3 86
33 -32 60 122 13 -17 40 11
36 53 -22 78 42 -127 -95 -23
-27 11 60 7 -18 -14 -54 12
-27 -2 6 -17 -22 7 19 -43
36 127 -16 44 -4 27 35 86
29 3 1 -17 -54 82 12 -77
127 88 41 -24 71 -16 51 74
62 -21 11 -33 52 14 -38 -29
38 51 48 59 -33 -79 17 -39
76 -29 -54 -62 -75 74 -29 -31
00000000: 05fb 04eb fc06 de27 eefd 7ff0 e7fc 0807
00000010: fc05 e7f9 060d effc 08f2 14f5 031a f6fe
00000020: 9806 972d 595a f01a c307 e90c a27f e0dd
00000030: f24f 3145 d861 574d feef 5a09 1b0c 227e
00000040: c0da 00e9 0011 e9cb d914 2512 1333 f7ee
00000050: 037f ddfb 1337 d21d 07f5 e7c4 a41e 1537
00000060: cb9f 882f 1f4b 73cd fc0f e9a4 c40c 1d6b
00000070: a3d2 3df9 08ae c0c4 16e5 967f 7b26 2862
00000080: 065f 51de 069e dcc2 07f6 2e5c 7f0c 2618
00000090: c1c1 c528 e0f0 b536 cde2 e207 efaf b13f
000000a0: 2510 ec36 4e0e cd48 35e7 d90a 2244 0356
000000b0: 21e0 3c7a 0def 280b 2435 ea4e 2a81 a1e9
000000c0: e50b 3c07 eef2 ca0c e5fe 06ef ea07 13d5
000000d0: 247f f02c fc1b 2356 1d03 01ef ca52 0cb3
000000e0: 7f58 29e8 47f0 334a 3eeb 0bdf 340e dae3
000000f0: 2633 303b dfb1 11d9 4ce3 cac2 b54a e3e1

model/188/depthwise i1 [1, 3, 3, 32]
0 9 -5 -18 -2 -14 11 5
-2 4 -16 28 5 11 -34 4
-8 -1 3 -8 23 6 -3 -20
3 -28 7 -1 7 71 42 9
-37 -33 95 -21 -98 -76 -24 16
121 -46 -46 35 -55 100 -118 25
127 127 29 -53 34 61 22 -44
0 65 -29 -21 10 -4 127 -14
-54 -6 -94 85 -15 -29 38 -41
112 17 28 -127 -4 14 40 48
31 -42 126 -20 23 7 0 88
-29 -16 43 21 -3 -82 41 -71
14 -6 -34 -31 -68 -10 -23 19
-10 3 1 10 7 -23 -21 29
-14 -22 -34 18 -13 10 17 23
-4 -38 10 65 -9 85 24 -22
-127 127 127 -127 59 -127 -72 -110
-127 -127 -106 -71 127 -127 127 80
-67 -32 -127 127 127 127 127 -127
127 127 127 -127 -80 24 -26 -27
120 -16 -119 118 -19 -20 127 -127
-119 -56 127 -24 24 -54 9 15
-21 48 68 48 32 -54 -53 15
48 11 -62 85 127 -94 -48 127
-9 18 6 -24 -37 17 -11 37
40 -6 -13 -24 -17 0 14 -10
5 -6 5 -12 -70 1 11 -3
11 -8 8 -2 -10 35 -24 -2
34 3 -27 -32 127 -108 -28 -40
-60 44 -43 -22 -33 52 17 -127
-32 -37 -31 -28 -119 16 14 -1
-20 -4 -21 23 -3 127 -54 -3
00000000: 0009 fbee fef2 0b05 fe04 f01c 050b de04
00000010: f8ff 03f8 1706 fdec 03e4 07ff 0747 2a09
00000020: dbdf 5feb 9eb4 e810 79d2 d223 c964 8a19
00000030: 7f7f 1dcb 223d 16d4 0041 e3eb 0afc 7ff2
00000040: cafa a255 f1e3 26d7 7011 1c81 fc0e 2830
00000050: 1fd6 7eec 1707 0058 e3f0 2b15 fdae 29b9
00000060: 0efa dee1 bcf6 e913 f603 010a 07e9 eb1d
00000070: f2ea de12 f30a 1117 fcda 0a41 f755 18ea
00000080: 817f 7f81 3b81 b892 8181 96b9 7f81 7f50
00000090: bde0 817f 7f7f 7f81 7f7f 7f81 b018 e6e5
000000a0: 78f0 8976 edec 7f81 89c8 7fe8 18ca 090f
000000b0: eb30 4430 20ca cb0f 300b c255 7fa2 d07f
000000c0: f712 06e8 db11 f525 28fa f3e8 ef00 0ef6
000000d0: 05fa 05f4 ba01 0bfd 0bf8 08fe f623 e8fe
000000e0: 2203 e5e0 7f94 e4d8 c42c d5ea df34 1181
000000f0: e0db e1e4 8910 0eff ecfc eb17 fd7f cafd

model/191/Conv2D i1 [32, 1, 1, 32]
-3 -94 36 31 50 -50 24 42
-64 -74 14 -1 -18 5 -30 26
-34 -65 38 -127 -66 55 15 -12
35 45 10 -11 -107 -79 -23 -2
-61 -36 41 60 28 85 6 62
2 -16 -127 -85 59 23 21 -52
-26 -46 117 50 23 -73 -103 -91
8 88 77 34 -97 -55 22 -70
127 -101 18 26 18 -2 -84 -51
39 1 -3 2 -6 -13 79 84
-2 -35 -35 4 -25 -27 33 -30
33 -24 47 -11 -96 37 12 -9
-41 3 -5 -8 22 127 -27 81
-59 56 83 12 0 -90 -69 -26
48 -39 -6 -71 -94 113 -8 104
-10 61 46 67 -117 -12 60 -44
37 -31 15 -4 32 52 -10 -19
-25 -34 -26 -21 20 23 -16 15
57 -47 -8 -15 3 -26 6 24
9 9 127 -14 17 -33 -5 16
-35 34 41 -11 -38 16 5 25
-45 -74 -27 24 18 54 -59 -38
-6 73 -7 30 16 37 8 -42
-2 -33 23 36 -23 78 127 -31
-40 -100 8 -15 -35 98 -44 -6
40 -58 97 -2 -9 66 -24 -89
-13 -24 1 2 -37 90 1 43
12 -29 41 127 69 -18 -29 -12
46 36 59 -127 -47 49 73 66
-10 -14 -20 -6 12 -18 -37 -5
-16 -27 -34 17 -53 -107 -18 17
-12 -3 -14 24 -62 -49 24 34
00000000: fda2 241f 32ce 182a c0b6 0eff ee05 e21a
00000010: debf 2681 be37 0ff4 232d 0af5 95b1 e9fe
00000020: c3dc 293c 1c55 063e 02f0 81ab 3b17 15cc
00000030: e6d2 7532 17b7 99a5 0858 4d22 9fc9 16ba
00000040: 7f9b 121a 12fe accd 2701 fd02 faf3 4f54
00000050: fedd dd04 e7e5 21e2 21e8 2ff5 a025 0cf7
00000060: d703 fbf8 167f e551 c538 530c 00a6 bbe6
00000070: 30d9 fab9 a271 f868 f63d 2e43 8bf4 3cd4
00000080: 25e1 0ffc 2034 f6ed e7de e6eb 1417 f00f
00000090: 39d1 f8f1 03e6 0618 0909 7ff2 11df fb10
000000a0: dd22 29f5 da10 0519 d3b6 e518 1236 c5da
000000b0: fa49 f91e 1025 08d6 fedf 1724 e94e 7fe1
000000c0: d89c 08f1 dd62 d4fa 28c6 61fe f742 e8a7
000000d0: f3e8 0102 db5a 012b 0ce3 297f 45ee e3f4
000000e0: 2e24 3b81 d131 4942 f6f2 ecfa 0cee dbfb
000000f0: f0e5 de11 cb95 ee11 f4fd f218 c2cf 1822

model/194/depthwise i1 [1, 3, 3, 32]
-39 -38 21 22 41 -7 14 74
-52 -6 29 -47 79 49 35 60
39 39 83 -15 -30 58 -13 39
53 88 -88 -2 31 61 95 76
-80 -79 70 63 75 73 77 75
59 -6 12 -109 95 25 102 92
67 62 97 -57 -49 78 75 72
89 59 -126 -46 85 95 127 104
-62 -49 78 44 56 77 57 35
109 4 -29 -63 19 -14 89 51
26 30 45 -61 -6 41 66 47
67 -64 -109 -48 71 28 94 56
-62 -81 61 80 96 34 61 111
-68 36 85 -53 105 105 61 75
79 64 99 -46 -89 103 52 41
79 124 -98 -57 51 76 65 105
-127 -125 127 127 127 127 127 127
92 111 108 -127 127 127 127 127
127 127 127 -127 -127 127 127 127
127 52 -127 -127 127 127 112 127
-87 -82 105 91 66 111 121 59
127 75 36 -125 59 36 95 85
76 84 63 -103 -65 81 95 112
69 -127 -107 -100 100 84 98 68
-35 -59 55 74 73 27 60 75
-31 62 77 -33 58 77 30 34
50 28 46 -56 -46 71 53 10
28 75 -51 -45 19 56 -71 45
-71 -127 93 105 87 79 93 94
93 127 127 -67 61 109 57 98
98 103 55 -95 -104 83 89 78
47 8 -64 -96 53 85 -91 64
00000000: d9da 1516 29f9 0e4a ccfa 1dd1 4f31 233c
00000010: 2727 53f1 e23a f327 3558 a8fe 1f3d 5f4c
00000020: b0b1 463f 4b49 4d4b 3bfa 0c93 5f19 665c
00000030: 433e 61c7 cf4e 4b48 593b 82d2 555f 7f68
00000040: c2cf 4e2c 384d 3923 6d04 e3c1 13f2 5933
00000050: 1a1e 2dc3 fa29 422f 43c0 93d0 471c 5e38
00000060: c2af 3d50 6022 3d6f bc24 55cb 6969 3d4b
00000070: 4f40 63d2 a767 3429 4f7c 9ec7 334c 4169
00000080: 8183 7f7f 7f7f 7f7f 5c6f 6c81 7f7f 7f7f
00000090: 7f7f 7f81 817f 7f7f 7f34 8181 7f7f 707f
000000a0: a9ae 695b 426f 793b 7f4b 2483 3b24 5f55
000000b0: 4c54 3f99 bf51 5f70 4581 959c 6454 6244
000000c0: ddc5 374a 491b 3c4b e13e 4ddf 3a4d 1e22
000000d0: 321c 2ec8 d247 350a 1c4b cdd3 1338 b92d
000000e0: b981 5d69 574f 5d5e 5d7f 7fbd 3d6d 3962
000000f0: 6267 37a1 9853 594e 2f08 c0a0 3555 a540

model/197/Conv2D i1 [64, 1, 1, 32]
56 9 -103 -16 -5 38 -9 -12
17 18 -77 -11 7 5 -88 -5
-55 54 -62 -10 3 -19 15 46
2 -12 28 12 127 31 7 8
40 -83 -89 40 -43 53 -23 -58
-31 -69 -84 7 -52 -26 86 -46
33 13 -108 127 21 -51 66 31
-10 -40 -15 -13 -53 -28 -19 10
49 14 2 -33 13 2 -10 -10
-27 10 -20 -12 18 -8 -3 -32
9 -23 -25 -18 82 -8 8 -1
17 -13 1 -2 14 -12 -24 127
-60 -61 -10 28 -13 -47 71 62
-10 45 -19 -85 64 -10 -32 -13
127 -75 -4 64 70 -92 -73 -34
-9 -18 -11 -7 -12 -41 -31 -50
65 -11 -26 3 0 60 -57 17
3 22 -71 51 76 -15 31 -49
75 25 57 -110 34 -6 42 15
-89 -11 -110 -73 -42 -8 41 127
-36 -19 18 8 -18 -7 -34 -7
16 20 67 6 -16 -17 127 -26
-7 -22 -21 -33 84 -2 -17 11
-82 -17 -15 -17 -17 -11 15 9
5 -30 50 70 -20 127 64 38
4 30 41 -88 25 42 7 -38
63 -16 20 33 -40 28 33 -8
27 23 -21 -26 -8 15 38 80
-58 -23 36 73 59 -26 -24 42
-46 -127 0 -24 47 -52 -95 -106
55 -99 -100 -50 20 7 62 -46
102 -1 59 60 -10 -21 83 26
00000000: 3809 99f0 fb26 f7f4 1112 b3f5 0705 a8fb
00000010: c936 c2f6 03ed 0f2e 02f4 1c0c 7f1f 0708
00000020: 28ad a728 d535 e9c6 e1bb ac07 cce6 56d2
00000030: 210d 947f 15cd 421f f6d8 f1f3 cbe4 ed0a
00000040: 310e 02df 0d02 f6f6 e50a ecf4 12f8 fde0
00000050: 09e9 e7ee 52f8 08ff 11f3 01fe 0ef4 e87f
00000060: c4c3 f61c f3d1 473e f62d edab 40f6 e0f3
00000070: 7fb5 fc40 46a4 b7de f7ee f5f9 f4d7 e1ce
00000080: 41f5 e603 003c c711 0316 b933 4cf1 1fcf
00000090: 4b19 3992 22fa 2a0f a7f5 92b7 d6f8 297f
000000a0: dced 1208 eef9 def9 1014 4306 f0ef 7fe6
000000b0: f9ea ebdf 54fe ef0b aeef f1ef eff5 0f09
000000c0: 05e2 3246 ec7f 4026 041e 29a8 192a 07da
000000d0: 3ff0 1421 d81c 21f8 1b17 ebe6 f80f 2650
000000e0: c6e9 2449 3be6 e82a d281 00e8 2fcc a196
000000f0: 379d 9cce 1407 3ed2 66ff 3b3c f6eb 531a

model/200/depthwise i1 [1, 3, 3, 64]
44 -40 34 76 -59 3 -73 -46
98 7 -37 -51 56 14 -82 -24
40 25 -50 24 -53 46 -100 1
65 11 -127 -52 -26 68 -33 -52
44 48 40 -24 -81 3 -71 19
17 -71 42 75 21 19 68 31
-70 15 -5 3 -17 41 24 18
7 -15 -12 71 -9 -74 -33 -70
46 -66 91 50 -80 59 -91 -75
86 70 -82 -52 81 60 -121 -46
105 -105 -82 91 -76 52 -127 -127
116 -28 57 51 -86 103 -98 -80
-39 91 80 -15 -111 45 -110 40
66 -80 33 77 47 66 121 92
-72 5 -50 32 -23 85 88 70
71 -43 -12 102 -40 -61 -82 -101
29 -49 63 -45 -35 117 -17 -57
9 76 -51 -15 48 76 -1 -33
72 -59 -26 74 -44 26 -99 -94
83 -23 100 70 -55 62 -98 12
-53 100 40 -28 4 94 -81 12
73 -54 16 7 31 79 63 66
-42 82 -70 17 -34 34 74 127
64 -44 -27 59 -10 -45 -108 -55
76 -47 46 127 -81 37 -79 -63
68 62 -86 -66 53 69 -127 -82
52 55 -40 65 -75 85 -65 10
54 -44 -125 31 -70 79 -44 -33
127 91 56 -66 -127 -127 9 77
60 -64 52 86 50 46 63 78
-86 -7 -81 40 -54 71 46 -64
-2 64 -23 98 -65 -93 -81 -49
00000000: 2cd8 224c c503 b7d2 6207 dbcd 380e aee8
00000010: 2819 ce18 cb2e 9c01 410b 81cc e644 dfcc
00000020: 2c30 28e8 af03 b913 11b9 2a4b 1513 441f
00000030: ba0f fb03 ef29 1812 07f1 f447 f7b6 dfba
00000040: 2ebe 5b32 b03b a5b5 5646 aecc 513c 87d2
00000050: 6997 ae5b b434 8181 74e4 3933 aa67 9eb0
00000060: d95b 50f1 912d 9228 42b0 214d 2f42 795c
00000070: b805 ce20 e955 5846 47d5 f466 d8c3 ae9b
00000080: 1dcf 3fd3 dd75 efc7 094c cdf1 304c ffdf
00000090: 48c5 e64a d41a 9da2 53e9 6446 c93e 9e0c
000000a0: cb64 28e4 045e af0c 49ca 1007 1f4f 3f42
000000b0: d652 ba11 de22 4a7f 40d4 e53b f6d3 94c9
000000c0: 4cd1 2e7f af25 b1c1 443e aabe 3545 81ae
000000d0: 3437 d841 b555 bf0a 36d4 831f ba4f d4df
000000e0: 7f5b 38be 8181 094d 3cc0 3456 322e 3f4e
000000f0: aaf9 af28 ca47 2ec0 fe40 e962 bfa3 afcf

model/203/Conv2D i1 [128, 1, 1, 64]
14 67 -24 -13 -35 -125 10 0
-29 -28 27 -26 -31 74 -68 -28
-5 -59 30 -13 -3 22 26 1
13 -29 -41 -44 -12 6 8 -44
-4 36 4 -5 -3 0 -24 63
26 -33 52 -58 8 30 -3 1
-9 -17 36 62 -17 -18 -15 16
-16 80 21 -35 51 -83 127 -92
-30 -17 -20 29 34 15 -15 29
70 55 3 30 53 -5 5 3
-62 11 -14 -25 -36 14 -10 22
-7 23 18 127 14 -38 27 -22
-16 -6 14 -24 -26 38 -42 24
-15 -15 -33 -36 -5 -28 48 8
8 -15 1 15 -3 39 -50 -8
-7 -27 -30 19 -7 -1 -31 -39
-17 -33 -11 10 -88 -69 -5 31
26 -24 7 -37 23 -24 -60 37
-19 35 36 -5 2 -120 -6 -20
1 -13 91 -60 22 -16 46 7
36 -15 46 66 15 -14 -11 -7
-83 -13 40 54 93 -10 -127 75
-2 -14 44 16 20 4 31 -18
32 43 -37 -89 -61 91 1 126
1 -19 29 -38 54 4 -24 12
105 -127 79 1 -53 -27 54 30
-5 -40 -16 24 2 10 -20 24
-27 51 -74 12 44 -34 -23 -55
57 -2 -6 -26 -49 23 9 -24
-48 78 61 80 42 35 -13 -98
-30 -29 -48 -5 -94 -43 -72 9
-13 89 -37 75 40 15 27 13
00000000: 0e43 e8f3 dd83 0a00 e3e4 1be6 e14a bce4
00000010: fbc5 1ef3 fd16 1a01 0de3 d7d4 f406 08d4
00000020: fc24 04fb fd00 e83f 1adf 34c6 081e fd01
00000030: f7ef 243e efee f110 f050 15dd 33ad 7fa4
00000040: e2ef ec1d 220f f11d 4637 031e 35fb 0503
00000050: c20b f2e7 dc0e f616 f917 127f 0eda 1bea
00000060: f0fa 0ee8 e626 d618 f1f1 dfdc fbe4 3008
00000070: 08f1 010f fd27 cef8 f9e5 e213 f9ff e1d9
00000080: efdf f50a a8bb fb1f 1ae8 07db 17e8 c425
00000090: ed23 24fb 0288 faec 01f3 5bc4 16f0 2e07
000000a0: 24f1 2e42 0ff2 f5f9 adf3 2836 5df6 814b
000000b0: fef2 2c10 1404 1fee 202b dba7 c35b 017e
000000c0: 01ed 1dda 3604 e80c 6981 4f01 cbe5 361e
000000d0: fbd8 f018 020a ec18 e533 b60c 2cde e9c9
000000e0: 39fe fae6 cf17 09e8 d04e 3d50 2a23 f39e
000000f0: e2e3 d0fb a2d5 b809 f359 db4b 280f 1b0d

model/206/depthwise i1 [1, 3, 3, 128]
127 -70 -51 1 -96 -16 -71 -75
9 66 13 12 -48 -5 12 -32
122 4 11 3 115 41 -11 22
117 3 44 -8 23 9 -17 -118
56 16 -9 -53 -7 18 16 40
31 -6 -40 -41 -65 -5 -17 27
14 -10 -18 127 -123 34 -68 -28
-15 6 10 -92 5 7 -110 62
-16 127 -42 -15 -98 -8 8 81
-18 23 9 -1 -31 -12 7 -29
35 -90 -23 -3 -45 8 -3 -74
-17 -7 26 -18 0 -46 56 29
-85 -116 -14 -20 -32 6 -7 29
54 0 -8 -7 55 -73 -30 19
17 7 -22 -7 23 -62 -127 47
-107 -87 -8 14 -35 29 5 -30
-113 -72 -49 -36 -62 127 -127 -127
17 25 -9 75 60 -42 -63 -100
21 -28 -27 13 7 73 -47 18
-64 113 -82 21 -101 14 47 -10
-16 -35 -33 -112 -14 -127 88 -61
127 -32 -36 -31 14 -24 -51 111
-65 13 -12 -49 -36 -91 23 -3
-29 -13 79 -109 -34 3 40 89
-20 -21 -8 98 -96 32 22 40
-38 45 67 -18 0 -7 4 17
110 -100 40 -5 127 11 -52 -112
127 64 127 -8 -45 -22 127 -17
60 -110 -24 127 -127 73 -23 -63
9 81 127 -65 87 -60 -96 -33
127 -14 35 -16 127 -59 -83 -79
-84 86 -18 -18 25 9 -24 -39
00000000: 7fba cd01 a0f0 b9b5 0942 0d0c d0fb 0ce0
00000010: 7a04 0b03 7329 f516 7503 2cf8 1709 ef8a
00000020: 3810 f7cb f912 1028 1ffa d8d7 bffb ef1b
00000030: 0ef6 ee7f 8522 bce4 f106 0aa4 0507 923e
00000040: f07f d6f1 9ef8 0851 ee17 09ff e1f4 07e3
00000050: 23a6 e9fd d308 fdb6 eff9 1aee 00d2 381d
00000060: ab8c f2ec e006 f91d 3600 f8f9 37b7 e213
00000070: 1107 eaf9 17c2 812f 95a9 f80e dd1d 05e2
00000080: 8fb8 cfdc c27f 8181 1119 f74b 3cd6 c19c
00000090: 15e4 e50d 0749 d112 c071 ae15 9b0e 2ff6
000000a0: f0dd df90 f281 58c3 7fe0 dce1 0ee8 cd6f
000000b0: bf0d f4cf dca5 17fd e3f3 4f93 de03 2859
000000c0: eceb f862 a020 1628 da2d 43ee 00f9 0411
000000d0: 6e9c 28fb 7f0b cc90 7f40 7ff8 d3ea 7fef
000000e0: 3c92 e87f 8149 e9c1 0951 7fbf 57c4 a0df
000000f0: 7ff2 23f0 7fc5 adb1 ac56 eeee 1909 e8d9

model/209/Conv2D i1 [128, 1, 1, 128]
-3 -9 31 22 54 -28 74 33
7 1 27 12 -61 -31 31 10
-56 -53 -34 -14 -42 -7 -45 2
-49 14 -64 -47 7 -30 -14 17
-40 -57 -45 68 -45 -41 -7 -53
19 -41 -15 6 -7 -33 -50 13
-38 -85 -43 -19 34 58 2 -50
-25 -29 -10 -6 -8 -67 -33 38
37 -34 26 -106 32 -25 -32 -127
-31 7 -65 -12 -12 -43 8 -5
62 25 -2 -76 0 -23 11 -37
16 -29 -33 -34 -1 20 83 100
-4 -52 -26 -37 -3 53 0 -25
25 -42 -26 -30 20 -37 77 -24
-23 -5 8 39 63 -4 23 -25
-37 82 -25 -25 -16 -26 -58 -3
6 -30 22 -40 26 33 -50 -1
-19 -14 3 -47 -52 -70 -16 -80
49 59 -1 -51 55 23 -47 -38
101 -20 -36 -72 -1 11 -58 -57
23 -13 33 24 -21 25 6 -28
-40 93 -5 11 11 6 7 -85
74 31 19 15 24 -67 84 28
-28 80 -54 49 3 -44 -127 -64
22 -27 -38 4 -22 -56 13 23
0 54 9 -40 -96 46 -77 20
-18 29 -24 -16 -15 -63 28 9
-46 22 -43 -12 97 -38 -23 -11
52 70 36 7 -2 -6 -36 90
10 40 -5 13 -51 21 -20 73
8 -20 22 54 63 -23 -73 -14
61 41 36 24 4 -8 -3 12
00000000: fdf7 1f16 36e4 4a21 0701 1b0c c3e1 1f0a
00000010: c8cb def2 d6f9 d302 cf0e c0d1 07e2 f211
00000020: d8c7 d344 d3d7 f9cb 13d7 f106 f9df ce0d
00000030: daab d5ed 223a 02ce e7e3 f6fa f8bd df26
00000040: 25de 1a96 20e7 e081 e107 bff4 f4d5 08fb
00000050: 3e19 feb4 00e9 0bdb 10e3 dfde ff14 5364
00000060: fccc e6db fd35 00e7 19d6 e6e2 14db 4de8
00000070: e9fb 0827 3ffc 17e7 db52 e7e7 f0e6 c6fd
00000080: 06e2 16d8 1a21 ceff edf2 03d1 ccba f0b0
00000090: 313b ffcd 3717 d1da 65ec dcb8 ff0b c6c7
000000a0: 17f3 2118 eb19 06e4 d85d fb0b 0b06 07ab
000000b0: 4a1f 130f 18bd 541c e450 ca31 03d4 81c0
000000c0: 16e5 da04 eac8 0d17 0036 09d8 a02e b314
000000d0: ee1d e8f0 f1c1 1c09 d216 d5f4 61da e9f5
000000e0: 3446 2407 fefa dc5a 0a28 fb0d cd15 ec49
000000f0: 08ec 1636 3fe9 b7f2 3d29 2418 04f8 fd0c

model/212/depthwise i1 [1, 3, 3, 128]
-34 -60 -17 6 16 101 -81 66
-101 -47 9 14 -52 13 40 20
-81 118 -3 -81 54 13 89 61
-81 -45 -57 -42 119 -32 -26 -27
7 -55 -48 68 -2 -5 -38 -79
-36 82 -118 -11 116 127 79 -68
77 -33 -125 -108 31 -99 -68 -31
-61 69 -38 8 94 49 5 -20
23 115 24 22 6 -9 -15 23
-7 -74 116 74 -18 10 11 46
16 18 19 12 1 -24 -88 30
32 -25 -127 126 -62 7 -14 -81
-5 20 127 17 23 -29 102 5
0 73 16 4 -5 -123 6 -10
46 127 48 81 97 -64 -19 -12
-14 -56 -70 127 -23 -87 -47 37
-52 -62 0 35 127 11 -127 44
53 -69 -62 127 120 0 0 127
-63 38 8 39 2 -117 -33 -51
6 26 105 54 29 -51 8 -14
-80 -94 -47 127 -29 -72 -9 -19
-40 127 -10 -7 127 5 -17 -17
11 9 -63 -67 12 -127 -127 -49
-65 0 -79 -6 58 -41 127 15
-70 126 35 127 -25 79 -15 -36
-4 -104 127 20 14 -13 34 92
8 53 38 70 -35 -11 -46 57
46 16 -110 35 -47 127 -33 -75
-10 -20 45 6 41 1 -13 15
1 22 19 -30 -21 -38 -27 -56
6 56 14 -72 -25 -26 127 -84
-22 127 -35 87 -35 -43 32 -4
00000000: dec4 ef06 1065 af42 9bd1 090e cc0d 2814
00000010: af76 fdaf 360d 593d afd3 c7d6 77e0 e6e5
00000020: 07c9 d044 fefb dab1 dc52 8af5 747f 4fbc
00000030: 4ddf 8394 1f9d bce1 c345 da08 5e31 05ec
00000040: 1773 1816 06f7 f117 f9b6 744a ee0a 0b2e
00000050: 1012 130c 01e8 a81e 20e7 817e c207 f2af
00000060: fb14 7f11 17e3 6605 0049 1004 fb85 06f6
00000070: 2e7f 3051 61c0 edf4 f2c8 ba7f e9a9 d125
00000080: ccc2 0023 7f0b 812c 35bb c27f 7800 007f
00000090: c126 0827 028b dfcd 061a 6936 1dcd 08f2
000000a0: b0a2 d17f e3b8 f7ed d87f f6f9 7f05 efef
000000b0: 0b09 c1bd 0c81 81cf bf00 b1fa 3ad7 7f0f
000000c0: ba7e 237f e74f f1dc fc98 7f14 0ef3 225c
000000d0: 0835 2646 ddf5 d239 2e10 9223 d17f dfb5
000000e0: f6ec 2d06 2901 f30f 0116 13e2 ebda e5c8
000000f0: 0638 0eb8 e7e6 7fac ea7f dd57 ddd5 20fc

model/215/Conv2D i1 [128, 1, 1, 128]
-15 -29 0 15 83 13 -21 -7
27 30 -53 -62 -10 12 -74 -17
35 1 39 -64 -7 33 -39 -42
21 -30 -38 -5 -34 78 52 -6
7 -54 -2 -48 1 -85 -55 -3
-16 38 -13 2 -14 11 -51 -28
-81 -18 6 25 -8 -94 -89 -35
15 -75 -3 -56 -17 -31 -12 -3
24 -15 2 -32 1 -3 -9 -39
4 124 -40 -62 -6 -41 38 -38
2 6 64 18 81 2 127 -44
29 -45 -11 13 -9 47 -1 31
-20 -43 -42 -10 69 74 38 -49
-7 -36 8 -47 53 40 -51 -55
-32 36 20 91 -9 28 89 -62
0 -3 -43 -28 -28 -43 10 -36
20 -2 -30 39 5 12 -2 -41
-43 19 -35 -21 -40 -41 16 4
-3 -55 7 19 20 11 -8 -5
18 -40 -34 4 2 35 -74 -81
0 11 1 -46 -19 -20 39 69
-11 22 -25 -10 27 -15 69 53
72 -32 3 -24 -71 39 74 36
-93 -29 20 -49 -2 -8 -47 48
-34 -18 -29 14 -8 18 -28 4
-31 -39 -38 -26 24 -15 -48 7
29 18 -19 -26 56 6 -65 20
-8 -14 -4 -11 -11 13 28 103
9 81 13 -74 -15 -17 59 -21
-12 -11 37 34 -18 26 22 -46
-52 56 -106 7 1 -56 -3 16
36 15 -16 23 127 -9 64 9
00000000: f1e3 000f 530d ebf9 1b1e cbc2 f60c b6ef
00000010: 2301 27c0 f921 d9d6 15e2 dafb de4e 34fa
00000020: 07ca fed0 01ab c9fd f026 f302 f20b cde4
00000030: afee 0619 f8a2 a7dd 0fb5 fdc8 efe1 f4fd
00000040: 18f1 02e0 01fd f7d9 047c d8c2 fad7 26da
00000050: 0206 4012 5102 7fd4 1dd3 f50d f72f ff1f
00000060: ecd5 d6f6 454a 26cf f9dc 08d1 3528 cdc9
00000070: e024 145b f71c 59c2 00fd d5e4 e4d5 0adc
00000080: 14fe e227 050c fed7 d513 ddeb d8d7 1004
00000090: fdc9 0713 140b f8fb 12d8 de04 0223 b6af
000000a0: 000b 01d2 edec 2745 f516 e7f6 1bf1 4535
000000b0: 48e0 03e8 b927 4a24 a3e3 14cf fef8 d130
000000c0: deee e30e f812 e404 e1d9 dae6 18f1 d007
000000d0: 1d12 ede6 3806 bf14 f8f2 fcf5 f50d 1c67
000000e0: 0951 0db6 f1ef 3beb f4f5 2522 ee1a 16d2
000000f0: cc38 9607 01c8 fd10 240f f017 7ff7 4009

model/218/depthwise i1 [1, 3, 3, 128]
20 12 -46 96 -127 -40 26 16
75 41 57 -81 -34 56 34 -22
44 -12 42 109 -6 18 -50 15
19 -18 -62 -1 -127 18 118 127
15 61 -23 16 12 -125 127 34
127 -19 -11 1 -34 5 -104 -113
127 84 -76 25 -79 28 19 17
-9 -5 123 -88 7 -32 -48 -4
-7 -2 14 7 -122 15 -103 -36
37 -16 -34 -19 -12 3 -64 49
35 -109 122 -23 -54 -90 29 48
-56 58 77 127 17 -83 87 89
-24 -74 -28 125 -122 -4 26 0
-19 17 -59 112 127 -99 0 -5
-70 -20 22 4 -39 75 -1 -16
114 -34 52 16 15 -14 102 -38
3 -51 -61 108 -51 -22 11 -41
13 -42 88 -113 -49 45 -19 -32
-19 -54 100 112 37 -63 -15 127
34 127 -79 59 8 -14 -7 34
10 68 -59 -14 2 -90 119 127
17 -2 -26 44 61 -1 -46 54
-2 127 -97 -45 -63 -78 17 127
-27 -6 15 -50 -27 -83 -50 -69
76 -79 127 12 -11 10 -35 -20
-47 -56 36 -36 15 72 -115 15
42 59 74 127 -97 -88 -10 126
-73 74 18 47 84 -34 45 -127
-19 -60 14 116 -92 -4 30 12
-41 50 -114 23 53 -91 127 -29
-30 61 35 17 21 -21 -127 29
127 -19 127 127 -24 -12 -7 -13
00000000: 140c d260 81d8 1a10 4b29 39af de38 22ea
00000010: 2cf4 2a6d fa12 ce0f 13ee c2ff 8112 767f
00000020: 0f3d e910 0c83 7f22 7fed f501 de05 988f
00000030: 7f54 b419 b11c 1311 f7fb 7ba8 07e0 d0fc
00000040: f9fe 0e07 860f 99dc 25f0 deed f403 c031
00000050: 2393 7ae9 caa6 1d30 c83a 4d7f 11ad 5759
00000060: e8b6 e47d 86fc 1a00 ed11 c570 7f9d 00fb
00000070: baec 1604 d94b fff0 72de 3410 0ff2 66da
00000080: 03cd c36c cdea 0bd7 0dd6 588f cf2d ede0
00000090: edca 6470 25c1 f17f 227f b13b 08f2 f922
000000a0: 0a44 c5f2 02a6 777f 11fe e62c 3dff d236
000000b0: fe7f 9fd3 c1b2 117f e5fa 0fce e5ad cebb
000000c0: 4cb1 7f0c f50a ddec d1c8 24dc 0f48 8d0f
000000d0: 2a3b 4a7f 9fa8 f67e b74a 122f 54de 2d81
000000e0: edc4 0e74 a4fc 1e0c d732 8e17 35a5 7fe3
000000f0: e23d 2311 15eb 811d 7fed 7f7f e8f4 f9f3

model/221/Conv2D i1 [128, 1, 1, 128]
7 -47 70 -21 25 -38 -34 -93
-30 9 -30 -47 49 -27 -33 13
-15 -58 54 -16 64 23 -8 8
38 -14 0 -17 15 -24 -32 -10
-18 -8 -33 -12 -41 -3 -57 7
-92 19 -29 -29 7 -32 13 64
110 -29 23 -25 17 17 42 -14
55 -48 -61 39 16 53 -31 -22
4 14 -50 20 3 14 20 24
-58 -8 -40 74 -3 -11 55 -18
5 -44 -16 17 42 -8 -26 -26
-30 45 -11 -31 30 -14 59 -37
-3 127 24 23 5 -9 20 -12
-31 -6 33 -123 -33 45 2 -36
50 -5 14 -15 -4 -23 18 -37
-67 19 -9 1 60 -18 -48 -5
-8 27 -35 -17 -31 -22 -15 18
-16 -2 -25 -32 -36 -22 21 38
-1 3 27 59 11 -38 -15 -3
0 -32 -2 -65 -35 -19 -94 23
-15 -24 -52 -3 -32 -6 16 20
82 -37 16 -22 -20 -37 60 -16
55 -52 1 31 43 16 -23 -40
13 -26 -13 -48 -25 -35 45 -21
-49 -60 -8 47 -40 -3 -31 24
-127 -13 -27 33 -29 4 19 10
-3 -17 51 24 18 -9 -63 -11
4 36 -57 39 -27 17 18 16
-15 23 -44 -17 51 -25 -1 0
-51 -46 1 2 -26 17 -17 -52
-32 -28 5 12 29 84 -9 44
-9 45 -48 20 -4 -6 -41 53
00000000: 07d1 46eb 19da dea3 e209 e2d1 31e5 df0d
00000010: f1c6 36f0 4017 f808 26f2 00ef 0fe8 e0f6
00000020: eef8 dff4 d7fd c707 a413 e3e3 07e0 0d40
00000030: 6ee3 17e7 1111 2af2 37d0 c327 1035 e1ea
00000040: 040e ce14 030e 1418 c6f8 d84a fdf5 37ee
00000050: 05d4 f011 2af8 e6e6 e22d f5e1 1ef2 3bdb
00000060: fd7f 1817 05f7 14f4 e1fa 2185 df2d 02dc
00000070: 32fb 0ef1 fce9 12db bd13 f701 3cee d0fb
00000080: f81b ddef e1ea f112 f0fe e7e0 dcea 1526
00000090: ff03 1b3b 0bda f1fd 00e0 febf dded a217
000000a0: f1e8 ccfd e0fa 1014 52db 10ea ecdb 3cf0
000000b0: 37cc 011f 2b10 e9d8 0de6 f3d0 e7dd 2deb
000000c0: cfc4 f82f d8fd e118 81f3 e521 e304 130a
000000d0: fdef 3318 12f7 c1f5 0424 c727 e511 1210
000000e0: f117 d4ef 33e7 ff00 cdd2 0102 e611 efcc
000000f0: e0e4 050c 1d54 f72c f72d d014 fcfa d735

model/224/Conv2D i1 [16, 1, 1, 32]
74 68 73 9 9 30 -37 -44
127 -24 18 -6 -72 22 51 36
-64 -47 -3 72 -32 -37 -103 41
22 -1 38 -47 33 -67 -12 4
61 33 -29 -49 -25 56 -29 30
-40 -48 -20 -37 -95 1 -38 -48
44 -3 -41 -63 -3 -69 35 -127
63 -23 59 67 -97 28 -115 77
17 -29 -34 2 -106 12 -40 58
-34 -63 127 16 41 -124 -68 78
59 52 -19 -11 -13 -43 -33 73
-23 -59 -102 -71 46 -87 -75 -2
-31 27 -42 56 54 -39 -66 47
-119 20 11 74 -64 -19 10 31
-53 53 40 -61 -1 1 -12 -61
-127 -51 1 8 51 0 -100 26
-26 -18 -36 -62 14 -46 -16 -44
4 -18 -13 -27 -127 -22 -64 -31
-89 -37 -82 26 -6 26 52 -25
38 19 50 -14 37 30 -68 -10
11 127 45 77 -28 61 104 -9
-58 95 -21 -47 -17 -55 70 -40
34 83 -69 -1 -40 112 -63 -12
-19 28 -59 -102 18 6 18 -69
45 -3 -30 -10 -33 -64 41 -36
-19 19 -35 -13 26 12 20 -5
28 -37 54 52 74 127 -1 -6
-70 -10 -92 8 -55 13 -109 19
69 116 -51 -61 -22 40 3 20
-127 -83 2 75 9 80 6 -65
-73 15 38 -25 -16 -27 -69 77
30 45 -49 -44 -30 -15 33 4
00000000: 4a44 4909 091e dbd4 7fe8 12fa b816 3324
00000010: c0d1 fd48 e0db 9929 16ff 26d1 21bd f404
00000020: 3d21 e3cf e738 e31e d8d0 ecdb a101 dad0
00000030: 2cfd d7c1 fdbb 2381 3fe9 3b43 9f1c 8d4d
00000040: 11e3 de02 960c d83a dec1 7f10 2984 bc4e
00000050: 3b34 edf5 f3d5 df49 e9c5 9ab9 2ea9 b5fe
00000060: e11b d638 36d9 be2f 8914 0b4a c0ed 0a1f
00000070: cb35 28c3 ff01 f4c3 81cd 0108 3300 9c1a
00000080: e6ee dcc2 0ed2 f0d4 04ee f3e5 81ea c0e1
00000090: a7db ae1a fa1a 34e7 2613 32f2 251e bcf6
000000a0: 0b7f 2d4d e43d 68f7 c65f ebd1 efc9 46d8
000000b0: 2253 bbff d870 c1f4 ed1c c59a 1206 12bb
000000c0: 2dfd e2f6 dfc0 29dc ed13 ddf3 1a0c 14fb
000000d0: 1cdb 3634 4a7f fffa baf6 a408 c90d 9313
000000e0: 4574 cdc3 ea28 0314 81ad 024b 0950 06bf
000000f0: b70f 26e7 f0e5 bb4d 1e2d cfd4 e2f1 2104

model/225/Conv2D i1 [16, 1, 1, 64]
-42 -66 82 -79 -15 51 40 55
12 50 45 -74 0 11 53 106
-26 50 27 115 18 -23 -67 -10
60 88 89 3 18 -80 -101 -63
72 19 2 84 -2 -17 -36 -12
10 67 -68 25 21 -43 6 -33
-78 -72 77 -34 -113 -49 -105 -8
12 -127 40 -36 -36 25 100 -106
-93 -86 2 -91 -46 -6 6 22
-37 77 -40 -12 4 -92 -34 -59
47 -23 -25 15 -41 -43 66 -56
43 -27 -22 -80 -71 -33 -52 29
-70 -60 -50 -72 -27 30 -4 -41
-37 -127 -85 10 -3 -49 -24 21
-27 -45 -13 44 -108 -88 -19 24
15 -71 16 -66 -37 -14 -91 -33
-77 95 42 64 30 -35 -13 16
-76 37 -14 25 42 22 24 4
-127 -90 45 59 12 -35 -71 35
-4 -68 -42 -86 -50 -39 30 -50
-10 74 13 44 22 -38 -40 9
-46 9 2 5 -42 -50 -35 -69
-29 5 -4 -97 -60 91 15 -1
-98 -80 5 10 -67 0 -63 47
-54 -31 57 -24 13 -71 25 52
-62 -25 63 48 -27 -37 -27 95
-7 -21 26 -2 64 -105 -15 64
-36 -40 -19 -78 54 22 -25 -40
-7 66 22 86 16 -127 -6 33
-74 -28 55 19 8 -57 -72 -10
-48 -28 -66 -89 -57 17 1 8
-35 -61 41 -27 -26 35 -5 -86
00000000: d6be 52b1 f133 2837 0c32 2db6 000b 356a
00000010: e632 1b73 12e9 bdf6 3c58 5903 12b0 9bc1
00000020: 4813 0254 feef dcf4 0a43 bc19 15d5 06df
00000030: b2b8 4dde 8fcf 97f8 0c81 28dc dc19 6496
00000040: a3aa 02a5 d2fa 0616 db4d d8f4 04a4 dec5
00000050: 2fe9 e70f d7d5 42c8 2be5 eab0 b9df cc1d
00000060: bac4 ceb8 e51e fcd7 db81 ab0a fdcf e815
00000070: e5d3 f32c 94a8 ed18 0fb9 10be dbf2 a5df
00000080: b35f 2a40 1edd f310 b425 f219 2a16 1804
00000090: 81a6 2d3b 0cdd b923 fcbc d6aa ced9 1ece
000000a0: f64a 0d2c 16da d809 d209 0205 d6ce ddbb
000000b0: e305 fc9f c45b 0fff 9eb0 050a bd00 c12f
000000c0: cae1 39e8 0db9 1934 c2e7 3f30 e5db e55f
000000d0: f9eb 1afe 4097 f140 dcd8 edb2 3616 e7d8
000000e0: f942 1656 1081 fa21 b6e4 3713 08c7 b8f6
000000f0: d0e4 bea7 c711 0108 ddc3 29e5 e623 fbaa

model/226/Conv2D i1 [16, 1, 1, 128]
127 34 -73 53 -82 21 35 30
3 -39 -20 -106 39 -55 -74 3
-19 -24 -51 -97 -2 37 -25 63
1 88 21 79 33 15 2 18
43 -29 -32 -3 5 -44 -84 -58
-8 -59 -39 32 0 -32 -49 -81
10 -58 21 -51 -64 60 -93 -1
-87 65 52 48 8 12 -58 -23
-8 -81 21 113 0 67 -22 -10
35 -16 -82 -23 -4 106 60 1
-49 57 -69 1 -5 -23 45 -37
60 0 68 -4 23 -31 2 22
25 28 -42 -50 31 -2 -43 52
-13 69 6 7 32 35 35 -56
-116 -49 -56 -44 15 -43 3 -69
43 -1 -25 -73 -28 100 -24 -49
-13 -81 -92 29 -22 -47 59 10
41 -74 -84 -38 85 46 -24 -11
-52 -71 -15 -52 3 99 -80 -77
10 -10 -47 -40 -79 -63 49 -39
44 13 56 -78 -4 64 -17 42
85 -92 -12 -40 83 35 -94 -54
-33 19 12 27 -45 11 25 -70
19 49 -51 -70 -15 3 -33 -84
10 44 -105 27 -55 -4 -49 -73
-61 56 -41 -42 30 -23 -12 8
-5 -87 16 -20 -19 14 -53 -101
57 -3 -8 -105 -11 25 -127 11
33 -27 -66 -57 13 -13 -30 -2
90 -80 -74 11 -6 0 -5 6
-109 -32 -56 -8 -27 5 -42 -28
27 7 -24 -66 -20 -61 13 45
00000000: 7f22 b735 ae15 231e 03d9 ec96 27c9 b603
00000010: ede8 cd9f fe25 e73f 0158 154f 210f 0212
00000020: 2be3 e0fd 05d4 acc6 f8c5 d920 00e0 cfaf
00000030: 0ac6 15cd c03c a3ff a941 3430 080c c6e9
00000040: f8af 1571 0043 eaf6 23f0 aee9 fc6a 3c01
00000050: cf39 bb01 fbe9 2ddb 3c00 44fc 17e1 0216
00000060: 191c d6ce 1ffe d534 f345 0607 2023 23c8
00000070: 8ccf c8d4 0fd5 03bb 2bff e7b7 e464 e8cf
00000080: f3af a41d ead1 3b0a 29b6 acda 552e e8f5
00000090: ccb9 f1cc 0363 b0b3 0af6 d1d8 b1c1 31d9
000000a0: 2c0d 38b2 fc40 ef2a 55a4 f4d8 5323 a2ca
000000b0: df13 0c1b d30b 19ba 1331 cdba f103 dfac
000000c0: 0a2c 971b c9fc cfb7 c338 d7d6 1ee9 f408
000000d0: fba9 10ec ed0e cb9b 39fd f897 f519 810b
000000e0: 21e5 bec7 0df3 e2fe 5ab0 b60b fa00 fb06
000000f0: 93e0 c8f8 e505 d6e4 1b07 e8be ecc3 0d2d

model/267/Conv2D i1 [16, 3, 3, 16]
1 -34 17 -3 22 12 2 -9
-9 27 14 19 16 -4 31 0
-7 -53 -86 -19 -23 -86 -19 76
53 -67 9 -22 -22 -103 -4 -5
-66 70 65 10 -26 -23 48 -12
25 -21 8 -15 43 45 -78 -25
25 -10 -18 35 46 -21 0 -16
28 53 46 21 7 34 37 14
-18 -4 20 -7 4 39 -22 33
-11 -33 11 -55 19 -12 53 -68
2 -7 18 10 55 16 -33 87
-50 -80 56 21 5 19 127 -76
2 -5 -50 28 -55 -23 5 17
-11 -21 -18 -12 -8 34 -1 -30
-9 -1 15 21 30 -19 -23 2
53 -42 -47 69 -4 7 14 -19
8 -20 56 45 31 -36 0 26
54 -15 -45 23 -1 27 -3 -65
75 19 -1 6 11 -47 49 -47
-3 11 5 37 -3 80 -39 7
3 22 17 27 9 -29 33 30
52 -69 -106 -87 46 47 -22 86
-22 -13 -2 49 -35 17 10 20
-2 32 44 30 10 -40 -8 -22
-22 -71 -53 -3 -17 29 19 4
20 -9 -39 -14 -5 -2 -50 -64
3 -39 31 -26 -61 -19 22 -104
23 77 13 127 -11 -19 -69 -79
12 -22 -77 -23 43 8 10 -31
-69 0 94 -34 -14 -16 2 25
8 -23 -4 -45 -4 -36 17 2
13 42 22 -10 -59 41 -21 78
00000000: 01de 11fd 160c 02f7 f71b 0e13 10fc 1f00
00000010: f9cb aaed e9aa ed4c 35bd 09ea ea99 fcfb
00000020: be46 410a e6e9 30f4 19eb 08f1 2b2d b2e7
00000030: 19f6 ee23 2eeb 00f0 1c35 2e15 0722 250e
00000040: eefc 14f9 0427 ea21 f5df 0bc9 13f4 35bc
00000050: 02f9 120a 3710 df57 ceb0 3815 0513 7fb4
00000060: 02fb ce1c c9e9 0511 f5eb eef4 f822 ffe2
00000070: f7ff 0f15 1eed e902 35d6 d145 fc07 0eed
00000080: 08ec 382d 1fdc 001a 36f1 d317 ff1b fdbf
00000090: 4b13 ff06 0bd1 31d1 fd0b 0525 fd50 d907
000000a0: 0316 111b 09e3 211e 34bb 96a9 2e2f ea56
000000b0: eaf3 fe31 dd11 0a14 fe20 2c1e 0ad8 f8ea
000000c0: eab9 cbfd ef1d 1304 14f7 d9f2 fbfe cec0
000000d0: 03d9 1fe6 c3ed 1698 174d 0d7f f5ed bbb1
000000e0: 0cea b3e9 2b08 0ae1 bb00 5ede f2f0 0219
000000f0: 08e9 fcd3 fcdc 1102 0d2a 16f6 c529 eb4e

model/268/Conv2D i1 [16, 3, 3, 16]
6 -11 -51 -79 -47 40 -5 1
76 -127 0 -113 -58 -68 -71 -87
62 -54 -3 -65 -39 35 -18 -42
71 -115 -38 -90 -62 -47 -25 -118
-6 -57 -37 -69 -18 64 80 -59
46 -117 36 -10 -66 -5 38 -59
23 -24 -62 8 48 65 -54 26
32 -50 -7 -44 24 -39 -47 18
1 -58 25 5 6 53 -102 -17
54 8 7 -24 -28 -71 16 -27
-47 -83 -24 -101 -6 33 -65 -14
-11 -68 5 -18 -77 -56 -9 49
34 -25 -2 -8 17 11 -45 62
83 -112 58 11 7 -36 -6 22
32 -27 5 -21 -27 3 -79 49
74 -66 44 -31 3 -12 -23 -35
-58 -102 -67 -91 -18 -18 -67 29
0 -48 29 -56 -21 -2 -25 -17
51 31 -16 35 83 28 15 33
-24 85 -35 15 19 32 50 55
7 42 66 42 25 1 -14 48
8 110 13 -11 -7 -8 -19 49
52 -9 127 11 -28 -65 -6 9
50 117 7 -27 -28 -8 -13 -23
10 -21 9 21 37 -2 50 7
-22 19 16 -38 19 4 57 20
24 -26 3 -55 8 3 56 51
-33 31 0 -15 10 -34 -19 54
19 -69 39 -50 -6 -12 67 54
-8 86 36 -48 -25 -18 -18 -41
9 -62 -4 97 33 24 25 8
23 -28 26 -63 97 7 10 -33
00000000: 06f5 cdb1 d128 fb01 4c81 008f c6bc b9a9
00000010: 3eca fdbf d923 eed6 478d daa6 c2d1 e78a
00000020: fac7 dbbb ee40 50c5 2e8b 24f6 befb 26c5
00000030: 17e8 c208 3041 ca1a 20ce f9d4 18d9 d112
00000040: 01c6 1905 0635 9aef 3608 07e8 e4b9 10e5
00000050: d1ad e89b fa21 bff2 f5bc 05ee b3c8 f731
00000060: 22e7 fef8 110b d33e 5390 3a0b 07dc fa16
00000070: 20e5 05eb e503 b131 4abe 2ce1 03f4 e9dd
00000080: c69a bda5 eeee bd1d 00d0 1dc8 ebfe e7ef
00000090: 331f f023 531c 0f21 e855 dd0f 1320 3237
000000a0: 072a 422a 1901 f230 086e 0df5 f9f8 ed31
000000b0: 34f7 7f0b e4bf fa09 3275 07e5 e4f8 f3e9
000000c0: 0aeb 0915 25fe 3207 ea13 10da 1304 3914
000000d0: 18e6 03c9 0803 3833 df1f 00f1 0ade ed36
000000e0: 13bb 27ce faf4 4336 f856 24d0 e7ee eed7
000000f0: 09c2 fc61 2118 1908 17e4 1ac1 6107 0adf

model/269/Conv2D i1 [16, 3, 3, 16]
-19 -48 51 -9 -17 -3 96 -95
-78 14 94 -35 -23 -54 85 3
52 -45 54 -16 4 0 14 -25
24 37 73 -44 -47 -90 77 10
25 -110 10 -12 0 51 21 -39
-5 5 127 -41 -31 -111 101 2
-5 -2 45 14 -28 -16 83 -63
-88 7 67 38 -22 8 27 -17
58 13 61 38 -12 3 -60 -15
13 10 32 69 -27 49 28 15
40 -49 8 40 0 66 -52 -36
-41 -18 70 39 36 23 59 68
36 -81 -4 42 -77 -1 65 54
-104 -16 59 59 -28 -31 83 4
77 -34 9 5 -56 26 -31 74
-38 15 22 44 -27 -2 115 22
90 -70 -23 35 -3 65 -10 57
-53 -45 30 23 67 -34 99 87
20 4 -13 -2 -47 0 -51 -60
-3 28 43 -10 -7 -84 -27 -40
39 -35 8 8 -41 5 -4 -36
-12 -10 40 -37 -51 -36 12 -24
-3 -40 40 18 -26 25 67 -71
-6 -38 127 -61 -68 -29 -33 -32
6 24 -14 -36 -34 29 -11 -67
-14 74 8 -17 8 -31 -49 -5
23 1 -16 -42 -19 24 9 -31
-20 60 -44 -71 -42 13 -3 13
-31 -3 28 -19 -20 55 82 -44
-35 21 46 -70 -36 5 -44 25
56 33 15 1 -9 -4 37 -24
103 -20 55 6 -1 -39 -77 -21
00000000: edd0 33f7 effd 60a1 b20e 5edd e9ca 5503
00000010: 34d3 36f0 0400 0ee7 1825 49d4 d1a6 4d0a
00000020: 1992 0af4 0033 15d9 fb05 7fd7 e191 6502
00000030: fbfe 2d0e e4f0 53c1 a807 4326 ea08 1bef
00000040: 3a0d 3d26 f403 c4f1 0d0a 2045 e531 1c0f
00000050: 28cf 0828 0042 ccdc d7ee 4627 2417 3b44
00000060: 24af fc2a b3ff 4136 98f0 3b3b e4e1 5304
00000070: 4dde 0905 c81a e14a da0f 162c e5fe 7316
00000080: 5aba e923 fd41 f639 cbd3 1e17 43de 6357
00000090: 1404 f3fe d100 cdc4 fd1c 2bf6 f9ac e5d8
000000a0: 27dd 0808 d705 fcdc f4f6 28db cddc 0ce8
000000b0: fdd8 2812 e619 43b9 fada 7fc3 bce3 dfe0
000000c0: 0618 f2dc de1d f5bd f24a 08ef 08e1 cffb
000000d0: 1701 f0d6 ed18 09e1 ec3c d4b9 d60d fd0d
000000e0: e1fd 1ced ec37 52d4 dd15 2eba dc05 d419
000000f0: 3821 0f01 f7fc 25e8 67ec 3706 ffd9 b3eb

model/270/Conv2D i1 [16, 3, 3, 16]
-31 -5 -61 14 3 -8 -15 37
-8 -45 34 0 1 59 -73 -27
-34 -17 -10 -57 -5 22 13 16
-51 -10 2 -5 -24 47 -65 54
-10 -15 14 -48 -2 23 17 -20
3 -15 0 -36 -13 41 14 35
21 25 0 39 -3 -24 -12 27
24 -45 29 17 -22 59 -82 62
28 10 33 7 26 -5 31 -22
61 -4 -6 76 -82 -6 -100 120
53 -18 40 47 -12 21 16 -35
113 5 -16 48 -62 28 -8 37
2 32 -6 5 -2 -11 -23 33
-13 -26 -40 12 26 10 1 27
27 23 37 -10 48 -23 17 34
2 -22 -55 43 27 -127 24 78
29 -7 60 32 21 -32 -10 32
57 -3 -47 7 24 -59 52 12
-30 24 4 -15 -26 1 52 -17
-23 -20 3 13 15 14 15 11
-13 5 18 7 30 65 -16 40
2 -26 10 72 -6 7 -30 -69
-5 -26 39 -9 46 24 -23 84
38 14 -35 69 2 -50 -28 -57
4 2 25 -4 -8 -4 -13 5
-10 21 1 57 4 32 10 20
-20 -27 26 11 4 16 -31 59
-70 19 -15 85 -18 104 -13 -19
21 -39 52 -17 52 -25 -59 86
-127 40 -48 9 -31 38 -53 -54
0 -20 -9 29 12 -7 59 15
-10 -3 11 35 24 25 -5 14
00000000: e1fb c30e 03f8 f125 f8d3 2200 013b b7e5
00000010: deef f6c7 fb16 0d10 cdf6 02fb e82f bf36
00000020: f6f1 0ed0 fe17 11ec 03f1 00dc f329 0e23
00000030: 1519 0027 fde8 f41b 18d3 1d11 ea3b ae3e
00000040: 1c0a 2107 1afb 1fea 3dfc fa4c aefa 9c78
00000050: 35ee 282f f415 10dd 7105 f030 c21c f825
00000060: 0220 fa05 fef5 e921 f3e6 d80c 1a0a 011b
00000070: 1b17 25f6 30e9 1122 02ea c92b 1b81 184e
00000080: 1df9 3c20 15e0 f620 39fd d107 18c5 340c
00000090: e218 04f1 e601 34ef e9ec 030d 0f0e 0f0b
000000a0: f305 1207 1e41 f028 02e6 0a48 fa07 e2bb
000000b0: fbe6 27f7 2e18 e954 260e dd45 02ce e4c7
000000c0: 0402 19fc f8fc f305 f615 0139 0420 0a14
000000d0: ece5 1a0b 0410 e13b ba13 f155 ee68 f3ed
000000e0: 15d9 34ef 34e7 c556 8128 d009 e126 cbca
000000f0: 00ec f71d 0cf9 3b0f f6fd 0b23 1819 fb0e

model/272/Conv2D i1 [16, 3, 3, 16]
-48 -12 -45 44 39 -1 -36 14
-20 58 32 -21 -18 11 11 43
-24 57 10 70 48 33 -78 2
-21 -1 41 -16 -34 58 -53 -6
13 32 21 -45 28 18 -37 -47
-11 52 1 -3 -40 33 -38 12
-61 -16 -72 38 65 0 -29 41
-30 52 39 -44 -21 -30 42 37
-35 46 -52 94 69 35 -60 36
-21 -11 56 -17 -53 12 19 -22
7 -3 -25 -5 32 34 -38 -13
24 28 17 -12 -54 -33 8 -32
-49 32 -68 52 76 -59 27 19
-21 29 12 -7 3 -46 35 65
-21 51 -14 127 72 -46 -16 31
-15 -12 11 31 1 -20 -7 0
-6 20 8 63 17 -34 21 -2
38 6 -17 28 7 -92 -21 -10
7 -18 45 26 19 -56 -53 46
-46 -7 13 17 -55 48 -44 -13
16 -7 39 -66 70 -21 -15 -28
-7 45 -56 9 -38 8 -7 -19
40 58 39 -19 22 -3 28 21
17 -24 -58 47 3 25 40 63
-18 7 17 5 3 -59 -80 75
-71 -19 12 11 -30 94 -61 -26
-23 24 22 -40 9 -31 -23 -1
-33 -2 -83 -14 -9 26 -28 -31
-11 84 3 -41 -19 -42 5 39
-13 -77 -85 54 8 70 16 43
21 22 19 -3 -4 -37 -116 33
-31 -2 42 2 -2 57 8 5
00000000: d0f4 d32c 27ff dc0e ec3a 20eb ee0b 0b2b
00000010: e839 0a46 3021 b202 ebff 29f0 de3a cbfa
00000020: 0d20 15d3 1c12 dbd1 f534 01fd d821 da0c
00000030: c3f0 b826 4100 e329 e234 27d4 ebe2 2a25
00000040: dd2e cc5e 4523 c424 ebf5 38ef cb0c 13ea
00000050: 07fd e7fb 2022 daf3 181c 11f4 cadf 08e0
00000060: cf20 bc34 4cc5 1b13 eb1d 0cf9 03d2 2341
00000070: eb33 f27f 48d2 f01f f1f4 0b1f 01ec f900
00000080: fa14 083f 11de 15fe 2606 ef1c 07a4 ebf6
00000090: 07ee 2d1a 13c8 cb2e d2f9 0d11 c930 d4f3
000000a0: 10f9 27be 46eb f1e4 f92d c809 da08 f9ed
000000b0: 283a 27ed 16fd 1c15 11e8 c62f 0319 283f
000000c0: ee07 1105 03c5 b04b b9ed 0c0b e25e c3e6
000000d0: e918 16d8 09e1 e9ff dffe adf2 f71a e4e1
000000e0: f554 03d7 edd6 0527 f3b3 ab36 0846 102b
000000f0: 1516 13fd fcdb 8c21 e1fe 2a02 fe39 0805

model/274/Conv2D i1 [16, 3, 3, 16]
-29 -8 12 -31 -50 24 0 2
16 -13 6 5 -11 -64 9 0
-73 27 21 -49 7 -18 -16 7
33 56 39 -3 4 0 -9 -46
4 11 34 35 -13 1 -49 -56
54 -4 7 60 7 -1 25 -11
10 -8 8 17 -19 3 11 22
-9 2 -44 -3 -31 -22 -8 -2
-43 -8 39 -27 20 -65 -21 41
20 18 44 -35 -1 -6 41 56
20 -8 18 78 18 -36 -25 -2
11 2 3 -9 32 -72 9 20
-18 41 -7 10 -19 9 -15 49
-21 11 -13 42 -18 -10 -3 -14
-67 13 -24 63 -7 78 86 -78
-2 -88 -23 45 -60 80 -80 -36
-59 24 -1 28 43 77 -4 -127
50 -42 2 60 -49 93 -72 -34
74 28 -44 26 -34 -9 10 -24
16 -2 -56 14 -4 -20 -31 -69
17 -11 -16 -39 60 25 64 26
-39 39 -33 -5 -70 16 -35 21
-9 -21 31 3 12 9 -4 6
28 15 12 10 62 -27 10 32
-56 64 -91 1 -51 -13 -23 -12
2 -40 37 -24 38 12 50 -14
-112 79 -29 -9 -74 -25 67 -62
4 -67 -13 -8 16 73 82 -54
51 -66 72 37 -33 -50 9 50
5 -7 -13 -52 19 -54 -25 -20
30 -56 -21 -27 -16 41 13 22
-38 9 27 11 7 -26 7 -22
00000000: e3f8 0ce1 ce18 0002 10f3 0605 f5c0 0900
00000010: b71b 15cf 07ee f007 2138 27fd 0400 f7d2
00000020: 040b 2223 f301 cfc8 36fc 073c 07ff 19f5
00000030: 0af8 0811 ed03 0b16 f702 d4fd e1ea f8fe
00000040: d5f8 27e5 14bf eb29 1412 2cdd fffa 2938
00000050: 14f8 124e 12dc e7fe 0b02 03f7 20b8 0914
00000060: ee29 f90a ed09 f131 eb0b f32a eef6 fdf2
00000070: bd0d e83f f94e 56b2 fea8 e92d c450 b0dc
00000080: c518 ff1c 2b4d fc81 32d6 023c cf5d b8de
00000090: 4a1c d41a def7 0ae8 10fe c80e fcec e1bb
000000a0: 11f5 f0d9 3c19 401a d927 dffb ba10 dd15
000000b0: f7eb 1f03 0c09 fc06 1c0f 0c0a 3ee5 0a20
000000c0: c840 a501 cdf3 e9f4 02d8 25e8 260c 32f2
000000d0: 904f e3f7 b6e7 43c2 04bd f3f8 1049 52ca
000000e0: 33be 4825 dfce 0932 05f9 f3cc 13ca e7ec
000000f0: 1ec8 ebe5 f029 0d16 da09 1b0b 07e6 07ea

model/275/Conv2D i1 [16, 3, 3, 16]
-45 -39 40 -25 50 -26 16 110
-50 -31 30 -37 -60 40 -2 47
-42 -9 13 34 38 -29 14 8
23 -7 -15 -100 -17 -70 48 18
-91 -30 17 -37 71 39 -39 27
66 -78 -12 -127 -67 -118 7 60
-6 -43 0 -26 18 19 7 23
-38 7 54 -23 -46 49 0 83
21 -11 -44 29 1 -23 -15 -66
49 75 6 -17 6 -47 -4 29
2 -31 -7 -12 51 53 -22 1
30 59 49 -35 -44 -46 -11 34
39 31 -78 -77 6 11 21 38
-61 -71 84 -39 49 70 -50 -45
34 31 -82 -43 -9 5 -25 -16
43 7 41 1 18 4 -53 -22
70 -39 -67 -93 35 -19 25 56
35 15 66 62 0 34 -63 -45
-2 -35 40 127 -70 3 -56 -65
2 36 -93 28 6 -12 37 -37
-6 8 67 65 18 20 -126 -59
12 57 -29 -6 -17 -35 -10 11
-19 2 73 45 40 52 -54 18
-20 -2 77 -66 -67 -33 55 25
-45 63 -14 35 -102 -44 -90 -33
25 56 -5 -60 -24 -43 -55 53
-49 98 2 -55 -38 -21 -40 -13
52 36 58 10 -6 -32 -68 -25
-46 56 -46 -32 -26 22 54 -65
20 -5 69 -17 -4 -103 -7 -61
0 21 30 0 6 5 -46 49
5 107 38 -90 -6 -16 -29 49
00000000: d3d9 28e7 32e6 106e cee1 1edb c428 fe2f
00000010: d6f7 0d22 26e3 0e08 17f9 f19c efba 3012
00000020: a5e2 11db 4727 d91b 42b2 f481 bd8a 073c
00000030: fad5 00e6 1213 0717 da07 36e9 d231 0053
00000040: 15f5 d41d 01e9 f1be 314b 06ef 06d1 fc1d
00000050: 02e1 f9f4 3335 ea01 1e3b 31dd d4d2 f522
00000060: 271f b2b3 060b 1526 c3b9 54d9 3146 ced3
00000070: 221f aed5 f705 e7f0 2b07 2901 1204 cbea
00000080: 46d9 bda3 23ed 1938 230f 423e 0022 c1d3
00000090: fedd 287f ba03 c8bf 0224 a31c 06f4 25db
000000a0: fa08 4341 1214 82c5 0c39 e3fa efdd f60b
000000b0: ed02 492d 2834 ca12 ecfe 4dbe bddf 3719
000000c0: d33f f223 9ad4 a6df 1938 fbc4 e8d5 c935
000000d0: cf62 02c9 daeb d8f3 3424 3a0a fae0 bce7
000000e0: d238 d2e0 e616 36bf 14fb 45ef fc99 f9c3
000000f0: 0015 1e00 0605 d231 056b 26a6 faf0 e331

model/346/depthwise i1 [1, 3, 3, 16]
0 4 71 2 44 10 -6 2
30 -4 -58 48 -9 58 -79 10
-14 16 127 48 -1 41 -88 -41
-33 8 -63 127 15 4 -127 27
2 1 -14 67 -24 2 -127 4
-8 12 4 1 9 -10 -66 -10
15 1 11 -15 100 17 17 -9
61 5 19 53 10 68 83 -10
127 18 6 -127 -127 127 -7 53
-127 -13 127 -82 -127 -21 -121 -127
-9 -2 47 94 -12 -2 -107 -33
17 22 0 32 28 -11 71 8
12 -9 -44 -1 16 -2 -8 6
35 1 -4 22 -23 127 -14 7
-7 -127 33 18 116 -35 8 -127
99 -9 94 -5 -30 49 5 -11
1 -9 49 85 62 6 -56 10
45 127 13 -2 5 -11 -35 5
00000000: 0004 4702 2c0a fa02 1efc c630 f73a b10a
00000010: f210 7f30 ff29 a8d7 df08 c17f 0f04 811b
00000020: 0201 f243 e802 8104 f80c 0401 09f6 bef6
00000030: 0f01 0bf1 6411 11f7 3d05 1335 0a44 53f6
00000040: 7f12 0681 817f f935 81f3 7fae 81eb 8781
00000050: f7fe 2f5e f4fe 95df 1116 0020 1cf5 4708
00000060: 0cf7 d4ff 10fe f806 2301 fc16 e97f f207
00000070: f981 2112 74dd 0881 63f7 5efb e231 05f5
00000080: 01f7 3155 3e06 c80a 2d7f 0dfe 05f5 dd05

model/349/Conv2D i1 [32, 1, 1, 16]
-16 63 54 26 12 9 127 -88
59 39 54 5 -17 -69 30 31
127 6 1 -6 -2 -3 4 -74
-26 8 8 59 -70 46 19 1
32 36 60 -116 -10 42 -113 16
41 -127 -101 92 18 98 76 -60
27 -27 28 -66 -43 -41 92 -60
-26 31 4 -39 59 51 127 -17
20 -11 16 59 -43 14 -127 117
-38 -29 -39 7 6 -11 -14 -40
14 95 -57 -1 29 43 18 -16
127 -9 -66 -75 -71 -20 21 -37
-75 -77 40 -26 50 -108 65 -127
44 7 24 45 -54 -33 -77 44
89 127 -37 124 -16 17 -25 -40
-19 -10 -45 -37 92 9 8 -57
10 -5 -32 -11 22 -39 95 127
-8 17 76 7 -36 29 115 -5
-9 56 -69 -75 88 -27 79 -93
84 58 52 -20 -82 21 127 -15
42 18 -72 -40 -4 -40 109 -42
-7 7 21 127 -37 26 104 44
-92 -86 9 6 -104 -93 36 54
23 56 38 -2 -24 127 -47 -26
7 20 -20 80 0 -98 9 18
-4 127 -7 -26 -31 6 -16 -12
-23 -12 -7 -53 38 -93 74 19
-2 81 91 31 -19 38 5 127
-61 -70 99 -127 -26 -79 53 61
6 -84 39 30 -22 43 87 111
-29 -86 79 -56 -127 -111 32 28
78 38 85 -32 -45 46 -2 64
00000000: f03f 361a 0c09 7fa8 3b27 3605 efbb 1e1f
00000010: 7f06 01fa fefd 04b6 e608 083b ba2e 1301
00000020: 2024 3c8c f62a 8f10 2981 9b5c 1262 4cc4
00000030: 1be5 1cbe d5d7 5cc4 e61f 04d9 3b33 7fef
00000040: 14f5 103b d50e 8175 dae3 d907 06f5 f2d8
00000050: 0e5f c7ff 1d2b 12f0 7ff7 beb5 b9ec 15db
00000060: b5b3 28e6 3294 4181 2c07 182d cadf b32c
00000070: 597f db7c f011 e7d8 edf6 d3db 5c09 08c7
00000080: 0afb e0f5 16d9 5f7f f811 4c07 dc1d 73fb
00000090: f738 bbb5 58e5 4fa3 543a 34ec ae15 7ff1
000000a0: 2a12 b8d8 fcd8 6dd6 f907 157f db1a 682c
000000b0: a4aa 0906 98a3 2436 1738 26fe e87f d1e6
000000c0: 0714 ec50 009e 0912 fc7f f9e6 e106 f0f4
000000d0: e9f4 f9cb 26a3 4a13 fe51 5b1f ed26 057f
000000e0: c3ba 6381 e6b1 353d 06ac 271e ea2b 576f
000000f0: e3aa 4fc8 8191 201c 4e26 55e0 d32e fe40
